WGAN_pt/D001289Big_Adam.pt (torch, 673751 bytes, 6 tensors)

weight f4 [256, 100]
00000000: 4387 303c 6101 d8bc 4d16 6d3d a78e ad3b
00000010: a73d c43d 71af cd3c 61e1 98bc 0c1d fc3b
00000020: cfc7 0d3d a501 b4bc 5e44 8b3d 2da6 923d
00000030: 6cca 993c 7c70 25bd e4f9 1f3c 717b 0bbd
00000040: e746 4e3d 4788 a7bd 1059 633d 784c f0bc
00000050: a5b6 4f3d 0c6a 08be 32f1 873d 874d bd3b
00000060: 67ec 423d 1f49 113c c8ac 59bb 94ff 2fbc
00000070: 0cdb 223d 8b37 4bbc f620 30bd f456 29bd
00000080: 3c11 683b 7613 d03d 968b 17bc 5f59 debb
00000090: 5562 1bbd 4228 85bc 2b82 ad3d e390 8e3d
000000a0: afd6 d2ba ef23 5ebd e4f6 5fbc a951 393c
000000b0: 34f3 f8bc 0ed0 803d cc1e 9cbd 742a 9cbb
000000c0: 5004 16bd c9e7 3dbd 255e b4bc bce8 003d
000000d0: f7ee 683c 9e7c 453d 797b e03b 1059 063d
000000e0: 4b32 813c 66c1 71ba 8947 9b3b 68f2 fabc
000000f0: b10a 32bc fbcd 2e3d 35c8 bebc d1ec e53d
00000100: 91c0 1c3d dbba 4fbd c593 983b d202 513d
00000110: 587e f6bb 385d 8dbd 27f4 49bd 9aa1 c43a
00000120: 9a45 8cbd 2484 5fbd 1b8d 2e3d b2d5 babc
00000130: 2474 17bc 2074 1cbc 639d a4bb 730f 3dbd
00000140: c809 7e3c 5319 133d eaf8 003d a3fa 1b3d
00000150: cb73 79bc 53d0 aa3c 8a15 263d 82f0 c33d
00000160: b1a7 45bd 1c1c 25bd 869e 45bd 4872 ecbb
00000170: 28fa 813c 26ef 0c3d c03a 9b3b 03d0 4fbd
00000180: 4d70 f2bc ed79 1b3c 3076 533d 3079 30bd
00000190: e477 aabb 249e 9abc 0efe 80bd 3930 413d
000001a0: 5067 853c c274 2fbd 0d04 793c ccea 91bd
000001b0: a6b0 943d 1709 10bc 2057 ea3b e355 78bd
000001c0: c361 343c 7948 46bd 9dbd 933b e44e 973b
000001d0: 5cf1 17bd 967c e9bc af63 53bc 76f4 8b3c
000001e0: 2e0f 92bc 4dd3 2a3d 5243 8dbd 2fac 16bd
000001f0: 2b8c df3b fcc1 3e3b 23f6 393d 598f 693c
00000200: ff98 083d 4f56 a1bc 4488 86bd c513 8f3c
00000210: 2125 433b 2a44 243d cff0 88b9 ef88 b0bb
00000220: c9d7 333c 547f debc 9c36 a0bc 1cd4 f83c
00000230: 40b4 123c d7fb b7bc 99c8 83bc 4753 50bc
00000240: a578 c43c cc52 473c 38e0 d13b 004e 89bc
00000250: 58f8 e53c 4402 60bc df78 9abc 2043 033a
00000260: fd05 933b 5578 2b3c 21dc bf3c ec97 a33b
00000270: 8191 e5bb 9ea1 2fbc 76bc db3c 372a 5a3d
00000280: 3aa5 d0bb bc17 caba 998b 0cbd 4099 cfbb
00000290: 35bb 1ebd 51ee 40ba 9bcb ebbb a7a0 74bc
000002a0: 5192 4f3d 3fdf 1bbc a1e0 cfbc 9889 c13c
000002b0: 9bf1 35bd 6249 d03c c13a 6abc bf6e b5bb
000002c0: df99 313d 60d0 a1bc 79dc a8bc 6832 5a3d
000002d0: 33df 48bd 90fa a63c 4ab1 143a cafb ba3c
000002e0: d1dd dfbc ecb9 0e3d 12d8 f8ba 8401 803d
000002f0: 56d1 d53c 7a54 08bc f7a1 b5bc bbd5 843c
00000300: 5c73 543a a671 3a3d c090 27bb 4777 12bc
00000310: b304 15bc ba59 3e3c 18f1 303d a870 c13b
00000320: c3d4 e7bc 0b5f 293d 44a9 823d 48b9 b23d
00000330: d1d9 17bd 38dd d43c fd26 4fbd fb7a 8dbd
00000340: 3c7f 3dbc 09d2 3dbd 9a1b a9bc 51b6 283d
00000350: eac3 6f3c f6c1 183d 5ce3 b03a 8fcf bebd
00000360: 8ac3 2d3d f218 1bbd 74d8 1a3d 095c 523b
00000370: 5782 c23b f366 db3d 3416 1c3d 2143 efbc
00000380: 45ab 1c3d 7348 20bd 9c32 25bd f1c3 cbbd
00000390: 8fc0 bebd 1b17 41bd dd64 18bc 7de0 96bc
000003a0: 1eb8 6ebd c845 453a 9287 35bd 85b6 e1bc
000003b0: 7578 8d3b cf16 ea3c 1d00 0d3d ec78 97bc
000003c0: 1e35 fe3c 5669 1dbd c7c5 a63d 0539 a5bc
000003d0: b00d 25ba 4239 28bc ecb8 313d 3da8 07bc
000003e0: d434 36bd 37c5 f53d bbb1 963d 9b2d ca3d
000003f0: 4221 f4bc 0b8b 1bbd bf4d 72bd 63f3 ea3c
0.010774436 -0.026367845 0.057882596 0.0052965465 0.09582072 0.025108071 -0.018662157 0.0076938923
0.03461438 -0.02197344 0.068001494 0.07160602 0.01877328 -0.040390477 0.009764168 -0.03405327
0.050360586 -0.0818029 0.05550486 -0.029333338 0.050711293 -0.13321704 0.06637801 0.0057770642
0.047588732 0.008867531 -0.0033214558 -0.010742087 0.03975968 -0.012403379 -0.043000184 -0.04134269
0.0035410663 0.10159962 -0.0092495885 -0.006785556 -0.037935574 -0.016254548 0.08472093 0.06961229
-0.0016085709 -0.054233488 -0.013669703 0.011310973 -0.030389406 0.06289683 -0.076230615 -0.004765803
-0.036625206 -0.046363626 -0.022017548 0.031471953 0.01421713 0.048214547 0.0068506566 0.03279978
0.015771052 -0.0009222239 0.0047387523 -0.030633166 -0.010866807 0.042676907 -0.023288826 0.1122681
0.038269583 -0.05071531 0.0046562874 0.05102808 -0.0075223856 -0.06902546 -0.049305107 0.0015001774
-0.06849213 -0.05456938 0.042615037 -0.022806976 -0.009243999 -0.009549171 -0.005023645 -0.04615731
0.015505262 0.035912823 0.031487383 0.038080823 -0.015225361 0.02085129 0.040547885 0.095673576
-0.048255626 -0.04031001 -0.048246883 -0.007215772 0.015866354 0.034407757 0.004737228 -0.050735485
-0.029594565 0.009489519 0.051626384 -0.043084323 -0.0052022804 -0.018874235 -0.06298457 0.04716513
0.016284615 -0.04283596 0.01519872 -0.07124862 0.072602555 -0.00879123 0.0071514994 -0.060628783
0.011009636 -0.04840896 0.0045086876 0.004617559 -0.037095413 -0.02850179 -0.012902184 0.017084341
-0.017829504 0.04170542 -0.06897606 -0.0367853 0.0068221292 0.0029107323 0.04540075 0.014255368
0.033349033 -0.019694475 -0.06568959 0.017465482 0.002977677 0.04010407 -0.00026119358 -0.0053874175
0.01097674 -0.027160324 -0.01955729 0.03037458 0.008954108 -0.022458954 -0.016086863 -0.012715167
0.023983309 0.012165736 0.006404903 -0.016760826 0.028072521 -0.013672415 -0.018856464 0.0005007256
0.004486798 0.010465701 0.023420395 0.0049924757 -0.007005871 -0.010719685 0.026823264 0.053262915
-0.006367353 -0.001541845 -0.03431282 -0.0063354075 -0.038752753 -0.00073597307 -0.0071959025 -0.014930881
0.050676648 -0.009513675 -0.025375666 0.02362518 -0.044419866 0.025425617 -0.014296235 -0.0055368836
0.043359634 -0.019752681 -0.020612942 0.053270727 -0.049040984 0.02038315 0.000567217 0.02282514
-0.02732745 0.034845278 -0.0018985292 0.06250289 0.026100796 -0.008320922 -0.022171957 0.016215196
0.0008104348 0.04551854 -0.0025568455 -0.008939571 -0.009095359 0.011618072 0.043198675 0.0059033222
-0.028299695 0.041350406 0.06379941 0.08726746 -0.03707296 0.025984392 -0.05057429 -0.06908222
-0.01156598 -0.046342883 -0.020643044 0.041189495 0.014634112 0.03729435 0.0013495493 -0.093169324
0.04242281 -0.037865587 0.037804082 0.0032098314 0.005935948 0.107129954 0.038107112 -0.029206814
0.038249273 -0.039131593 -0.040331468 -0.09949482 -0.093140714 -0.047141176 -0.009301391 -0.018417591
-0.058281057 0.0007525352 -0.044318743 -0.027552852 0.004317338 0.02857533 0.034423936 -0.018490277
0.031031188 -0.038430534 0.08143192 -0.02016879 -0.000629629 -0.010267558 0.043389246 -0.008279857
-0.044483975 0.12000506 0.07358118 0.0987198 -0.029801015 -0.0379744 -0.059156176 0.028680509

bias f4 [256]
00000000: 3b49 74bf 07e7 68bf a6ca 8ebf 054c 8ebf
00000010: 9e67 61bf cdc0 92bf 0ed0 89bf 5527 78bf
00000020: d92d 7ebf ef71 8cbf 1191 8cbf d628 81bf
00000030: 87b5 8abf 5602 8abf 6ca3 88bf cd6f 85bf
00000040: 710f 88bf a013 82bf 2b41 81bf 2cd6 8abf
00000050: b602 89bf c413 82bf da95 88bf a03b 8fbf
00000060: 88e6 92bf af2e 85bf ed5d 7ebf 412b 86bf
00000070: 3db6 86bf 1119 84bf 4e89 89bf a5a7 96bf
00000080: fa13 8ebf c29a 88bf 49d3 86bf 64be 7cbf
00000090: c265 87bf e8eb 81bf 04a9 83bf 52cb 88bf
000000a0: 897b 83bf c226 82bf 7731 65bf 785e 92bf
000000b0: 7206 82bf 87b4 8abf 0f07 86bf 964b 90bf
000000c0: 7a1c 7fbf e66b 7bbf 4499 6ebf fbb7 82bf
000000d0: 5e71 86bf 57f6 85bf 066c 7fbf a09a 97bf
000000e0: 7d09 83bf 96e5 8dbf 1143 92bf 628c 8cbf
000000f0: 824f 89bf 24a7 89bf 8965 89bf 3b42 87bf
00000100: b014 96bf 23a0 86bf b1f7 7fbf 3e08 89bf
00000110: 4f79 8dbf 6481 85bf 3b4d 8abf bcaf 85bf
00000120: 9d3f 89bf 9773 95bf 324c 92bf 1688 80bf
00000130: 5cf0 83bf 5dbd 84bf 6ce5 68bf b364 85bf
00000140: f17f 7ebf 97e6 8fbf 2558 90bf 79d1 85bf
00000150: 0ca7 82bf 83ba 92bf d397 8bbf 0b89 94bf
00000160: 3058 8abf 32f6 83bf b6a0 87bf 863c 89bf
00000170: 1ed4 85bf 7cb9 88bf 32b5 8abf 153e 73bf
00000180: 4666 7bbf 0ea5 84bf decb 92bf cf84 8ebf
00000190: 1606 86bf a65b 86bf f4a2 7dbf f931 89bf
000001a0: 0a5d 86bf 98c5 8cbf 4b8b 87bf 9219 81bf
000001b0: 36e2 86bf 3bf7 74bf 2bc5 8ebf d295 8bbf
000001c0: 8997 67bf 34a4 86bf 6e60 71bf 5030 88bf
000001d0: cd71 86bf 7fc0 73bf dd55 93bf 5121 94bf
000001e0: d3b0 8abf 7afe 88bf b4db 95bf cd19 81bf
000001f0: 003f 82bf 4460 87bf 93f0 92bf a7e0 8ebf
00000200: 00ec 84bf 560f 86bf 4adc 82bf 0b59 69bf
00000210: e8df 8ebf a9d0 7ebf 6937 81bf 9587 88bf
00000220: 5143 82bf 66eb 90bf d740 8dbf 401a 8bbf
00000230: b5bc 80bf 0e75 8fbf 6b56 81bf 2156 84bf
00000240: 2797 81bf 2def 87bf e9d5 79bf 1884 8ebf
00000250: 62b3 8bbf 2583 92bf 37fc 80bf 4f0c 93bf
00000260: 6303 8fbf d516 72bf 6131 7cbf 6338 7fbf
00000270: 92e8 91bf ba0a 87bf becd 86bf 982e 8bbf
00000280: 7fa9 83bf 7e27 87bf 15ef 82bf 15fe 88bf
00000290: 288a 84bf a619 8ebf f4ff 91bf 079d 69bf
000002a0: c68c 84bf 1910 85bf 0637 87bf 2bc8 82bf
000002b0: 6406 9bbf cc17 89bf 7859 73bf bd6c 89bf
000002c0: 32a3 63bf dff2 84bf 2eb8 82bf 007d 8bbf
000002d0: b140 95bf e385 84bf 8cb4 90bf a2eb 8bbf
000002e0: 457f 90bf e87b 71bf 3d48 8fbf 4947 8fbf
000002f0: a0a3 76bf dbef 88bf 55cc 8cbf a838 93bf
00000300: 3fb4 87bf ab3e 8bbf e457 72bf e664 73bf
00000310: 45a0 88bf b3a6 7fbf 0b04 78bf 322f 84bf
00000320: b746 86bf 5c5a 8abf 5b2c 85bf b854 90bf
00000330: a65b 81bf 7183 82bf 1d73 88bf 6ce8 8bbf
00000340: c8cd 89bf 4bb4 87bf a1db 7fbf 53f3 84bf
00000350: 1efa 83bf acf9 76bf 6203 8dbf 603e 7cbf
00000360: 69c1 8fbf 578d 86bf b576 8bbf 84e2 85bf
00000370: 3e2c 85bf 65a8 87bf 6ebf 7abf f10e 96bf
00000380: e9f6 73bf 9808 8bbf 8470 87bf 29cd 8fbf
00000390: 7ae1 6ebf 8540 8ebf a289 79bf a2bd 7abf
000003a0: e3f9 80bf d1fd 8dbf 8800 62bf 9304 86bf
000003b0: d6d9 90bf 5527 84bf 157c 89bf 3f7e 85bf
000003c0: 72b7 8abf cfc2 87bf 35cb 87bf 6640 81bf
000003d0: d9d8 80bf 43f1 8bbf da51 92bf 59f3 87bf
000003e0: b7a3 8ebf 51cb 89bf e5e2 7cbf bf47 7bbf
000003f0: 4f01 88bf ed81 89bf c62a 86bf 2efa 8dbf
-0.9542424 -0.9097752 -1.1155593 -1.1116949 -0.8804873 -1.1465088 -1.0766618 -0.96935016
-0.9928871 -1.097227 -1.0981771 -1.0090587 -1.0836648 -1.0781963 -1.0674872 -1.0424744
-1.0629712 -1.0162239 -1.0098013 -1.084661 -1.0703952 -1.0162282 -1.0670731 -1.1190071
-1.1476603 -1.0404872 -0.9936207 -1.048195 -1.0524365 -1.032015 -1.0745027 -1.1769911
-1.1099846 -1.0672228 -1.0533229 -0.98728013 -1.0577929 -1.0150118 -1.0285954 -1.0687048
-1.0272075 -1.0168078 -0.895286 -1.143508 -1.0158217 -1.0836343 -1.0470904 -1.1273067
-0.99652827 -0.98211515 -0.93202615 -1.0212396 -1.0503347 -1.0465802 -0.99774206 -1.1844063
-1.023727 -1.1085689 -1.1426717 -1.0980341 -1.0727389 -1.0754132 -1.0734111 -1.0567087
-1.1725063 -1.051762 -0.9998732 -1.070564 -1.1052645 -1.0430112 -1.0804819 -1.0444255
-1.0722538 -1.16759 -1.1429503 -1.004153 -1.0307727 -1.0370289 -0.9097507 -1.0421356
-0.99413973 -1.1242245 -1.12769 -1.0454551 -1.0207229 -1.1463169 -1.0905708 -1.1604322
-1.0808163 -1.0309508 -1.059592 -1.0721595 -1.0455358 -1.0681605 -1.0836546 -0.95016605
-0.9820293 -1.0362871 -1.1468465 -1.113428 -1.0470607 -1.0496719 -0.9907677 -1.0718375
-1.0497143 -1.0997801 -1.0589384 -1.0085928 -1.0537784 -0.95689744 -1.1153921 -1.0905097
-0.904656 -1.0518861 -0.94287765 -1.0639744 -1.0503479 -0.952156 -1.1510578 -1.1572667
-1.0835212 -1.070266 -1.1707673 -1.0085999 -1.0175476 -1.0576253 -1.1479667 -1.1162308
-1.0384521 -1.047343 -1.0223477 -0.91151494 -1.1162081 -0.9953714 -1.0095035 -1.0666376
-1.0176793 -1.1321838 -1.1035413 -1.0867386 -1.0057589 -1.1207597 -1.0104498 -1.0338784
-1.0124253 -1.0619866 -0.97592026 -1.1134062 -1.0914118 -1.1446272 -1.007697 -1.1488131
-1.1172909 -0.9456609 -0.98512846 -0.99695414 -1.13991 -1.0550148 -1.0531538 -1.0873594
-1.0286101 -1.0558927 -1.0229212 -1.070254 -1.0354662 -1.1101577 -1.1406236 -0.9125523
-1.0355461 -1.0395538 -1.0563667 -1.0217336 -1.2111325 -1.0710387 -0.95058393 -1.0736309
-0.8892089 -1.0386618 -1.0212457 -1.0897522 -1.1660367 -1.0353359 -1.1305099 -1.0931284
-1.128884 -0.9432969 -1.119392 -1.119363 -0.9634342 -1.0698198 -1.0999857 -1.1501665
-1.0601882 -1.08785 -0.9466536 -0.95075834 -1.067391 -0.9986374 -0.9688117 -1.0326903
-1.049033 -1.0808825 -1.0404161 -1.1275854 -1.0106094 -1.0196363 -1.066013 -1.0930305
-1.0765924 -1.0601896 -0.999445 -1.0386757 -1.0310705 -0.9647472 -1.1016657 -0.98532677
-1.1230899 -1.0511883 -1.0895602 -1.0459752 -1.0404127 -1.0598265 -0.9794835 -1.172331
-0.9529863 -1.0861998 -1.0581212 -1.1234485 -0.933128 -1.111344 -0.97475636 -0.97945607
-1.0076259 -1.1093084 -0.8828206 -1.0470146 -1.1316478 -1.0324503 -1.0740992 -1.0429152
-1.0837233 -1.0606326 -1.0608889 -1.0097778 -1.0066177 -1.0933002 -1.1431229 -1.0621139
-1.1143712 -1.0765172 -0.98783714 -0.9815635 -1.0625399 -1.0742775 -1.0481803 -1.1091974

weight f4 [512, 256]
00000000: dd96 48bd de30 8e3c cbd3 d5bc 0147 41bd
00000010: fc9b a1bd f8f5 49bd 8b85 20bd 8dcc 743c
00000020: d198 dcbd 5d27 f63b bf17 813d 8ff9 89bd
00000030: bb2a 56bb 5454 8cbc 1de5 a5bc 3188 c9bd
00000040: 6a8e 34bd fa62 23bc 94ee fcbc 2062 79bd
00000050: bf8d 7bbd 61d7 023d cfc5 96bd 5a4d 92bd
00000060: c79e 993d af89 eebd bda1 80bd 91e2 813c
00000070: fa54 9dbc 8b1e 13bd 2a93 913d 2e60 4bbd
00000080: b551 68bd 7d2b 8b3d 2db6 8b3d 709b 20be
00000090: 950f aebd f76c 663c 0534 083d 99db 72bc
000000a0: f9a6 27bc 1250 1ebc e5b4 8fbd 0046 38bd
000000b0: 39e3 3d3c 62bd acbd 89ac a6bd 9f09 07bd
000000c0: 296b 6dbd ffe6 ccbb 9195 b6bc 44d4 fcbc
000000d0: 4ceb 8cbd 86f6 97bc cd8d dfbd d154 6ebd
000000e0: 8c09 7d3d f0e1 8abd 8679 7ebd 3db6 aabd
000000f0: 9f14 3abd 6c6f 25bc 4b3f 80bc 36d2 90ba
00000100: 9fe0 5abd 9183 173c 2cac 573d 2142 bcbd
00000110: 11a6 84bd fcd1 50bd 0dd1 f0bd 92b1 adbb
00000120: 712d 78bd 80ee 9ebd 9d64 5abd bca0 51bc
00000130: 2036 cdbb a0b5 ccbc 100e a6bd b5db 13bd
00000140: aab0 97bd 38db 333c 5186 2dbd a18d 34bc
00000150: c7a0 26bc 1526 debd 97f3 94bd 9254 a0bb
00000160: 6bf0 2c3d f100 4a3d 8634 88bd f44c bc3b
00000170: b396 033d 9240 90bd f28b f2ba 80d6 fd3c
00000180: 5372 613c 7d63 f2bd 5674 81bd 08a3 cdbd
00000190: dd30 9abd 97e0 1dbe a78d 3abb 9853 d1bd
000001a0: 7933 cdbd 2146 48bd c448 1abd 31c1 9bbd
000001b0: bae6 97bc e263 15bd d186 fabd e04d 0cbd
000001c0: 9ebf 2f3a 5e4f 5dbd e246 8ebd 241b dfbd
000001d0: a207 cbbd 1f91 123c a592 ce3c 9caa 2ebd
000001e0: 88b8 3f3d f939 df3c 66d2 2cbd 88ba a0bd
000001f0: 187b 2bba 5a67 923d 526f 98bd de07 82bd
00000200: 58fa 24bd bb2d 04be 126c 6b3d 0e44 93bd
00000210: 1ba4 d7bd a24c a1bd 718f 59bd 8606 93bc
00000220: 91a8 36bb 5e54 b9bd 6ce6 1cbd e97f abbc
00000230: 6963 4ebd 800f 11bd d5a5 033d 3d76 82bd
00000240: 37bf 54bd 3699 03bd 18d7 ae3a 4621 7bbd
00000250: ed68 1f3c c9bc 213c d196 71bd a5d8 8f3d
00000260: 062f d53c e998 b7bd 847b 50bd 1fa1 df3b
00000270: ff9e 3ebd 53de bdbb af64 b1bd 3c6c 593c
00000280: 0737 36bd 85cd 15bd 91cd 583c 557f 16bd
00000290: 14c3 d1bd 2a23 acbd 5e54 ea3b f8e1 acbd
000002a0: 0715 89bd dcb0 99bd 899d 87bd b374 77bd
000002b0: 1a12 e5bc a3f3 813b 32ce babc 47a4 0a3d
000002c0: 2319 0abd d8bf 0bbd 2305 d6bd bc4b debc
000002d0: 61dd 01bb 2278 42bd 4976 8ebd 27db 1c3d
000002e0: 5474 8fbc 34b3 e3bd 71d9 1cbb e43f 303c
000002f0: 063c 4dbd a5fe c83d 1af2 d8bc c592 7ebc
00000300: 6b1d 43bd 6a5e 2bbd 47d7 26bc c056 9fbd
00000310: e76f 5ebd 4c63 03bd 7d8f 62bc c1c7 923d
00000320: 785a 393b f5f1 33bd d94c 223b 8355 8bbc
00000330: 55b4 9ebd 13cb 1abd 9bb8 76bd 57e3 9bbd
00000340: 6962 76bd 4821 a8bd d450 4cbd 7e92 50bd
00000350: f401 b2bd 435b 7c3c cbf5 2cbd 1909 5f3d
00000360: 1b46 2dbc 6218 07bd 65d7 40bd d076 95bd
00000370: 1549 9abc f94d 543d c551 a8bb d3dc 6bbd
00000380: 1de3 7dbd 75f5 74bc e1c2 84bd a8c6 41bd
00000390: f2df f9bc 18e9 5bbc de41 bc3b 5fcc 20bc
000003a0: d446 f5bc 3728 c5bb 99c8 8f3c cc89 cebc
000003b0: ff5a 8ebc 0fd0 83bc fe3b 87bd f243 edbc
000003c0: 611f 24bd bb2a 07bd a670 8c3c 50be d0bd
000003d0: 7c65 aa3c 3282 e7bc 2cb6 bbbb e2bc 57bd
000003e0: 0efc 05be 7cd7 25bd a78b c3bd fb6a 1bbd
000003f0: 1f30 debd 8b47 81bd 64f8 f73b 7a64 54bd
-0.048972 0.017357286 -0.026101967 -0.047186855 -0.0789108 -0.04930684 -0.039189856 0.014941347
-0.10771335 0.0075120167 0.06303357 -0.06737053 -0.0032679278 -0.017130055 -0.020250851 -0.098404296
-0.04408113 -0.009972328 -0.030875482 -0.060884595 -0.061414476 0.031943683 -0.07361948 -0.0714366
0.075009875 -0.11647355 -0.06280849 0.015855106 -0.019205559 -0.0359178 0.071081474 -0.04965227
-0.056718547 0.06795404 0.06821857 -0.15684295 -0.08499066 0.014064065 0.033252735 -0.014822864
-0.0102326805 -0.009662645 -0.07016925 -0.044988632 0.011589819 -0.084345594 -0.08138377 -0.03296816
-0.057963524 -0.006253123 -0.022288116 -0.030862935 -0.06880817 -0.018550169 -0.10915718 -0.058186356
0.061776683 -0.067813754 -0.062127613 -0.083355404 -0.045429822 -0.010097366 -0.01565518 -0.0011048976
-0.05343687 0.0092476765 0.05265443 -0.091923006 -0.06476987 -0.050981507 -0.11758623 -0.005300709
-0.06059021 -0.07760334 -0.05331861 -0.01279467 -0.0062625557 -0.02498895 -0.08108151 -0.0360982
-0.07406743 0.010977559 -0.042364422 -0.011020095 -0.010170168 -0.10847107 -0.072730236 -0.004892894
0.042221468 0.049317304 -0.06650643 0.005746478 0.03212614 -0.07043566 -0.0018504842 0.03098607
0.013760167 -0.11835382 -0.063210174 -0.10040861 -0.07528851 -0.15417705 -0.002846578 -0.10221022
-0.10019583 -0.048895005 -0.03766705 -0.07605208 -0.018542636 -0.03647221 -0.122327454 -0.034253955
0.00067042734 -0.05403077 -0.069471136 -0.108938485 -0.09913565 0.008945732 0.02521641 -0.042643175
0.046806842 0.027249323 -0.04219284 -0.07848078 -0.0006541475 0.07148619 -0.07443108 -0.06349157
-0.04027781 -0.1290807 0.05747611 -0.07190715 -0.105293475 -0.07875945 -0.053115312 -0.017947447
-0.002787147 -0.09049295 -0.038305685 -0.020935016 -0.050387774 -0.035415173 0.03214057 -0.063702084
-0.05194017 -0.032128535 0.0013339249 -0.06131103 0.009729606 0.00987167 -0.05898172 0.070237435
0.0260234 -0.08964712 -0.050899044 0.006824627 -0.04653835 -0.0057943254 -0.08661782 0.013270434
-0.044486072 -0.03657295 0.013232605 -0.036742527 -0.10242286 -0.084051445 0.0071511706 -0.084415376
-0.06693464 -0.075044364 -0.06621844 -0.060414027 -0.027962733 0.0039658113 -0.0228034 0.033848073
-0.03371538 -0.034118503 -0.104501985 -0.027135722 -0.001981579 -0.04747785 -0.06956155 0.038294937
-0.017511524 -0.11118165 -0.0023933316 0.01075742 -0.05010607 0.098141946 -0.02648263 -0.015537922
-0.047635477 -0.041838087 -0.010183162 -0.07780218 -0.054305937 -0.03207712 -0.013828156 0.07167006
0.0028282683 -0.04393192 0.0024765043 -0.017008549 -0.07749239 -0.037791323 -0.060234647 -0.07611721
-0.060152445 -0.08209473 -0.04988177 -0.050920956 -0.08691779 0.015402618 -0.042226594 0.054452036
-0.0105757965 -0.032982238 -0.047080416 -0.07298052 -0.018833676 0.051832173 -0.005136701 -0.05758364
-0.06198417 -0.0149511 -0.06482483 -0.047308594 -0.030502293 -0.013422273 0.0057451567 -0.009814351
-0.029941 -0.006016757 0.017551707 -0.025212191 -0.017377375 -0.016090421 -0.066032395 -0.028963063
-0.040068988 -0.032999735 0.017143559 -0.10192549 0.020800345 -0.028260324 -0.0057285037 -0.052670367
-0.13084432 -0.040488705 -0.09548121 -0.03794382 -0.10849022 -0.06312474 0.0075674523 -0.051853634

bias f4 [512]
00000000: 8182 06be 38e0 17be 0bfb 47be 457f 673e
00000010: 0aff bdbd 3906 11be f9fb b5bd 50be 07be
00000020: 81cf b1bd 5d0f 09be 0af8 14be e659 613b
00000030: 348e eabd d397 f9bd c787 0fbd c827 38be
00000040: 7030 2ebe beb9 153e 1d9b cebd aee3 30be
00000050: e13e 43be 7c0d 5bbd feec ebbd 475d d8bd
00000060: 8c93 5cbd c5c4 3ebe 4230 46bd efed 0ebe
00000070: 0a82 27be 7abf 73bd 10ee 82bd 9170 54be
00000080: a734 1ebe a391 7bbd d8cb d1bd ce07 43bd
00000090: 8212 89bd f931 64bd e558 0fbe 5b8b 6cbe
000000a0: d704 e63c 3729 22be 8d38 a2bd 61d5 68bb
000000b0: 959a 92bd 5500 c7bd 8a69 90bd a2c0 29be
000000c0: 3cc9 00be d708 d9bd 0165 31be acfa 40be
000000d0: 9fa3 4ebe 527b 3fbd 584e a5bd 0d7e 04be
000000e0: cf65 babd 19d9 85bd 5af0 aebd d68a 0dbe
000000f0: 69cd 01be 9656 043e bbad 4dbd af2e 3bbe
00000100: c9c8 05be 28d2 f2bd e465 35be 198f 8bbd
00000110: a1c0 ebbd d332 4abe 6398 19be 21aa 76be
00000120: 75c8 81bd 3705 ed3d c1f9 3fbe 0dd5 63be
00000130: a72f 0dbe 88f0 30be 843a 2dbe e14a 1abe
00000140: 1b46 a2be eb9c 1abe e66d 1dbe 0d11 e9bd
00000150: 4a78 dabd f2c4 f7bd 73fc a4bd e19a fdbd
00000160: 937e 04be 865f f5bd 5135 abbd b764 0abb
00000170: 0270 1ebe 010f a5bd de39 22be 459c e9bd
00000180: b4cd cbbd ca35 c8bd a813 f9bd fc58 f0bd
00000190: a614 78be 3428 13be cff1 82be 3415 6bbd
000001a0: 8066 d7bd 4621 c0bd 2917 fbbd 2c0a 2fbe
000001b0: ae4d cabd 9395 babd fb50 bebd c414 a1bd
000001c0: 54bf 94bd e9df a3bd a041 a6bd 3ee2 febd
000001d0: a018 42be 840c 52bb 0d7f 56be df63 32be
000001e0: 08cd 00be d003 debd 9d73 cdbd 9e9e 2dbe
000001f0: dacc 47be 95e7 23bd c783 80bd 8f75 cebd
00000200: 6ffd 5fbe 28dd 08be 4261 3cbe 63f2 0dbe
00000210: f89f 50be 1878 07be 27a5 813c e4b8 9dbd
00000220: bd8f e2bd 5e6c cdbd 1e20 f3bd fbe9 38be
00000230: 77c8 9cbd 941d 38be d23b 37bd 17e9 0fbe
00000240: 8b9a 2abe 5b9d df3c 3f80 e8bd 0f35 d4bd
00000250: 844e c1bd ac94 27be 3509 cabd 8d99 61be
00000260: 74d6 04be 427a 9abd 536a 0bbe 39ab a1bd
00000270: d48a 3cbe 632f e4bd 3f60 d0bd dbb3 06be
00000280: de3b 2ebe 3c52 1dbe 2752 d3bd cd42 d1bd
00000290: 5b61 09be 404d 93bd bc2f debd b6e6 a8bd
000002a0: 246d 3abe fec8 593c 5576 fcbd 8aba e8bd
000002b0: e119 dabd cef9 35be be6d fbbd d947 35be
000002c0: e4fc 36bd 755c 41bd 19e6 b1bd 278b 8abd
000002d0: 0071 89bd 0cec 11be ce4f 64bc 735e debd
000002e0: a5f0 1fbe 9741 47be 1fee edbd 944c 1bbe
000002f0: c836 50be f398 6cbd cd83 c5bd 8344 1dbb
00000300: 133f 87bd 1066 00be 0300 ebbd eb94 babd
00000310: bf8e 08be 66c0 c0bd 0213 fd3d 9031 ffbd
00000320: f967 53bd fce7 9dbd ed73 16bd b7e1 0dbd
00000330: c088 37be 9e13 57be 5a1d e4bd 0771 19be
00000340: f105 fabd 17f4 46be 0468 27be 0585 eebd
00000350: 7adc eabc ad6c 46be e14a cbbb b8b7 21be
00000360: 35d2 18be c1cf 0abe 82df 8ebd 9d57 05bb
00000370: aa58 08be e59c bfbd 275e 3ebd f196 723c
00000380: 87a0 f6bd 6e0a 18be bd51 fdbd 8835 ecbd
00000390: 64db b8bd 263a 38be 747d fabd 147b 58bd
000003a0: 51e8 37be 111e a3bc 8edd 84bd 6ab2 61be
000003b0: d54b c7bd 3079 b2bd f146 bdbd 2720 143d
000003c0: 6d53 70bc 4b3e 463e 72f8 aabe 1e7f 0dbe
000003d0: 8e84 09be 76cb 17be 00e7 06be 07af 3b3c
000003e0: a674 6fbe 9488 dbbd b6b4 28be 0e40 f5bb
000003f0: d52d 87bd a717 04be 53b3 41be 7146 0abe
-0.13135721 -0.14831626 -0.19529359 0.22607143 -0.092771605 -0.1416253 -0.088859506 -0.13256192
-0.08682156 -0.13384767 -0.14547744 0.003438586 -0.11452904 -0.12187161 -0.035041597 -0.17983925
-0.17010665 0.14621636 -0.10088179 -0.17274353 -0.19066955 -0.053479657 -0.11519812 -0.10564666
-0.05385165 -0.18629749 -0.048385866 -0.13957952 -0.163582 -0.05950878 -0.06393063 -0.20746066
-0.15449773 -0.061418187 -0.10243958 -0.047614865 -0.06692983 -0.05571172 -0.13998754 -0.23100035
0.02807848 -0.15836035 -0.079209425 -0.0035527574 -0.071583904 -0.0971686 -0.0705138 -0.1657739
-0.12576765 -0.10597389 -0.17323686 -0.18845624 -0.20179604 -0.046748467 -0.080715835 -0.1293871
-0.0910145 -0.06535549 -0.08541937 -0.13822493 -0.12676014 0.12923655 -0.05021451 -0.18279527
-0.13064875 -0.118564904 -0.1771465 -0.06814403 -0.115113504 -0.1974595 -0.14999537 -0.24088337
-0.06337062 0.1157326 -0.18747617 -0.22249241 -0.13787709 -0.17279255 -0.16916853 -0.15067627
-0.3169411 -0.15098922 -0.15373954 -0.11380205 -0.106674746 -0.12098111 -0.08055963 -0.123830564
-0.12938909 -0.1198111 -0.08359779 -0.002111716 -0.15472415 -0.080595024 -0.15842387 -0.11406759
-0.09951344 -0.097758844 -0.12161952 -0.117357224 -0.24226627 -0.14370805 -0.2557511 -0.057393268
-0.10517597 -0.093813464 -0.12260277 -0.17093724 -0.098780975 -0.0911056 -0.092927895 -0.07865289
-0.072630554 -0.08001692 -0.08117986 -0.12445496 -0.18954706 -0.0032050917 -0.20946904 -0.1742091
-0.12578213 -0.10840571 -0.10031817 -0.16955039 -0.19511738 -0.040015776 -0.062751345 -0.10081016
-0.21874021 -0.13365614 -0.18396476 -0.13861994 -0.20373523 -0.13229406 0.015825821 -0.07701281
-0.11062572 -0.10030435 -0.1187136 -0.18058006 -0.07655423 -0.17980033 -0.044734783 -0.1405376
-0.16660516 0.027296713 -0.11352586 -0.103616826 -0.09438804 -0.16365308 -0.09865037 -0.22031231
-0.12972432 -0.0754285 -0.13614778 -0.07893986 -0.18412334 -0.11141851 -0.101746075 -0.13154547
-0.17015025 -0.15363401 -0.10318404 -0.10217819 -0.13416044 -0.07192469 -0.10848948 -0.082471296
-0.18205696 0.013292549 -0.123272575 -0.113637045 -0.10649467 -0.17771074 -0.12276791 -0.17703189
-0.04467477 -0.047207315 -0.08686466 -0.067648225 -0.06711006 -0.14250201 -0.013935043 -0.108578585
-0.15619142 -0.19458614 -0.116176836 -0.15165931 -0.20333397 -0.05776305 -0.0964428 -0.0023997135
-0.06603827 -0.12538934 -0.114746116 -0.09110435 -0.13335703 -0.09411697 0.12357141 -0.12460625
-0.051612828 -0.07710263 -0.03673165 -0.034639087 -0.1792326 -0.21003577 -0.11138411 -0.14984523
-0.122081645 -0.1942905 -0.16348273 -0.11646465 -0.028669585 -0.19377394 -0.0062039946 -0.1579274
-0.14923938 -0.13555814 -0.069762245 -0.002034641 -0.13315073 -0.09356097 -0.04647651 0.014806495
-0.12042337 -0.14847729 -0.12369106 -0.11533648 -0.090262204 -0.17990932 -0.122309595 -0.05285175
-0.17959715 -0.019911798 -0.06487571 -0.22040716 -0.09731261 -0.08714521 -0.092420466 0.036163475
-0.014668328 0.193597 -0.33392674 -0.13818023 -0.13429472 -0.14823708 -0.13174057 0.011455304
-0.23384342 -0.107194096 -0.16475186 -0.0074844426 -0.06600539 -0.12899648 -0.18916063 -0.13503434

weight f4 [20, 512]
00000000: 6dda 12be 50c3 fa3d b33e 5a3d a4b1 f13a
00000010: 5a62 8b3d ec6a cfbc 24bc 88bb 678b 323d
00000020: a190 90bc 3e03 7f3d e433 a9bc 30c5 cd3d
00000030: 48a6 8d3c 76a1 8f3c 61f6 a7bc 5b47 7e3d
00000040: 4df5 b3be 73d2 6c3d 1eed a6bb d565 94bd
00000050: 0922 46bc 27e2 82bc f525 bbbb e9d1 2b3d
00000060: d5cc cd3d 93cc e1bb 4473 52bd 9acd 91bd
00000070: b844 6d3e 428a 3bbc 2ec4 9bbd b254 edbc
00000080: edf5 01be ee96 ac3c 62df 11bd bcff a7bc
00000090: f725 063d 42d9 e23c 93b8 403d 5c2d cabb
000000a0: 0210 4fbd de52 443d 2131 83bc e60d 1b3e
000000b0: 3f3a 35bc a607 1cbd 155c 2ebe ab30 b33d
000000c0: 30fa 69bc 1dfa 30be d7e4 893d 4b02 72bb
000000d0: a827 703c ecc6 b93d e69b 0b3d 5e7f 6e3d
000000e0: dd71 b93c 5755 01be 6583 45be 1c00 5e39
000000f0: 0305 103e a9e9 5a3c 11a4 683a 714e c63c
00000100: 77cd 513c 4fb2 8b3d 1be0 17be 5420 d2bb
00000110: 6411 893d 6f6d a5bb 05d6 69bb 290f 7abd
00000120: d2e0 f93d c9c1 df3d 3e14 923d 7be5 06be
00000130: 0d16 053b 3587 d73d f590 58bc 844a 56bd
00000140: 7874 b5bd cbf4 2f3e 5e93 86bd 696d 7a3b
00000150: 7d14 2b3c 859b 373c f980 053d 0274 033d
00000160: 2197 643d fe41 aa3d 806b 65be 3c9c ef3d
00000170: 2c58 04be a1e9 01b9 b15e 38bd 756a d33c
00000180: d6aa afbc 6860 b33d ac47 273d c8b8 893b
00000190: d762 a53d efe8 3abd 9763 2d3e e170 223d
000001a0: 6d4b d73b 50c5 de3b 82cc abbd 8a11 4cbe
000001b0: 596a 023e 6aef 983b 6fa0 133c c96b a0bd
000001c0: 473c 64be e85c 143d d134 b53b 15f0 8aba
000001d0: a6d6 7f3d ade7 963e 3529 d4ba 145a 83bd
000001e0: fa82 dc3d bd84 b63c c45a 7e3d 8b13 ae3b
000001f0: 13da ee3d 0808 b93c ecf5 ab3a d739 17be
00000200: f151 7a3b a8c0 5f3e 21aa 8fbc 838e 003d
00000210: f08d 32bc 0d60 02be 35fd 0abe 95eb 2dbd
00000220: 03ec 86bd 6a73 c83c 6099 03bd 1f16 86bb
00000230: 76b4 8c3c e498 fe3b 2b28 883d b335 113c
00000240: 0ab8 463e 2dfa d9bd 536d 1bbd 27c0 a93d
00000250: b0be fc3c f048 be3c 8da2 78be afcf 06be
00000260: 43fd acbc 7666 8d3d 91a8 a83c 2a84 373d
00000270: 9544 a9bd dc29 a5bd 9d30 f7bd 8bc8 89bd
00000280: 63e6 a6bd 946a c83d 6f13 adbc 6a28 9b3c
00000290: 2579 d1bc 2422 a4bc 45c0 b73c c6be 5f3d
000002a0: 032f 003c c330 42bd 66f8 f53a 07cd a1ba
000002b0: 24d9 073e 1817 6ab9 1efa 35be 3efc 1bbe
000002c0: c804 61bc de82 21be 9b19 fbbb fdd2 64bd
000002d0: a15a 523c db03 9c3d 8f8a 3c3d c7e1 b3bc
000002e0: cfb8 87bc 1a23 94bd e4f1 55bd 4700 433d
000002f0: c27a c9bd a8c5 49bd 0bca 8eba f300 613d
00000300: 04bf 913c 05d9 91be 7451 ff3d 65d4 87bc
00000310: 5a03 7c3d ae26 53be 3f75 5c3c fa0c 7bbd
00000320: 6ab8 6d39 bef9 0c3d 2b0b e5bc afa3 3f3e
00000330: d3f4 163d 748f 1bbc 2f41 ff3d c10f 643e
00000340: 700d 0c3d baa2 813c ff6a a7bb b3f0 0bbe
00000350: 8bb6 823e 6d3b 983d 85ca dfbd 6118 703e
00000360: ae85 83bd bb35 cd3c c0cb 88bc 21ba 523d
00000370: f02a 13ba 778b bb3d b091 f4bc cf87 05bd
00000380: d730 3abd faeb 5d3d 7794 823d 3eec 823d
00000390: 9034 81bc 19fe 133d 3815 13bd 1e8b c1bd
000003a0: 2ade f5bb cdb9 bdbd 0c02 923b d1f8 c8bd
000003b0: ea1b 173d 0111 22bd ed26 203c 4535 9fbd
000003c0: 98ff e0bc 5976 2ebd 1a46 06bd 271e 9a3d
000003d0: 67ef 3fbe 11da 8f3d aeea 3abd 25bb 6b3e
000003e0: 1c84 54bd 9dff 743d 9572 1abe 3817 1ebb
000003f0: 472a 0f3c 9c61 22bd 1a09 ff3c 0e14 2d3b
-0.14341135 0.12244284 0.05328245 0.0018439782 0.068058684 -0.025319539 -0.0041728187 0.043589976
-0.01764709 0.06225895 -0.020654626 0.10047376 0.017291203 0.017533045 -0.020503225 0.06207977
-0.35148087 0.057817888 -0.0050941845 -0.072459854 -0.012093076 -0.015976978 -0.005711312 0.041948233
0.10048834 -0.006890842 -0.051379457 -0.071192935 0.23170745 -0.011446537 -0.07605778 -0.02897105
-0.1269147 0.021068063 -0.035613425 -0.020507686 0.03275105 0.027691487 0.047051024 -0.006169958
-0.050552376 0.04793059 -0.016014637 0.1514202 -0.01106125 -0.03809323 -0.17027314 0.08749517
-0.014280841 -0.1728291 0.06733101 -0.0036927636 0.014657892 0.090711445 0.034084223 0.058226936
0.022637302 -0.12630211 -0.19288404 0.0002117161 0.14064412 0.013361373 0.00088745455 0.024207326
0.012805334 0.06821119 -0.14831583 -0.006412545 0.0669277 -0.005048446 -0.0035680544 -0.061049614
0.12201084 0.109256335 0.07132767 -0.13173477 0.0020307333 0.105238356 -0.013218154 -0.052317157
-0.08860105 0.17183225 -0.06571077 0.0038212186 0.0104418965 0.011206512 0.0325937 0.032093056
0.05580819 0.08313368 -0.22404289 0.11699721 -0.1292426 -0.00012389432 -0.04501218 0.025807599
-0.021443766 0.087586224 0.040839836 0.004202936 0.08075493 -0.0456323 0.16932522 0.03965843
0.0065702708 0.006798424 -0.08388616 -0.19928566 0.12735881 0.0046672123 0.009010418 -0.078330584
-0.22288619 0.036221415 0.005529978 -0.0010600114 0.062460564 0.2947363 -0.0016186597 -0.064136654
0.10767169 0.022280091 0.06209828 0.0053123883 0.11662688 0.022586837 0.0013119555 -0.14768158
0.0038195814 0.21850836 -0.017537178 0.03138591 -0.010898098 -0.12731953 -0.13573153 -0.042460997
-0.065879844 0.024469096 -0.03212869 -0.0040919925 0.017175894 0.007769691 0.066482864 0.008862901
0.19406143 -0.1064342 -0.037946057 0.08288603 0.030852646 0.023228139 -0.24280758 -0.13165163
-0.021116858 0.069043085 0.020588191 0.044803776 -0.08265034 -0.08064625 -0.12069819 -0.06727704
-0.081494115 0.09785953 -0.02112743 0.01894017 -0.025570462 -0.02003581 0.022430548 0.054625295
0.0078237085 -0.047409784 0.0018766045 -0.0012344428 0.13266426 -0.00022324582 -0.17771193 -0.15232942
-0.01373405 -0.15772578 -0.0076629645 -0.055865277 0.01283899 0.07617923 0.046030577 -0.021958245
-0.016567616 -0.072332576 -0.052232638 0.047607686 -0.09837867 -0.049260765 -0.0010893954 0.054932546
0.017791279 -0.28485885 0.12466708 -0.01658077 0.061526634 -0.20620224 0.013455688 -0.061291672
0.00022670781 0.03441786 -0.027959427 0.18714784 0.036854576 -0.009494651 0.12463605 0.22271635
0.034192502 0.015824664 -0.0051091905 -0.13666038 0.25529894 0.074332096 -0.109272994 0.234468
-0.06421982 0.025050035 -0.016698718 0.051447038 -0.0005614003 0.0915746 -0.029854625 -0.03260022
-0.045456734 0.054180123 0.06375974 0.06392716 -0.015772134 0.036131 -0.035908908 -0.094503626
-0.0075032907 -0.09263954 0.0044558104 -0.09813083 0.036891855 -0.039566997 0.009774906 -0.07773832
-0.027465627 -0.042593334 -0.032781698 0.07525282 -0.18743668 0.07024015 -0.045633964 0.23020609
-0.0518838 0.059814084 -0.15082772 -0.0024122726 0.008738107 -0.03964387 0.03113227 0.0026409659

bias f4 [20]
00000000: 7016 53bc 2977 b6bd 119c 9b3c 2f81 1abd
00000010: f7c6 763c 6995 3cbc 8c3c be38 943b 1e3c
00000020: 24b3 ba3b 6e0f ac3c e4fc f1bb 25b4 de3b
00000030: f749 2cbc 2bb0 48bc 17a5 523d 1afe e5bb
00000040: 6f7e 273b 0ed6 c9bb 7bc5 8dbc 0c74 8ebc
-0.0128837675 -0.08909447 0.018995317 -0.037720855 0.015062085 -0.0115102315 9.071184e-05 0.009657759
0.0056976248 0.021003451 -0.0073848832 0.0067963772 -0.0105156815 -0.012249033 0.051426973 -0.0070188167
0.0025557538 -0.0061595505 -0.01730608 -0.01738932
