WGAN_pt/D001289Big_2dim.pt (torch, 636823 bytes, 6 tensors)

weight f4 [256, 100]
0	0x3dd0f211	0.102024205
1	0x3d1e17c1	0.038596872
2	0xbce45178	-0.027870879
3	0x3d84f098	0.06491202
4	0xbd45264d	-0.04813223
5	0xbda24b70	-0.07924545
6	0xbcfb7bbe	-0.030698653
7	0x3dea263e	0.11433075
8	0x3d243f16	0.040099226
9	0xbc5ca8e5	-0.013468002
10	0xbc051a7f	-0.008123993
11	0x3d815820	0.06315637
12	0x3cab1e2a	0.020888407
13	0xbc6b36a7	-0.014356292
14	0x3de19449	0.11014611
15	0xbcc021cd	-0.023453617
16	0xbd842bd2	-0.064536706
17	0x3d10a1e4	0.03531064
18	0x3c8720a4	0.016495056
19	0xbd1d7313	-0.03843982
20	0xbd5d904b	-0.054092687
21	0x3dd1ea89	0.10249812
22	0x3cd9dd17	0.026594682
23	0x3cfe4609	0.031039255
24	0x3d013fc4	0.031554952
25	0x3d83db0d	0.06438265
26	0xbd15919f	-0.03651583
27	0x3bf0ff40	0.007354647
28	0x3df2d77d	0.118575074
29	0xbd4b56c1	-0.04964328
30	0xbb0ee685	-0.002180488
31	0x3dc75dd3	0.097346924
32	0x3d9151e4	0.070956975
33	0x3cbf3a84	0.023343332
34	0x3d3679d8	0.044549793
35	0x3d85190d	0.06498919
36	0xbb4f62f3	-0.0031644672
37	0xbdcba8c6	-0.099443
38	0x3d89d4d7	0.06730049
39	0x3dd3c366	0.10340004
40	0x3c92acc1	0.017904641
41	0x3dbb9721	0.09159685
42	0x3cb19dd7	0.02168171
43	0xbdaeabfa	-0.08528896
44	0x3ddc0095	0.107422985
45	0x3d45b181	0.048264984
46	0x3df97527	0.12180548
47	0xbc48a6a8	-0.012246765
48	0x3d6102ca	0.0549343
49	0xbd94990f	-0.07255756
50	0x3d0f6cd4	0.035015896
51	0x3d2b38c1	0.04180217
52	0x3c2c2f5b	0.010509337
53	0x3d3eeb77	0.046611276
54	0x3dcdd7e5	0.10050944
55	0x3d197043	0.037460577
56	0xbdec1934	-0.115282446
57	0x3dacf820	0.084457636
58	0xbd7faf47	-0.062423017
59	0xbd8e637f	-0.06952571
60	0x3d9797f0	0.07402027
61	0xbdb912df	-0.090368025
62	0xbc003500	-0.007825136
63	0xbc5ae8a2	-0.013361128
64	0xbd4c780b	-0.04991917
65	0xbc8ad0fd	-0.016945357
66	0x3d2aea54	0.04172738
67	0xbd06ecd7	-0.03294071
68	0xbdebc846	-0.115128085
69	0x3c51959c	0.012792017
70	0xbd3c8961	-0.046029452
71	0x3d3dcaa6	0.04633584
72	0x3cec2afe	0.028829094
73	0x3bd3890c	0.0064555462
74	0xbe1420fb	-0.14465706
75	0x3d403001	0.04692078
76	0xbd15e919	-0.036599252
77	0x3dcf1303	0.10111048
78	0x3c9050a4	0.017616577
79	0x3deae353	0.1146914
80	0x3da5eb9e	0.08101581
81	0x3d9ff770	0.07810867
82	0xbb1cbeff	-0.0023917553
83	0xbdd243ba	-0.10266824
84	0xbc927287	-0.017876877
85	0x3daa29a6	0.08308725
86	0x3d99d517	0.07511347
87	0xbd881864	-0.06645277
88	0xbcaece64	-0.02133865
89	0xbd8bf80c	-0.068344206
90	0xbd8f6c9e	-0.07003139
91	0x3d838f37	0.064238004
92	0x3cfb8b75	0.030706147
93	0x3d8976ae	0.067120895
94	0xbc760842	-0.015016617
95	0xbd3d73e9	-0.04625312
96	0x3c822bd1	0.015890034
97	0xbd7609ea	-0.06006805
98	0x3dbf89cf	0.09352457
99	0xbb9430ed	-0.004522434
100	0xbc9f3f93	-0.019439494
101	0x3c25b9b1	0.010115073
102	0xbd9deba4	-0.077109605
103	0x3c7129a9	0.014719405
104	0xbdac7b0b	-0.08421906
105	0x3d56a2c6	0.052401327
106	0x3b5da4aa	0.0033820071
107	0x3c5c486f	0.013445004
108	0x3de7d0ce	0.11319123
109	0xbd19c1b0	-0.03753823
110	0x3d802046	0.06256156
111	0x3d5391d7	0.051652756
112	0xbdb9d49f	-0.090737574
113	0xbd1f8c50	-0.03895217
114	0xbbf01daa	-0.007327755
115	0x3db24ef8	0.08706468
116	0xbd72d978	-0.059289426
117	0xbd7d0275	-0.06176992
118	0x3daaa039	0.08331341
119	0xbd7ab2ac	-0.06120555
120	0xbdc8d1e7	-0.09805661
121	0x3d4912d5	0.049090225
122	0xbdef54f9	-0.11686129
123	0x3dc889eb	0.09791931
124	0x3c692aee	0.014231427
125	0x3d740d95	0.059583265
126	0x3d9bbcfe	0.07604407
127	0x3d77218b	0.060334723
128	0xbbda7f44	-0.0066680033
129	0xbca3545b	-0.019937685
130	0xbda485da	-0.08033343
131	0xbd2e38b1	-0.042534534
132	0xbd9987eb	-0.074966274
133	0x3d5aadf6	0.05338856
134	0xbc1869dd	-0.0093025835
135	0x3c80578c	0.015666746
136	0xbd33de66	-0.043913268
137	0x3d4d0105	0.0500498
138	0xbd377f36	-0.044799052
139	0x3d967642	0.07346775
140	0x3d98265d	0.07429192
141	0x3dab7f3f	0.0837388
142	0xbd36f060	-0.044662833
143	0xbd7e6b67	-0.062114146
144	0x3d3d27df	0.046180602
145	0xbd54dd6c	-0.051968977
146	0x3c100908	0.008791216
147	0x3de3c4e1	0.11121536
148	0x3b5de11a	0.0033856095
149	0xbdc846b6	-0.09779112
150	0xbd27b884	-0.040947452
151	0xbd09ba52	-0.033624955
152	0xbc11b227	-0.0088925725
153	0x3d94c04d	0.07263241
154	0xbbd83330	-0.006597899
155	0x3cd9d637	0.026591403
156	0xbd9c3010	-0.07626355
157	0x3d3e578d	0.046470214
158	0x3ce57dcb	0.028014084
159	0x3d55de17	0.052213755
160	0x3b9796b1	0.004626118
161	0xbd3339e0	-0.043756366
162	0x3c5bd0e9	0.013416507
163	0x3d8e1a5a	0.0693862
164	0xbd59a255	-0.053133328
165	0x3d478d60	0.04871881
166	0xbcdaeea3	-0.026725119
167	0x3d1e54e3	0.038655173
168	0xbcf0eeb6	-0.029410701
169	0xbd994262	-0.07483365
170	0x3d37dd90	0.044889033
171	0x3e012b6b	0.12614219
172	0xbca38f9e	-0.019965943
173	0xbd50a1d6	-0.05093559
174	0x3de581d6	0.11206405
175	0xbd1859d9	-0.03719506
176	0xbd35a9bc	-0.044351324
177	0x3d9ab6fa	0.07554431
178	0xbd5d0f3e	-0.053969614
179	0xbd3dab4c	-0.04630594
180	0xbd8f6d53	-0.07003274
181	0xbd1ae1b0	-0.03781289
182	0xbd3a31c5	-0.04545762
183	0xbdcc6fb4	-0.09982243
184	0xbd65aa35	-0.056070525
185	0x3d63423a	0.05548308
186	0x3d08ed86	0.033429645
187	0xbd0e7684	-0.034780994
188	0xbda7f1df	-0.0820043
189	0x3d8262b7	0.063664846
190	0x3cd536c6	0.026027095
191	0x3c770d77	0.015078894
192	0xbd1c9c35	-0.038234908
193	0x3d78309f	0.060593244
194	0xbd8a5420	-0.06754327
195	0xbd54bc0d	-0.05193715
196	0x3dfaba20	0.12242532
197	0x3d6965a0	0.056981683
198	0xbb9a572f	-0.0047101
199	0x3dd79271	0.10525978
200	0xbdd23d65	-0.10265616
201	0xbd2f1a34	-0.0427496
202	0x3daf6a94	0.0856525
203	0x3d2037dd	0.039115775
204	0x3d8d0680	0.068860054
205	0x3d0b9a68	0.0340828
206	0x3c7910d9	0.015201771
207	0x3c9e37ee	0.019313779
208	0xbd787008	-0.060653716
209	0x3c806132	0.015671346
210	0x3d658478	0.056034535
211	0xbd171e5c	-0.036894187
212	0x3d8bce05	0.068264045
213	0x3d3c58e5	0.045983214
214	0xbc5b6bf7	-0.01339244
215	0x3cc55045	0.024086127
216	0xbdf3636d	-0.11884198
217	0x3d0a5cdb	0.03377996
218	0x3c36512c	0.011127751
219	0xbade6313	-0.0016966782
220	0xbd4dccb6	-0.050244056
221	0x3dd0fb47	0.10204177
222	0x3d2ffd43	0.04296614
223	0xba8931cb	-0.001046711
224	0x3cae7e29	0.021300392
225	0x3c692245	0.014229362
226	0x3ccce4f9	0.025011526
227	0x3cb9c28e	0.022675779
228	0x3cdd8afb	0.02704381
229	0xbc8bf50b	-0.017084619
230	0xbda03519	-0.078226276
231	0x3d419d60	0.047269225
232	0x3d41b767	0.047294047
233	0x3d5ccf6e	0.053908758
234	0x3d7e179f	0.062034246
235	0x3db5ab78	0.08870596
236	0xbd8107ae	-0.06300293
237	0x3c52075a	0.012819136
238	0xbce73bbe	-0.02822673
239	0x3d784f86	0.060622714
240	0x3d4b70cd	0.049668122
241	0x3c57773d	0.013150987
242	0xbddc51a5	-0.1075776
243	0x3dd58ae3	0.10426881
244	0xbdb7baf7	-0.089712076
245	0x3d03dabd	0.032191027
246	0xbd02d39c	-0.031940088
247	0x3d1a9838	0.037742823
248	0x3abfd30e	0.0014635043
249	0x3d33ad41	0.0438664
250	0xbd24dacc	-0.040247723
251	0x3d422456	0.047397934
252	0xbb1e36cf	-0.0024141555
253	0xbdad94b7	-0.08475631
254	0x3de065c0	0.10956907
255	0xbc626418	-0.0138178095

bias f4 [256]
0	0x3d63298f	0.055459555
1	0x3cf45e70	0.029830188
2	0xbb8616b0	-0.00409206
3	0x3dc8fe1f	0.09814095
4	0xbe088482	-0.13331798
5	0xbd5e3b53	-0.054255795
6	0x3d575abd	0.05257677
7	0xbc8e6b46	-0.017385136
8	0xbe0675a8	-0.1313082
9	0xbdd6e866	-0.10493545
10	0xbd440c74	-0.04786344
11	0x3d213bb0	0.039363563
12	0x3c8ce80a	0.017200489
13	0xbdb8308f	-0.08993637
14	0xbd0bfbfe	-0.034175865
15	0xbdd83525	-0.105570115
16	0xbd9ac99d	-0.07557986
17	0x3d641b06	0.055689834
18	0xbdaf214f	-0.08551275
19	0xbc2c97ad	-0.010534209
20	0xbda9476b	-0.08265575
21	0x3d05adb1	0.03263635
22	0x3d2016d5	0.039084274
23	0x3d2bd2c8	0.041949064
24	0xbdfde410	-0.12397015
25	0xbdf2bdb5	-0.1185259
26	0xbcde8b39	-0.027165996
27	0xbdd0f47a	-0.1020288
28	0x3c6f8070	0.014618024
29	0xbd634e84	-0.0554948
30	0x3bff893f	0.0077983434
31	0xbdb2f3ab	-0.08737882
32	0xbde6056f	-0.11231505
33	0xbd762816	-0.060096823
34	0x3d835374	0.06412402
35	0x3d4d03ba	0.050052382
36	0xbdf1654d	-0.117869
37	0xbde7e875	-0.113236345
38	0x3d8e5a7c	0.06950852
39	0x3b6e135c	0.0036327457
40	0xbd2b915b	-0.04188667
41	0xbd971ec6	-0.073789164
42	0xbd414eb3	-0.047194194
43	0x3d76f24a	0.06028966
44	0x3c42687b	0.01186573
45	0xbdc16b09	-0.094442435
46	0xbd756159	-0.05990729
47	0x3d9b7cf1	0.0759219
48	0x3d884ea6	0.06655626
49	0x3dafb12e	0.08578716
50	0xbd9baf06	-0.076017424
51	0x3cba0fc0	0.022712588
52	0xbdfc40f4	-0.12317076
53	0xbd9fc0e1	-0.078004606
54	0xbda171ba	-0.0788302
55	0x3b630cf1	0.0034645165
56	0xbe28f60f	-0.16500114
57	0x3bfe43cb	0.0077595464
58	0x3d689cc5	0.056790132
59	0x3b453602	0.0030092006
60	0x3ca7ea8c	0.020497583
61	0xbdfcc5fb	-0.12342449
62	0xba96077b	-0.0011446321
63	0xbd9eddac	-0.07757124
64	0xbc223253	-0.009899694
65	0xbe26b84f	-0.16281246
66	0x3d0908c7	0.033455636
67	0xbcf256cd	-0.029582405
68	0x3c7e343f	0.015515386
69	0xbde0ff5d	-0.10986207
70	0x3c4ae0b9	0.01238268
71	0xbd90fb41	-0.07079173
72	0xbd5c8ec4	-0.05384709
73	0xbe0c9959	-0.13730372
74	0xbbaa62b7	-0.005199756
75	0xbb0d56ab	-0.002156655
76	0xbd2cec82	-0.04221774
77	0x3df9d611	0.12199033
78	0x3c030752	0.007997351
79	0xbd02cb28	-0.031932026
80	0x3c3e9ade	0.011633603
81	0xbd05799b	-0.032586675
82	0xbdd42100	-0.10357857
83	0x3d8c8f3a	0.06863256
84	0xbd36f7c8	-0.044669896
85	0xbb8c4746	-0.0042809574
86	0xbdf06818	-0.11738604
87	0x3bb4aa22	0.0055134455
88	0xbdd2d528	-0.102945626
89	0xbdc99c7f	-0.098443024
90	0xbd35353a	-0.044240214
91	0xbdc601bd	-0.096683
92	0xbd463bca	-0.048396863
93	0x3d0af709	0.033926997
94	0xbdf79c4c	-0.12090358
95	0xbc1a6181	-0.009422661
96	0xbc01e031	-0.007926987
97	0xbdb10f35	-0.08645479
98	0xbd8bdb4e	-0.068289384
99	0xbd30f67c	-0.043203816
100	0x3c1b1b5e	0.009466974
101	0x3c3245e8	0.010880925
102	0xbdfbf2a4	-0.123021394
103	0xbd3fe388	-0.04684785
104	0xbcf1f34a	-0.029534955
105	0x3a9920db	0.0011682765
106	0x3d896496	0.06708638
107	0x3ccd8bea	0.02509113
108	0xbdc0b826	-0.094101235
109	0xbd65c2c6	-0.056093954
110	0x3c21afc8	0.00986857
111	0xbb9a44df	-0.004707917
112	0x3b5b0641	0.0033420476
113	0x3ccb8076	0.024841528
114	0xbdb5ca15	-0.08876435
115	0xbd9995f1	-0.07499302
116	0x3d5c0141	0.053712133
117	0xbbae141d	-0.0053124563
118	0x3df38ce5	0.11892108
119	0xbd2730ad	-0.040817905
120	0xbd9cea98	-0.07661933
121	0x3d434f6b	0.04768316
122	0xbd84f346	-0.06491713
123	0xbe07b7af	-0.13253663
124	0xbdfb357b	-0.1226606
125	0xbdce7edb	-0.100827895
126	0xbdc99300	-0.09842491
127	0xbdaa116b	-0.083041035
128	0xbcfd9105	-0.03095294
129	0xbdfaf82e	-0.12254368
130	0x3c78b943	0.015180889
131	0xbb18ca2f	-0.002331387
132	0x3cd56445	0.026048789
133	0x3d28112b	0.041031998
134	0x3daffb47	0.08592849
135	0xbe090077	-0.13379084
136	0xbca6ef85	-0.020377884
137	0x3de2e8f0	0.110795856
138	0x3ab17279	0.0013538144
139	0xbd9641d7	-0.07336777
140	0xbdd44d79	-0.10366339
141	0xbdd95d05	-0.10613445
142	0xbd8a05e9	-0.067394085
143	0xbb710aef	-0.0036780199
144	0xbcba919c	-0.02277451
145	0xbaab2054	-0.0013055899
146	0xbcedc5aa	-0.029024918
147	0x3c1667a7	0.009179986
148	0xbd4ddc86	-0.050259136
149	0xbd5edd59	-0.054410312
150	0xbdf9c9bc	-0.12196681
151	0xbd893813	-0.067001484
152	0xbd5acb0b	-0.053416293
153	0xbcf39337	-0.029733283
154	0x3ccb76dd	0.024836952
155	0x3d33f76e	0.04393714
156	0xbd02bdc1	-0.031919245
157	0xbdb6c500	-0.089242935
158	0x3cc1393f	0.023586867
159	0xbc98020e	-0.018555667
160	0xbd88cda5	-0.066798486
161	0xbdecefb5	-0.11569158
162	0x3d039aee	0.032130174
163	0xbdda63cc	-0.10663566
164	0x3d8930cd	0.06698761
165	0xbda50c39	-0.08058972
166	0xbca2b6df	-0.01986259
167	0xbd714ec7	-0.05891302
168	0xbcf1b9fd	-0.029507631
169	0xbe0de864	-0.13858181
170	0xbe207882	-0.1567097
171	0xbc0ad389	-0.0084732855
172	0xbd09ab81	-0.033610824
173	0xbdba0d38	-0.090845525
174	0xbdb075ac	-0.08616194
175	0xbd96ea9a	-0.073689654
176	0xbca9cdaf	-0.02072796
177	0xbe04a518	-0.12953603
178	0xbdeb5eb5	-0.11492673
179	0x3b861552	0.004091897
180	0xbe0b9ae2	-0.13633302
181	0xbde3d022	-0.111236826
182	0x3dacf7dc	0.08445713
183	0xbdd60281	-0.10449696
184	0xbcf74c1d	-0.03018766
185	0xbd3c83db	-0.046024185
186	0xbd100072	-0.035156675
187	0x3d5e999e	0.05434572
188	0xbde3839d	-0.111090876
189	0xbd8c1715	-0.0684034
190	0x3d6c8459	0.057743404
191	0xbcc71a67	-0.024304582
192	0x3cf7b5bc	0.030238025
193	0xbc9f6b31	-0.019460293
194	0xbd5eaec4	-0.05436589
195	0xbdb65828	-0.08903533
196	0x3cc363dd	0.02385133
197	0x3c9defc6	0.019279372
198	0xbd17b6e6	-0.03703966
199	0x3c877b85	0.01653839
200	0x3db8512a	0.08999856
201	0xbcee69bf	-0.029103158
202	0xbdd5e7c7	-0.10444599
203	0xbd71e579	-0.059056733
204	0x3da4cd67	0.0804699
205	0x3d8cefcb	0.068816744
206	0xbe01de3c	-0.12682432
207	0xbdd60239	-0.10449643
208	0xbde09a4e	-0.10966931
209	0xbdf56564	-0.11982229
210	0xbdbba4f5	-0.091623224
211	0xbd8645be	-0.06556271
212	0x3d97ac45	0.07405905
213	0x3bfcbe3e	0.0077131083
214	0x3c29baf9	0.010359519
215	0xbde5fdc8	-0.112300456
216	0xbde1ef38	-0.110319555
217	0xbd7ccd28	-0.06171909
218	0x3c6f89b5	0.014620234
219	0xbd8693a6	-0.065711305
220	0x3d5b9f33	0.05361862
221	0xbd12f5ec	-0.03587906
222	0xbd9724b0	-0.073800445
223	0xbdf624d4	-0.12018743
224	0x3d2047ec	0.03913109
225	0xbe1921da	-0.1495432
226	0x3cc59200	0.02411747
227	0xbd63702e	-0.055526905
228	0xbe00e71a	-0.12588158
229	0xbd401c74	-0.046902135
230	0x3d34b2fe	0.044116013
231	0xbcb5d79f	-0.022197543
232	0x3cbe3fe6	0.023223829
233	0x3d277b18	0.040888876
234	0xbdd0a7b2	-0.10188235
235	0xbdf9c316	-0.12195413
236	0xbcd203cb	-0.025636574
237	0x3bbfda99	0.0058549163
238	0xbc9d2b3d	-0.019185657
239	0xbcec172e	-0.028819647
240	0x3d8bf41e	0.06833671
241	0xbdc21d06	-0.09478192
242	0xbc634dec	-0.0138735585
243	0x3d7b7ee5	0.061400313
244	0xbddbbfd8	-0.10729951
245	0x3d2b3bfd	0.041805256
246	0xbd68ecfc	-0.05686663
247	0x3d81c32d	0.06336055
248	0xbdb019b1	-0.0859865
249	0xbd523442	-0.05131937
250	0x3cc05f2b	0.02348288
251	0xbd817034	-0.06320229
252	0x3d7154e1	0.058918837
253	0x3dbbe60a	0.09174736
254	0xbdd5a64c	-0.10432109
255	0xbde1bb5a	-0.110220626

weight f4 [512, 256]
0	0x3dda074a	0.106459215
1	0x3cacf731	0.021113964
2	0x3d1ea03e	0.038727038
3	0x3d5cf38a	0.053943194
4	0xbcf88532	-0.03033695
5	0x3cf567e5	0.029956767
6	0x3dbe3c55	0.09288851
7	0x3d05591d	0.03255569
8	0x3d0b12c4	0.033953443
9	0x3d62b575	0.055348832
10	0x3d66720a	0.0562611
11	0x3b66fde4	0.0035246545
12	0x3dc22012	0.09478773
13	0x3d73c797	0.059516516
14	0x3da97360	0.08273959
15	0x3d7af748	0.061270982
16	0x3d504ec6	0.050856374
17	0x3d287961	0.04113138
18	0x3c8c576a	0.017131526
19	0x3d424570	0.047429502
20	0x3dbf0b9a	0.09328385
21	0x3a57f538	0.00082381396
22	0x3bfc4510	0.0076986626
23	0x3dcc0816	0.0996248
24	0x3d9b3c00	0.075798035
25	0x3d825f59	0.06365842
26	0x3d7664f9	0.06015489
27	0x3da006a2	0.07813765
28	0xbb101512	-0.0021985215
29	0x3d5c4041	0.053772215
30	0x3dc27a28	0.09495956
31	0xbb1708f0	-0.0023046099
32	0x3d8e1488	0.0693751
33	0x3dac891b	0.08424588
34	0x3c033640	0.00800854
35	0x3ca1f01b	0.019767812
36	0x3d20b3f4	0.039234117
37	0xbca8ec3c	-0.020620458
38	0x3d8df750	0.06931937
39	0x3d44aa63	0.048014056
40	0x3d9fbc2e	0.07799564
41	0x3ad2c654	0.0016080835
42	0x3d8c2e05	0.06844715
43	0x3c8d752f	0.017267792
44	0x3d852246	0.06500678
45	0xbd08ea22	-0.03342641
46	0x3d6ea647	0.058264043
47	0x3c8dc05a	0.017303634
48	0x3dcbbdb8	0.09948295
49	0x3d7817e9	0.060569678
50	0x3aec499b	0.0018027307
51	0x3d714646	0.05890491
52	0x3d25dc96	0.04049357
53	0x3cbabb58	0.02279441
54	0xbc71c7e6	-0.014757132
55	0x3d59265d	0.0530151
56	0x3d918788	0.07105929
57	0x3ce88324	0.028382845
58	0x3d167bd4	0.036739185
59	0x3da1f5e2	0.079082265
60	0xbc80597e	-0.015667673
61	0x3d3dfa29	0.04638115
62	0x3d8b4844	0.06800893
63	0x3da2af65	0.0794361
64	0xbcd23a64	-0.025662608
65	0x3dace572	0.08442201
66	0x3dbe798d	0.09300528
67	0x3dbdd8a0	0.092698336
68	0xbc298b5e	-0.010348169
69	0x3d2bc5e0	0.041936755
70	0x3c9bf80b	0.019039175
71	0x3dba75bc	0.09104487
72	0xbafd62ec	-0.0019331849
73	0x3ce2fc27	0.027708126
74	0x3d7338d8	0.059380382
75	0x3d5c3190	0.053758204
76	0x3da6768b	0.08128079
77	0x3d81b076	0.063324854
78	0x3d33c2ba	0.043886878
79	0x3caf481e	0.021396693
80	0x3d9b9696	0.07597081
81	0x3d6746c4	0.05646397
82	0x3de4eb69	0.111777134
83	0x3dbfe51b	0.0936987
84	0x3d2fad1c	0.0428897
85	0x3db9b416	0.09067552
86	0x3d81240f	0.06305706
87	0x3ccdab8b	0.025106212
88	0x3d383137	0.04496881
89	0xbb5c5c50	-0.0033624358
90	0x3d0a89e2	0.0338229
91	0x3c7c27f0	0.015390381
92	0x3d486170	0.04892105
93	0x3c24bb24	0.010054383
94	0x3d218634	0.039434627
95	0x3bcd637d	0.0062679634
96	0x3d36c433	0.044620704
97	0x3ccbd672	0.024882529
98	0x3cdba21b	0.026810696
99	0xbc3175ee	-0.010831339
100	0x3d8ea395	0.069647945
101	0x3d834448	0.06409508
102	0x3da55505	0.08072857
103	0x3d725f8b	0.059173148
104	0xbc4e5520	-0.012593538
105	0x3d48b935	0.049004752
106	0x3c14c625	0.009080444
107	0xbad0b8f3	-0.001592426
108	0xbd0bb0e7	-0.034104254
109	0x3db142fe	0.08655356
110	0x3dc00595	0.09376065
111	0xbc18e684	-0.009332303
112	0x3d4d5356	0.050128303
113	0x3dac1c9b	0.084038936
114	0x3d290a9e	0.04126989
115	0x3d815bbb	0.06316324
116	0x3d91ee92	0.07125582
117	0x3d43e450	0.047825158
118	0x3d9718c7	0.07377773
119	0x3cb6a6b4	0.022296287
120	0x3d8494dc	0.06473705
121	0xbb22e230	-0.0024854057
122	0x3bc4dc26	0.006007689
123	0x3b42162f	0.0029615273
124	0xbcd1fdf3	-0.025633788
125	0x3dbc54e3	0.09195878
126	0xbd15b732	-0.03655166
127	0x3db092ab	0.08621725
128	0x3b2b5c5b	0.0026147577
129	0x3cd3d728	0.02585943
130	0x3d67377d	0.056449402
131	0x3dbcbb48	0.092154086
132	0x3d5ce584	0.05392982
133	0x3cd2b47a	0.025720824
134	0x3da07406	0.0783463
135	0x3d9f82e4	0.07788637
136	0x3de7fca8	0.11327487
137	0x3da85338	0.08218998
138	0x3db2fe36	0.08739893
139	0x3d881605	0.06644825
140	0x3ccf206e	0.025284018
141	0x3d6bdfb3	0.057586383
142	0x3c4bc5ab	0.012437264
143	0x3cff2f5c	0.031150512
144	0x3c86c2c6	0.016450297
145	0x3cd16eda	0.025565553
146	0x3da23f69	0.07922251
147	0x3cfdbe45	0.030974517
148	0x3d1c58f1	0.03817076
149	0x3d8cdb5a	0.068777755
150	0x3d69b11c	0.05705367
151	0x3d6b268e	0.057409815
152	0x3d61e2dc	0.05514799
153	0x3da2b2de	0.079442725
154	0xbbea2fb8	-0.007146802
155	0x3da3761a	0.079815105
156	0x3c44fa29	0.012022533
157	0x3cbcc0fe	0.023041245
158	0x3dadb1e4	0.084811956
159	0x3da3a99a	0.07991333
160	0x3cc70e99	0.024298953
161	0x3da3c80a	0.07997139
162	0x3d39862b	0.04529397
163	0x3d247b54	0.040156677
164	0x3da1cfae	0.0790094
165	0x3db25e3d	0.08709381
166	0x3c635bd2	0.013876872
167	0x3cf1679c	0.02946835
168	0x3d98b1d1	0.07455791
169	0x3cbd4e4b	0.023108622
170	0x3af1c4cf	0.0018445494
171	0x3d8ba395	0.0681831
172	0xbb56b499	-0.0032761453
173	0x3c347ea7	0.011016524
174	0xbb78c763	-0.003796064
175	0xbc46e2ad	-0.012139005
176	0x3dbbfd99	0.09179229
177	0x3d8500ab	0.06494268
178	0x3d9ec4df	0.07752394
179	0xbc23b94a	-0.009992907
180	0x3cc93869	0.024563031
181	0x3db35344	0.08756116
182	0x3d966bba	0.07344766
183	0x3d7e3243	0.062059652
184	0xbba077ce	-0.0048970943
185	0x3d82b480	0.06382084
186	0x3d643199	0.055711363
187	0x3db400f4	0.08789244
188	0xbc08a85f	-0.008340924
189	0xbc842e91	-0.016135486
190	0x3dc933c9	0.0982433
191	0x3b81a760	0.0039567202
192	0x3c9c2329	0.019059734
193	0xbc6296bb	-0.013829882
194	0x3dc7bb11	0.09752477
195	0x3d58eb67	0.052958872
196	0x3c95f594	0.018305577
197	0x3d4ec60b	0.050481837
198	0xbb925566	-0.0044657467
199	0x3d228428	0.039676815
200	0x3d8f81fa	0.07007213
201	0x3d1403b3	0.03613634
202	0x3db7060a	0.08936699
203	0x3db70756	0.08936946
204	0xbbd51743	-0.006503017
205	0x3dbaca3d	0.09120605
206	0x3dab9de0	0.08379722
207	0x3b4e84ad	0.0031512186
208	0x3dc8f11e	0.098116145
209	0x3dbfa828	0.09358245
210	0xbc05d6ba	-0.008168871
211	0x3c8415ad	0.016123617
212	0x3c993d03	0.01870585
213	0x3d993747	0.074812464
214	0x3c99a6b5	0.01875625
215	0x3b28de45	0.0025767249
216	0x3d536b9f	0.051616307
217	0xbc8b093d	-0.016972179
218	0x3b37a237	0.0028020272
219	0xb9fbcf3c	-0.00048028852
220	0xbaab7738	-0.0013081795
221	0x3d7e33a1	0.062060956
222	0x3d9c226d	0.07623754
223	0x3db77b08	0.08959013
224	0x3d83f739	0.06443638
225	0x3d83324d	0.064060785
226	0x3c5e8932	0.013582515
227	0x3c8e2800	0.017353058
228	0x3c42bf4d	0.01188643
229	0x3d8f3665	0.06992797
230	0x3c57335b	0.013134803
231	0x3d483020	0.04887402
232	0x3c94a890	0.018146783
233	0xbc372641	-0.011178554
234	0x3d8b02af	0.06787621
235	0x3d63a483	0.055576812
236	0x3aa27de6	0.001239714
237	0x3bec103b	0.0072040833
238	0x3d189208	0.03724864
239	0x3d67c1f8	0.056581467
240	0x3d9b718b	0.07590016
241	0x3c45e9f9	0.012079709
242	0x3d2671ec	0.040635988
243	0xbc87638a	-0.016526956
244	0x3d9a7733	0.07542267
245	0xbc922a08	-0.017842308
246	0x3b080636	0.0020755655
247	0x3d162df9	0.036664937
248	0x3d8b8187	0.06811815
249	0x3cad2ca5	0.021139452
250	0xbc846c65	-0.016164968
251	0x3d0fa83d	0.035072554
252	0xbcc24ff6	-0.023719769
253	0x3db6cb0b	0.08925446
254	0xba3e501b	-0.00072598614
255	0x3cb8e30d	0.022569204

bias f4 [512]
0	0x3dc35e7e	0.09539507
1	0x3cad936b	0.021188458
2	0xbb5e8e69	-0.0033959395
3	0x3d9736e0	0.073835135
4	0xbd5b71d0	-0.053575337
5	0xbc2691a5	-0.01016656
6	0x3d16a950	0.036782563
7	0xbd34c3c0	-0.044131994
8	0x3d16fc80	0.036861897
9	0xbd6845c2	-0.05670715
10	0xbdb6ff9d	-0.08935473
11	0x3cb4d135	0.022072414
12	0x3d18cbfd	0.037303913
13	0xbd239092	-0.039932795
14	0x3c204136	0.0097811725
15	0xbd6432c5	-0.05571248
16	0xbca74a04	-0.020421036
17	0xbd33aa2a	-0.043863453
18	0xbbc87910	-0.0061179474
19	0xbc5da005	-0.013526921
20	0xbc4fc7ae	-0.012681885
21	0x3c497b3c	0.012297448
22	0x3cf2858a	0.029604692
23	0xbcc3df73	-0.02391026
24	0xbd38a1c4	-0.045076147
25	0xbc43050a	-0.011903057
26	0xbd2b3c3c	-0.04180549
27	0x3c980082	0.01855493
28	0xbce620c0	-0.028091788
29	0xbd1d66a8	-0.03842798
30	0x3d1962b4	0.037447646
31	0x3bfabed5	0.0076521435
32	0xbbde4401	-0.006783009
33	0x3c4a94d4	0.012364585
34	0x3d3d4e34	0.04621716
35	0x3d2fd95e	0.042931907
36	0xbc98fc64	-0.018675037
37	0x3ca66c62	0.020315353
38	0xbc0028df	-0.007822244
39	0x3d08c803	0.03339387
40	0x3dd25c14	0.10271469
41	0x3c1967db	0.00936314
42	0xbd42b021	-0.04753125
43	0xbc8aef9d	-0.01695996
44	0x3d5ab5dd	0.053396095
45	0xbcf36e03	-0.029715544
46	0x3ca3c55f	0.019991575
47	0xbd5dcdaa	-0.054151215
48	0xbb3c6523	-0.0028746806
49	0xbcbdde14	-0.023177184
50	0xbbafabd1	-0.0053610583
51	0x3bcaa6c0	0.006184429
52	0xbabea51f	-0.001454506
53	0x3a8f94db	0.0010954397
54	0xbc1f0473	-0.009705651
55	0x3d8e0546	0.069345996
56	0xbd8ad8a5	-0.06779603
57	0xbd57f49e	-0.05272352
58	0xbd7b16a7	-0.0613009
59	0xbcdebe14	-0.027190246
60	0xbd1c2946	-0.0381253
61	0x3c9cb5dc	0.019129686
62	0x3d01e687	0.03171399
63	0xbc975b10	-0.01847604
64	0xbd8c94a4	-0.068642884
65	0xbd927812	-0.07151808
66	0xbd907fe9	-0.07055647
67	0xbd3b0da5	-0.04566731
68	0xbd6ee9c2	-0.058328398
69	0x3d1c2680	0.038122654
70	0xbd2da5df	-0.042394515
71	0x3c81256e	0.015764918
72	0xbce34499	-0.02774267
73	0xbd38ac8b	-0.045086425
74	0x3d7fc7ab	0.062446278
75	0xbd43bb6e	-0.04778617
76	0x3d012e28	0.03153816
77	0xbc2d886c	-0.010591608
78	0xbd41c21a	-0.04730425
79	0xbd729daf	-0.05923241
80	0xbad368de	-0.0016129275
81	0xbbc9a2e9	-0.0061534536
82	0x3c0998e0	0.008398265
83	0x3d4c1285	0.04982235
84	0xbc2d505c	-0.010578241
85	0x3d3dfbb7	0.046382632
86	0xbc92c4a6	-0.017916035
87	0xbca25396	-0.019815248
88	0x3d048938	0.032357424
89	0xbda8104a	-0.08206232
90	0xbcf668e9	-0.030079322
91	0xbd3e8301	-0.046511654
92	0xbd896481	-0.06708623
93	0x3d9e221b	0.07721349
94	0xbcd748da	-0.026279856
95	0xbc97bb89	-0.01852204
96	0x3cd6876c	0.026187621
97	0xbd39ad33	-0.04533119
98	0x3d96bff4	0.07360831
99	0x3dd340ca	0.10315092
100	0x3da7b16a	0.08188136
101	0xbd19a8c7	-0.037514474
102	0x3d1d8310	0.03845507
103	0xbce3efd9	-0.02782433
104	0xbd056e8b	-0.032576125
105	0x3db3f111	0.08786214
106	0x3c89edd9	0.016837047
107	0x3d302305	0.043002147
108	0xbc558a48	-0.013033457
109	0x3d1fdfce	0.039031796
110	0x3c4efcd2	0.012633519
111	0xbce5aebd	-0.028037423
112	0xbc30a67e	-0.010781882
113	0x3d20a993	0.03922422
114	0xbcad1f96	-0.021133225
115	0xbd85e18f	-0.065371625
116	0xbd2a244a	-0.041538514
117	0x3d1b59bf	0.037927385
118	0xbd0b8356	-0.0340608
119	0xbb823fc4	-0.0039748866
120	0x3a153f83	0.0005693363
121	0xb995d8a5	-0.00028580907
122	0xbcb92658	-0.022601292
123	0x3cb275f6	0.021784764
124	0x3d7da8d5	0.06192859
125	0x3ce5b2c1	0.028039338
126	0xbd36db52	-0.044642754
127	0xbd977751	-0.07395805
128	0xbcc97031	-0.02458963
129	0xbc16d6b9	-0.009206467
130	0x3c1d5c41	0.009604515
131	0xbd9374ce	-0.07200013
132	0xbc85ddfc	-0.016341202
133	0xba70fa62	-0.00091925834
134	0x3de706bb	0.112805806
135	0x3c4c278b	0.0124606
136	0x3c22cf4e	0.009937121
137	0x3c21c206	0.009872919
138	0xbcb71ab4	-0.0223516
139	0xbc2b1cc1	-0.010443867
140	0xbcbc2736	-0.022967916
141	0xbd48929e	-0.04896795
142	0x3cfaa379	0.030595528
143	0x3de4e50b	0.11176499
144	0x3c686c1b	0.014185931
145	0xbd821e3d	-0.06353424
146	0x3b850052	0.004058876
147	0x3b13114e	0.0022440734
148	0x3cbe70f1	0.023247214
149	0xbd9b8256	-0.07593219
150	0xbd22ebf1	-0.039775793
151	0x3ce6082c	0.028080069
152	0x3d00b7ce	0.03142529
153	0xbd7fa18e	-0.06240993
154	0x3d207cc4	0.039181486
155	0x3d18c919	0.037301157
156	0xbc727c7d	-0.014800188
157	0x3d181060	0.03712499
158	0xbd569f84	-0.05239822
159	0x3cc84f1d	0.024451787
160	0xbca90f0c	-0.020637058
161	0x3c658cbe	0.014010606
162	0xbcd2a400	-0.025712967
163	0xbd663f05	-0.056212444
164	0xbce98b3c	-0.028508775
165	0xbd9162e6	-0.070989415
166	0x3d8e16c1	0.06937934
167	0xbd5bbed0	-0.05364877
168	0x3ccfedd3	0.025381958
169	0xbb657000	-0.0035009384
170	0x3d03a313	0.03213794
171	0xbd3f0b91	-0.04664189
172	0xbcab27f2	-0.02089307
173	0x3c0717e6	0.008245444
174	0xbd151648	-0.036398202
175	0xbca38942	-0.01996291
176	0xbd09bd6a	-0.033627905
177	0xbc831c9f	-0.016004859
178	0x3d610207	0.054933574
179	0x3ce72a16	0.02821831
180	0xbd68995b	-0.056786876
181	0xbd49ab40	-0.049235582
182	0xbd1f5573	-0.03889985
183	0x3c08da81	0.008352877
184	0xbdad8778	-0.08473104
185	0xbd2fef79	-0.04295299
186	0x3bf9ea5b	0.0076268143
187	0x3d1ff2b8	0.039049834
188	0xbd33d509	-0.043904338
189	0x3da233c1	0.079200275
190	0xbd016912	-0.031594343
191	0xbcd46fcc	-0.025932215
192	0xbda5ce66	-0.08096008
193	0x3cd26c7c	0.025686495
194	0xbbf66cee	-0.0075203096
195	0x3e03ef38	0.12884223
196	0xbd282148	-0.041047364
197	0x3d42a2d9	0.047518585
198	0x3bb6a95c	0.0055743884
199	0xbcb5306b	-0.022117814
200	0xbc2e7237	-0.010647348
201	0x3d174fe0	0.03694141
202	0x3d990e24	0.074734
203	0x3c377dd9	0.011199438
204	0xbd25de9d	-0.040495504
205	0xbd83cc15	-0.0643541
206	0x3d1c2d4f	0.038129147
207	0x3de44a6f	0.111470096
208	0x3d925367	0.07144814
209	0xbd5a1b2b	-0.053248566
210	0x3d5d0028	0.053955227
211	0xbc804314	-0.015656985
212	0x3d9434b7	0.07236617
213	0xbccbbb84	-0.024869688
214	0xbd34027e	-0.04394769
215	0x3d824eff	0.063627236
216	0xbd0d9d12	-0.034573622
217	0xbd90cb37	-0.0707001
218	0x3d110f22	0.035414822
219	0x3d3962c5	0.04526021
220	0x3df58fa5	0.11990289
221	0x3db5959c	0.08866426
222	0xbcd503da	-0.026002813
223	0x3ce4da45	0.02793611
224	0x3c6fcfde	0.014636962
225	0x3cda0873	0.026615357
226	0xbd6fb07f	-0.05851793
227	0x3b202e06	0.0024441495
228	0xbc8b02f4	-0.016969182
229	0xbcf6a567	-0.030108167
230	0xba78d6f7	-0.00094924815
231	0xbd2466ee	-0.040137224
232	0x3d909248	0.07059151
233	0x3db8d2e9	0.09024603
234	0x3dbf648c	0.0934535
235	0xbcaab357	-0.020837469
236	0xbd54f30a	-0.051989593
237	0xbd5c2ebd	-0.05375551
238	0xbd71c8d5	-0.05902942
239	0xbcae2cd9	-0.02126162
240	0xbd39e472	-0.045383878
241	0xbcd9ecbb	-0.02660214
242	0xbc0b6fac	-0.008510511
243	0x3d98a7be	0.07453869
244	0xbccfd8ea	-0.025371987
245	0x3bb15f0a	0.005412941
246	0x3d28d970	0.04122299
247	0x3d3e4a13	0.04645736
248	0xbc1401d9	-0.009033644
249	0x3c3f9618	0.0116935
250	0xbd014235	-0.03155728
251	0x3ce115d0	0.027476221
252	0x3900d8f1	0.00012287848
253	0x3d79abc2	0.060954817
254	0xbda163ff	-0.07880401
255	0xbd84102e	-0.064483985

weight f4 [2, 512]
0	0xbc28dc47	-0.010306424
1	0x3bd127d2	0.006382921
2	0x3bdb9c54	0.0067019854
3	0xbadeb673	-0.001699163
4	0x3c85de2a	0.016341288
5	0x3cc67c8d	0.024229312
6	0xba5742be	-0.00082115445
7	0x3b375505	0.002797426
8	0x3c646689	0.013940462
9	0x3b05c8f1	0.002041396
10	0xbbd250c6	-0.0064183204
11	0x3d07c9c8	0.033151418
12	0x3c4b524a	0.012409756
13	0x3c4ce65a	0.012506092
14	0xbb2360cc	-0.0024929522
15	0xbca9a8f9	-0.020710455
16	0xb82e665d	-4.1580166e-05
17	0x3cbf2c97	0.023336692
18	0x3c92263d	0.017840499
19	0x3bedf3ef	0.007261745
20	0x3c06ec00	0.008234978
21	0xba588098	-0.0008258908
22	0xb88499ae	-6.3228756e-05
23	0xbc7e1a9b	-0.015509273
24	0xbca3a85b	-0.01997774
25	0xbc9a21c3	-0.018814927
26	0x3c87e452	0.016588364
27	0x3bc36e9d	0.005964114
28	0x3c9b2316	0.018937629
29	0xbbe661a0	-0.007030681
30	0xbc2df992	-0.010618584
31	0x3cb1c945	0.021702418
32	0xbcf68ce7	-0.030096484
33	0xbb3e90b8	-0.0029077958
34	0xbb759d3e	-0.0037477757
35	0xbb1cee70	-0.002394583
36	0xbbb649f5	-0.0055630156
37	0xbb4d0099	-0.0031280874
38	0xbb82ea6a	-0.0039952295
39	0xbb3695f7	-0.0027860382
40	0xbc7690ea	-0.015049199
41	0xbd09ba6d	-0.033625055
42	0xbbf408d1	-0.00744734
43	0x3d143690	0.036184847
44	0xbb16080a	-0.0022892975
45	0xbb9b1aed	-0.0047334344
46	0xba37b1bf	-0.0007007382
47	0x3c076d62	0.008265825
48	0x3d311282	0.04323054
49	0xbcb3d9b9	-0.021954404
50	0x3c53b49f	0.012921481
51	0x3d07192a	0.032982983
52	0x3d17b7a9	0.037040386
53	0x3cc03949	0.023464816
54	0x3c265271	0.0101514915
55	0xbb1da60a	-0.0024055266
56	0x3cab6857	0.020923777
57	0xbc013032	-0.007885026
58	0x3ae0e568	0.0017158212
59	0xbcbd71be	-0.023125526
60	0x3d672fa1	0.056441907
61	0xbb7b2a35	-0.0038324718
62	0x3cab1b9b	0.020887187
63	0x3c1f3ddf	0.009719341
64	0x3cc6b94c	0.024258278
65	0x3c5f76a1	0.013639123
66	0x3d099af8	0.033595055
67	0x39c03932	0.00036663708
68	0xbc10ec66	-0.008845424
69	0xbd2605ed	-0.040532995
70	0xbbbb1566	-0.005709338
71	0xbc010613	-0.007874983
72	0xbb4c9327	-0.003121564
73	0xbb1ac217	-0.0023614222
74	0xb9cfc50f	-0.00039628937
75	0x3ceca516	0.028887313
76	0xb8a63312	-7.9250094e-05
77	0x3d3f41fe	0.046693794
78	0x3ced4ce4	0.028967328
79	0x3c8f3c57	0.017484827
80	0xba9ce718	-0.0011970727
81	0xbcae377c	-0.021266691
82	0xbc0a691d	-0.0084479125
83	0x3bf24388	0.0073933043
84	0xb96684bf	-0.00021983961
85	0xbb0b21e3	-0.0021229915
86	0x3a2d3ef2	0.0006608806
87	0x3cf74534	0.030184366
88	0xba8d0cc6	-0.0010761253
89	0xbae150b9	-0.0017190195
90	0xbb3b6354	-0.002859314
91	0xbc03ef73	-0.008052695
92	0x3bd67f07	0.0065459046
93	0x3d315278	0.04329154
94	0xbba6d309	-0.0050910753
95	0x3c461b71	0.0120915035
96	0x3d78eca0	0.06077254
97	0xbb8a4465	-0.004219579
98	0x3d3c4b4a	0.04597024
99	0xbd01bce1	-0.03167427
100	0xbaa2decf	-0.0012426021
101	0x3b3d2a0a	0.0028864169
102	0xbba676fd	-0.0050801025
103	0xbbd8e001	-0.0066185
104	0x3cedf34a	0.029046673
105	0x3d16bad9	0.036799286
106	0xbb0c676c	-0.002142395
107	0x3b8b1bbd	0.00424525
108	0x3d1aac22	0.037761815
109	0xbb1bc409	-0.002376797
110	0xba890394	-0.0010453337
111	0x3ac8516a	0.0015283052
112	0x3c948dc4	0.018134005
113	0x3c465e54	0.0121074505
114	0x3cde6204	0.027146347
115	0x3cddf609	0.027094858
116	0x3cf7799b	0.030209353
117	0xbc39d97f	-0.011343359
118	0xba54f475	-0.0008123585
119	0xbbb38afa	-0.005479214
120	0xbac866ba	-0.0015289404
121	0x3c6d5723	0.014486107
122	0xbb437126	-0.002982208
123	0xbc2df96c	-0.010618549
124	0xbd0026b2	-0.031286903
125	0xbc1fd137	-0.009754471
126	0x3b86238c	0.004093593
127	0x3c3ff0cf	0.011715128
128	0x3ba01283	0.0048850193
129	0xbd48befe	-0.04901027
130	0xba675438	-0.00088245
131	0x3c240b02	0.01001239
132	0xba958f87	-0.0011410572
133	0xbc583a54	-0.0131975
134	0xbcc83ccf	-0.024443058
135	0x3b1d7ed9	0.0024031906
136	0xbac32561	-0.0014888459
137	0x3a871366	0.0010305464
138	0xbbbbd0f1	-0.005731695
139	0xbc6044d0	-0.013688281
140	0xbb8131ac	-0.003942689
141	0x3cbfda10	0.02341941
142	0xbbc9c04e	-0.0061569577
143	0xbc593269	-0.013256648
144	0x3d512a59	0.051065776
145	0xbcdba6e1	-0.026812973
146	0x3c03e407	0.008049971
147	0xbb1c10e7	-0.0023813786
148	0xbc875839	-0.01652156
149	0x399c1f08	0.0002977776
150	0xbb3121e0	-0.0027028248
151	0xbd17ea16	-0.037088476
152	0x3c923277	0.01784633
153	0xb961420c	-0.00021482276
154	0x3b015dab	0.0019739668
155	0xbbfefa4e	-0.0077813035
156	0xba604cfa	-0.0008556392
157	0x3a7322c7	0.00092748966
158	0x3c310427	0.010804213
159	0x3a84f9b4	0.0010145218
160	0x3d5f3f9e	0.05450403
161	0xbca5f4d0	-0.020258337
162	0xbb101c1a	-0.0021989406
163	0x3d0a026f	0.033693727
164	0x3c9e868f	0.019351272
165	0x3be224de	0.0069013676
166	0xbb89183b	-0.0041837967
167	0xbc5ef004	-0.013607029
168	0x3b16db52	0.0023018909
169	0x3c04c15d	0.008102742
170	0xbb94cb13	-0.00454081
171	0x3ca74f9e	0.020423707
172	0xbd0709b3	-0.032968234
173	0xbcdccefe	-0.02695417
174	0xbd23416b	-0.03985731
175	0x3b0ba962	0.0021310677
176	0x3aba6f3b	0.0014223823
177	0xb99da52c	-0.00030068436
178	0xba992000	-0.001168251
179	0xba665fd3	-0.00087880826
180	0xbb4cc7e5	-0.0031247076
181	0x3c9c7feb	0.019103965
182	0x3ac8e0c1	0.0015325771
183	0x3c8108fe	0.015751358
184	0xbb07b1d4	-0.002070536
185	0x3adfe502	0.00170818
186	0x3c45b27f	0.012066483
187	0x3ce8b285	0.028405437
188	0x3c71d5f1	0.01476048
189	0xbc87fe93	-0.016600883
190	0x3c305fd3	0.010765034
191	0xbd1c4021	-0.038147096
192	0xbcaa0cd7	-0.020758076
193	0xbca7a7f0	-0.020465821
194	0x3d7c0d27	0.06153598
195	0xbcd4166f	-0.025889603
196	0xbc32d146	-0.0109141525
197	0x3a37ed5a	0.0007016264
198	0xbc81bf5c	-0.015838318
199	0x386f175f	5.7003806e-05
200	0x3c8a37ce	0.016872313
201	0x3c3a1c0c	0.011359226
202	0x3ca71859	0.020397352
203	0xbc8f6578	-0.017504439
204	0xbcd3c685	-0.025851497
205	0x3d11ab81	0.03556395
206	0xb548b03c	-7.476226e-07
207	0xbd1d5aea	-0.03841678
208	0x3c485470	0.012227163
209	0xbcdb9010	-0.026802093
210	0xbb1522b9	-0.0022756292
211	0x3ca9d58f	0.020731715
212	0xba6f8abc	-0.00091377995
213	0x3d2a5a41	0.04158998
214	0x3c6f9bcb	0.014624546
215	0xb9a89561	-0.00032154753
216	0x3c60d4a0	0.013722569
217	0x3b23447c	0.0024912646
218	0x39aeaac4	0.00033315097
219	0x3c82b4f9	0.015955435
220	0xbc63085c	-0.0138569735
221	0x3d62ca88	0.05536893
222	0xbabee01e	-0.0014562642
223	0x3d1d22e7	0.038363364
224	0x3d40a319	0.047030542
225	0xb9c802d4	-0.0003814908
226	0x3c3f15cc	0.011662912
227	0xbb8dfac9	-0.0043328744
228	0xbbf14666	-0.0073631285
229	0xbc2b1f71	-0.010444508
230	0x3c800117	0.01562552
231	0x3b99c576	0.0046927286
232	0x39ec04cb	0.00045017
233	0x3d6ed6de	0.058310382
234	0x3d529a1b	0.051416498
235	0xbacb1712	-0.0015494546
236	0xba46e2fa	-0.0007586923
237	0x3cca6e37	0.024710758
238	0x3d599097	0.053116407
239	0xbd0b9260	-0.03407514
240	0x3b8404b5	0.0040288814
241	0x3ca121a8	0.019669369
242	0x3d468cac	0.048474
243	0xbc9eacf0	-0.019369572
244	0xbb14dfa5	-0.002271631
245	0xba35054d	-0.0006905392
246	0xbd2220b5	-0.039581973
247	0xbbfaddea	-0.0076558487
248	0xbb74c431	-0.0037348385
249	0xba3ad1dc	-0.00071266084
250	0xbacf2371	-0.0015803409
251	0xb82e61a9	-4.1575786e-05
252	0xbbd84103	-0.006599547
253	0xbce00d33	-0.027350044
254	0x3c72c8f6	0.014818421
255	0xbcb8d9a9	-0.022564726

bias f4 [2]
0	0xbcf2d184	-0.02964092
1	0x3c37ec0b	0.011225711
