WGAN_pt/D001289Big_21dim.pt (torch, 675799 bytes, 6 tensors)

weight f4 [256, 100]
000000 92 85 92 bd ea 4b 43 bc 6b c7 cc bd 22 cc b8 3b
       -0.07154383 -0.011919955 -0.099989735 0.005639569
000010 c7 94 3e bb 47 e0 8c bc 47 71 8b bd 84 7e 8c bd
       -0.0029080377 -0.017196788 -0.06808715 -0.068600684
000020 e6 e8 9b bd 75 6d 9c 3d bd d5 87 3d a1 b5 9e 3d
       -0.07612781 0.07638065 0.06632564 0.07749487
000030 7b b2 35 bd 16 25 6b bd 47 7d 0f bd d1 53 5a bb
       -0.044359665 -0.057408415 -0.035031583 -0.0033314119
000040 ce 3e 78 3c b1 50 28 3d 33 80 62 bd 37 5d 8a bd
       0.015151693 0.04109258 -0.05529804 -0.067560606
000050 d5 00 00 3d fd 62 1a bb e0 5e b0 3d b8 37 b5 bd
       0.031250793 -0.0023557537 0.08611846 -0.08848518
000060 78 c0 0b 3d 4f 1e a3 bd de 22 9b bd 21 b9 0d b9
       0.0341191 -0.07964765 -0.0757501 -0.00013515774
000070 65 cf c7 bc e3 1d a4 bd 9a f0 79 3d cd 32 48 bc
       -0.024390886 -0.08013513 0.06102047 -0.012219143
000080 85 b1 a0 3c 74 29 b9 3d af 86 8e bd 26 b2 65 bc
       0.019615898 0.0904111 -0.069592826 -0.014019525
000090 bf 90 14 bc ca 6b 6e 3d 1c 67 ad bd 72 34 99 bc
       -0.009067713 0.058208264 -0.08466932 -0.018701766
0000a0 85 bb 74 bd dd 4a 3d bd 1a 88 f3 bb 76 c2 d2 3d
       -0.059749145 -0.046213973 -0.007431996 0.10290997
0000b0 57 04 8b 3d fd 46 c4 3d 87 a8 1d 3d 68 3d 86 bd
       0.06787937 0.095838524 0.0384908 -0.06554681
0000c0 e4 aa 35 bc ae 47 33 3d a4 5d 43 bc d8 a1 c3 3d
       -0.011088107 0.04376953 -0.011924181 0.095523536
0000d0 6f 40 81 3d 6d c9 61 3d 17 da be 3d 48 80 f3 3c
       0.06311118 0.055123735 0.09318941 0.029724255
0000e0 88 39 f2 bc 94 93 1a 3a 8d b9 c1 3c 65 5f fd bc
       -0.029568449 0.00058966246 0.023648048 -0.030929277
0000f0 94 55 b9 3d 8c c9 bc bd 4f e7 67 3d a4 fe 8f 3d
       0.09049526 -0.092181295 0.056617077 0.07030991
000100 d1 07 2b 3d 60 c9 85 bd fb cc 14 bd b1 64 3e 3d
       0.0417555 -0.0653255 -0.036328297 0.046482746
000110 ea 1d a5 bd d7 7d 9c bc 32 5b 30 bd 8c 3c 15 bd
       -0.08062346 -0.019102974 -0.04305572 -0.036434695
000120 6f 9e 7a 3d f3 2d 8f 3d dc bd b2 bd fe 54 a8 bd
       0.06118625 0.06991186 -0.08727619 -0.08219336
000130 67 51 98 3c 16 02 ce 3d 2a 19 02 3c 24 7e 7c 3d
       0.018593503 0.100589916 0.00794057 0.061643735
000140 47 0d 77 3c 0c 3d db 3d 78 87 95 bd 1c 9b cc 3c
       0.015078849 0.10705003 -0.07301229 0.024976306
000150 73 d7 c3 3d 82 db 04 3d d6 c4 df bb ec 59 96 3c
       0.09562578 0.0324359 -0.0068288846 0.018353425
000160 75 db bd bc bf 65 02 bd 15 89 0e bc f9 14 a6 3d
       -0.023175934 -0.031835314 -0.008699675 0.08109469
000170 62 d3 48 3c 9d 03 91 bd e4 b9 81 bd a2 5c b6 3d
       0.012257429 -0.07080767 -0.06334284 0.08904387
000180 96 2c 88 bd f5 1d de 3b 54 b5 4c ba cf 9c 5f bd
       -0.06649129 0.0067784735 -0.00078090024 -0.054592904
000190 54 64 20 bd db a2 6b 3d b7 93 72 3d 0f 12 9a 3d
       -0.03915818 0.057528358 0.059222903 0.07522976
0001a0 35 23 f2 3c 4e 3a 40 3d cc c9 4d bd 25 52 76 3c
       0.029557804 0.046930604 -0.050241277 0.015034233
0001b0 25 d5 d3 bd 26 9a 8d 3d 96 7b 45 3d 04 75 a5 bd
       -0.103433885 0.06914167 0.048213564 -0.080789596
0001c0 ca 45 57 bd 04 31 07 3d 8b 00 03 bd f9 6a 9f bd
       -0.05255679 0.03300573 -0.03198294 -0.07784075
0001d0 0b 0d 4e bd d9 78 89 3d c4 96 95 bd 77 11 1f 3d
       -0.050305407 0.06712503 -0.07304147 0.038835015
0001e0 10 66 0e bd 6e 4b 01 bd b6 aa d8 bc 31 5d 95 bd
       -0.034765303 -0.031566076 -0.026448589 -0.072931655
0001f0 be 39 43 3d 53 95 79 bd 8d 28 bb 3d 6b 1d 18 3d
       0.04766249 -0.060933422 0.09138594 0.03713743
000200 f6 aa cf bd c4 08 a7 3d 24 54 d4 bb e3 27 ba 3d
       -0.1014003 0.08155969 -0.006479757 0.09089639
000210 b4 26 74 3d fa 56 1b 3d 4d d4 c3 bd 6c 6c b5 bb
       0.059607223 0.037924744 -0.095619775 -0.0055366065
000220 d3 47 9a bd 1c d0 0c 3c cc e2 2c bd 57 0b a7 bd
       -0.07533231 0.008594539 -0.042208478 -0.0815646
000230 fc e4 4b bd 10 d3 13 bd 8f 14 7f 3d 46 69 9d bd
       -0.049778923 -0.036089957 0.062275466 -0.07686095
000240 3a ff 4b bb 2b 1a 76 bd af cf db 3b fc 26 c4 3d
       -0.0031127469 -0.06008355 0.0067081074 0.09577748
000250 79 cf 64 bd b8 b9 79 3d 37 55 4f bd 29 94 86 3b
       -0.055861924 0.06096813 -0.050618377 0.0041070175
000260 13 3b b9 3d 3a cc 8c 3c 60 2b 1e bb 52 c2 82 3d
       0.09044471 0.017187227 -0.002413474 0.0638472
000270 a4 a3 53 bd 08 d3 87 bd 2a a8 b4 bd 78 9f 0d bd
       -0.05166973 -0.06632048 -0.08821137 -0.03457591
000280 41 9a cc 3d 79 b1 5e 3d f0 91 94 3d 1b 65 f8 3b
       0.09990359 0.05436847 0.07254398 0.007580412
000290 45 ae 17 bc 90 d8 eb 3c 56 fe 6d 3d b1 9c 8b bd
       -0.009257858 0.028789788 0.05810388 -0.06816996
0002a0 e3 95 25 bd 85 46 f9 bc 4b 97 2e bc 72 e3 af 3d
       -0.040426146 -0.030429134 -0.010656188 0.085883036
0002b0 5f 38 c4 bd 13 c6 99 3d 09 7b 08 3d 29 b3 80 bd
       -0.095810644 0.07508483 0.03332046 -0.06284172
0002c0 bc d4 c7 3d 96 0c c4 bc 1d ac d0 3c fd b1 95 3d
       0.09757373 -0.023931783 0.025472695 0.07309339
0002d0 b7 49 3d 3c c4 35 97 bd 4f 8a 95 3c 94 be a5 3d
       0.0115532195 -0.07383302 0.018254427 0.080929905
0002e0 6a 6f a9 3c f4 19 20 3c d5 ae de bd 96 d4 27 3d
       0.02068301 0.009771813 -0.1087319 0.040974222
0002f0 ed 34 e8 bc fb 70 a0 3d 8a b9 56 bc 96 0f b1 bd
       -0.02834555 0.07834049 -0.013105759 -0.08645551
000300 75 2d 0c 3c 97 65 57 3c 88 d5 1d 3d bf eb 26 bd
       0.00855576 0.0131467795 0.038533717 -0.04075217
000310 bc 51 91 3d 5d 54 cc 3d 68 bd 61 bd 18 92 8a 3d
       0.07095668 0.099770285 -0.055112273 0.067661464
000320 8e 36 ae 3d e7 46 a5 bd 27 0f e4 bc 22 9f 8d bc
       0.08506499 -0.08070164 -0.027839256 -0.017287795
000330 b8 fb a5 bd e7 0d 8d 3d 9e 29 9f 3d 60 63 e7 3b
       -0.08104652 0.06887417 0.0777161 0.007061407
000340 0a 78 6d bd ca 71 fa 3b 7b 33 12 3d 4b 82 99 3d
       -0.057975806 0.0076429592 0.035693627 0.074955545
000350 6c 55 a6 bc d9 6d 26 bc 18 ab a1 ba 7f 44 35 bc
       -0.020304404 -0.010158026 -0.0012334315 -0.011063694
000360 7e 53 18 bd bb ee 87 bd c8 01 9a 3d 2d 04 9b 3d
       -0.037189 -0.06637331 0.07519871 0.07569156
000370 68 1b 2a 3d 02 43 57 bd 52 86 9c 3d 7b bf b8 3d
       0.041530043 -0.052554138 0.07642807 0.09020897
000380 62 f6 4c bc 59 19 04 bc 74 ea 77 bd f6 a6 cc 3d
       -0.012509914 -0.008062684 -0.060526326 0.09992783
000390 90 c4 54 3c ce fd f4 3c 6e b5 3b bc 50 9b aa 3c
       0.012986317 0.02990618 -0.01145683 0.020826012
0003a0 4d 79 b0 bc 25 84 1c bd 14 7d c8 3d ca e5 63 3d
       -0.021542216 -0.03821196 0.09789482 0.055639066
0003b0 4c 84 42 bd 3a 3f 88 3d 4a 2e 78 3d f7 f2 47 bd
       -0.04748945 0.066526845 0.06059102 -0.048815694
0003c0 18 5d b6 bb 34 a2 ce 3d de 8f e8 3c 98 12 a6 bd
       -0.005565297 0.100895315 0.028388914 -0.08109015
0003d0 7f e2 5d bd 41 22 26 bd 85 31 be bd e4 f7 46 bd
       -0.05417108 -0.04056001 -0.09286789 -0.04857625
0003e0 2b a3 78 bd db 88 b3 bd 17 9e 4f 3d b3 f9 1e bd
       -0.060702484 -0.087663375 0.050687876 -0.03881235
0003f0 c0 93 06 bd 69 b2 8e 3d f7 d2 84 bd 1e e0 08 3d
       -0.03285575 0.06967623 -0.06485551 0.03341686

bias f4 [256]
000000 21 05 a8 bd b3 60 27 bd d5 64 cc bd 85 d4 d0 bd
       -0.08204103 -0.040863704 -0.0998017 -0.10196785
000010 2b 5c d0 bd 93 0a ca bd b6 6f 4f bc 82 9b a8 3d
       -0.1017383 -0.09865298 -0.012660911 0.08232786
000020 8e 1a 8e bd c4 98 cf 3d 07 08 67 bc 7e 84 1d bd
       -0.06938659 0.101365596 -0.014101035 -0.038456433
000030 05 02 bc bd 3a d2 9b bc c8 d3 16 3d 6e 69 01 3d
       -0.09180073 -0.019021142 0.036823064 0.031594686
000040 e1 7d bd 3d 68 ae 80 bb 72 d2 9a bc b5 68 98 3d
       0.09252525 -0.003927041 -0.018899176 0.07441846
000050 eb 6a 2e bd 78 19 2c bd c1 d8 56 bd 26 fa 76 bd
       -0.042582434 -0.042016476 -0.052452806 -0.060297154
000060 9e fe 5d bc 51 03 f0 3b 6a 30 25 bd 7c a5 da 3d
       -0.013549475 0.007324614 -0.040329374 0.10676095
000070 d3 8b 07 3d c0 bd 61 3d 1a c0 b3 bc 18 04 21 3c
       0.03309233 0.0551126 -0.021942187 0.009827636
000080 ee 11 fe bd 46 d3 8d bd 60 01 94 bd c6 85 c8 3d
       -0.124057636 -0.06925063 -0.07226825 0.0979114
000090 0b f2 da 3d 4c 84 0e bd 10 28 78 3c fe d1 b3 3c
       0.10690697 -0.034794137 0.01514627 0.021950718
0000a0 af 6e 7f ba 61 c2 88 bd 65 42 4e 3d 5d b9 be bc
       -0.0009743971 -0.066777 0.050356288 -0.023281747
0000b0 93 e6 cf 3c 4b 2f 44 3d 37 ed 6f bd b1 86 d9 bd
       0.025378501 0.047896665 -0.058575835 -0.106213935
0000c0 44 f2 b2 3d b9 bb 81 3c a1 7a 8c 3d 1c 78 3a 3d
       0.08737615 0.015836583 0.06859327 0.0455247
0000d0 e6 4c 07 bd ca af cc bd 98 80 04 3d 6b 1f a5 3c
       -0.03303232 -0.099944666 0.0323492 0.020156583
0000e0 69 a4 a8 b9 98 d1 be 3d b4 9f 06 3d 07 5a b5 3d
       -0.00032165952 0.093173206 0.03286715 0.08855062
0000f0 f3 08 b4 bd b5 64 1c 3d 9e b9 c4 bd 6f b7 96 bd
       -0.087907694 0.03818198 -0.09605716 -0.07359206
000100 74 6c af 3d e9 2e ba bd 24 89 c9 bd 6b 3b 7a bd
       0.08565608 -0.09090979 -0.098406106 -0.06109182
000110 f5 61 c0 bd ab d9 94 3d 57 9e 13 bd 8c 29 90 3d
       -0.09393684 0.07268079 -0.036039677 0.070391744
000120 b1 0a a0 bd 74 2a e9 3c a0 0c 71 3c 20 92 18 bd
       -0.07814539 0.028462626 0.014712483 -0.03724873
000130 06 18 bb 3d ac 08 ae 3d e9 3f a7 bd e1 b0 5f bd
       0.091354415 0.08497748 -0.08166487 -0.054612044
000140 58 8e 83 3c f1 e1 94 bd 88 de 94 bd 37 85 a9 bb
       0.016059086 -0.072696574 -0.07269007 -0.005173351
000150 87 26 af 3c 61 a6 a3 3d dd 48 b3 bd 19 a9 02 bd
       0.021380676 0.07990719 -0.08754132 -0.031899545
000160 93 14 4a 3b 58 cb 37 bb d7 57 57 bd 37 36 79 3c
       0.0030835017 -0.0028044786 -0.052574005 0.01521068
000170 20 e1 8d bd 25 af dc 3d a6 5f 8f 3d 51 b3 6e bd
       -0.06927705 0.10775594 0.07000665 -0.05827648
000180 0e 95 5c bc 6e da ab 3d 8e 04 87 3d 59 26 5f 3d
       -0.013463272 0.083912715 0.065926656 0.05447993
000190 77 27 a3 bd 9d 86 ab 3d e8 db b4 bd 0f dd 76 bd
       -0.07966512 0.08375285 -0.08831006 -0.06026941
0001a0 e3 39 06 3c 5e 88 95 bd bd ad c5 3d 95 93 91 3d
       0.008192512 -0.073014006 0.096522786 0.07108227
0001b0 0b 26 e1 3c ca cf 95 bb 14 23 f2 bc 75 6c 90 bd
       0.02748396 -0.0045718895 -0.029557742 -0.070519365
0001c0 6c 6b 20 3c b3 6b a3 3d 11 7b cf bd 62 18 c0 bd
       0.009791236 0.07979526 -0.10130895 -0.09379651
0001d0 dc d5 08 3d cf 6b 96 3d 76 38 ec 3d 1d e0 78 bc
       0.033407077 0.073447816 0.115342066 -0.0151901515
0001e0 b7 f2 a2 bc 86 f0 4e 3b 10 9a e0 3c 48 bb 34 bc
       -0.019891126 0.0031576469 0.027417213 -0.011030979
0001f0 65 b2 49 3d 4b d3 d6 3d c4 31 64 bd 19 28 8e 3d
       0.049242396 0.1048952 -0.055711523 0.06941242
000200 5a e0 59 3a e7 c9 07 bd 37 94 6e bb 8b 1f 03 3d
       0.0008311324 -0.033151533 -0.003640426 0.032012504
000210 de c8 9c bd 73 a9 89 bd cc 04 d6 bc 58 2e 9b bd
       -0.076555 -0.06721773 -0.026125334 -0.07577199
000220 c7 51 a0 bc 4f 86 97 bd d0 0b 88 bd c3 1e 1a bd
       -0.019570244 -0.07398664 -0.06642878 -0.037626993
000230 23 31 2a bd 1b 90 94 bd b9 82 c0 3d 4f d6 87 bd
       -0.041550767 -0.072540484 0.09399933 -0.06632673
000240 1a fd a4 39 89 63 82 bd ed 56 10 3c 69 37 22 bd
       0.00031469093 -0.06366641 0.008809787 -0.039603624
000250 3e 2f c2 3d 36 4f ea 3c 67 74 b2 3d 7f 7f bf bd
       0.09481667 0.028602224 0.08713608 -0.0935049
000260 a9 9b b7 bd 99 a7 54 3d eb 5b 6f 3d 9a 7e 78 bd
       -0.08965237 0.051917646 0.05843727 -0.06066761
000270 47 e1 36 bd 42 3d 90 3b f0 d1 b7 bd 87 8b 03 bd
       -0.044648435 0.0044018338 -0.08975589 -0.032115486
000280 99 6d e7 bd 12 b8 f8 bc 1f 86 80 3d ea 2a 21 3d
       -0.11300201 -0.030361209 0.062755816 0.039347567
000290 1c 69 2b bd 00 1c a7 bb a9 3d 4e 3d 60 b0 08 3d
       -0.041848287 -0.0050997734 0.050351772 0.03337133
0002a0 ba 4f 62 bb 5d 52 82 3d 44 d6 ae 3d bc ea 30 bd
       -0.0034532384 0.06363366 0.08536962 -0.04319261
0002b0 82 99 51 bc 70 d4 58 3d c6 82 ae bd 21 15 a6 3d
       -0.012792947 0.05293697 -0.08521037 0.08109499
0002c0 ea 98 7d bd 95 68 86 3d b6 ce 03 3a 89 7f 21 3d
       -0.06191341 0.06562916 0.0005028056 0.039428268
0002d0 de 20 ee 3c 79 f1 02 bd eb 30 a0 bc 1e f8 8c bd
       0.029068407 -0.031968568 -0.019554576 -0.06883262
0002e0 fc bc e0 bd c8 5d 89 bc 29 e6 97 bb da c7 8e bd
       -0.10973546 -0.016768351 -0.0046355915 -0.069717124
0002f0 e7 37 b1 3d 76 24 83 bd e1 bd a3 3c c3 8c f9 3c
       0.08653241 -0.06403439 0.019988002 0.030462628
000300 fd be 84 3d ac a3 ac 3d f4 6b 15 bd 2a 86 3e 3d
       0.064817406 0.084296554 -0.036479905 0.046514668
000310 4c a4 a7 bd 2e 19 e3 bc 78 a0 56 3c 06 4e 39 3c
       -0.08185634 -0.027721968 0.013099782 0.011310106
000320 1a 68 63 3d de 70 05 bc 1f 78 18 3d 4b ff ca bd
       0.0555192 -0.008144585 0.03722393 -0.099119745
000330 bc 42 89 bc 52 a2 74 3d 5f 02 8a 3d b6 21 f6 bc
       -0.016755454 0.059725113 0.067387335 -0.030045372
000340 3e 5f cf bc ce 5f b3 bd 95 c2 6f 3d d9 bb 9f bb
       -0.02531397 -0.08758508 0.058535177 -0.004874688
000350 3c f8 75 bd 00 e8 21 3c 7c 1e b9 3d aa ff f5 bd
       -0.060051188 0.009881973 0.090390176 -0.12011655
000360 5b 06 2e 3c 5f fd aa 3d c6 11 bc 3d 09 b2 45 3d
       0.010621632 0.08349108 0.091830775 0.04826549
000370 7c 48 bc bd e0 1d 8c 3d 22 1a a1 bd 6d ab 64 3d
       -0.09193513 0.06841636 -0.078663126 0.055827547
000380 64 c6 6b bc 19 95 8d 3d 99 31 4a 3d 70 11 a3 bd
       -0.014390562 0.06913204 0.049363706 -0.0796231
000390 3d d0 a6 3d 84 1e fa bb 0b db 34 bd ec 8a c6 3c
       0.08145187 -0.0076330323 -0.04415421 0.024236165
0003a0 21 de 1c 3d 73 03 b0 3d fd dc 71 bd 23 47 48 3d
       0.038297776 0.08594408 -0.05904864 0.048895966
0003b0 5f de 8f 3d 6e 00 82 3d 04 59 ee 3d 43 92 35 3c
       0.07024836 0.06347738 0.11638072 0.011082235
0003c0 70 cc 1c 3d bd e5 ac 3c aa 52 75 bd 50 8b e7 3d
       0.038280904 0.021105641 -0.059893288 0.113058686
0003d0 58 d7 9d bd 3c 66 9c 3d fe c2 b1 bd cf de 6d 3d
       -0.07707089 0.07636687 -0.0867977 0.058073815
0003e0 4b 0d c4 3c 29 bb ac 3d 1f cc a4 3d 89 17 70 bc
       0.02393212 0.084341355 0.080467455 -0.014654049
0003f0 43 a3 e4 3d 8a e8 09 3d c9 bc 65 3d 9e 52 8f 3d
       0.11163952 0.033669032 0.056088243 0.0699818

weight f4 [512, 256]
000000 40 b6 32 bd a0 88 1e 3b ca 76 1d bd dc 87 ef 3c
       -0.04363084 0.0024190322 -0.038443364 0.029239587
000010 df 20 69 bc 03 34 b9 3c d5 b3 c2 3c 61 94 8e 3c
       -0.0142290285 0.022607809 0.023767391 0.017404737
000020 b7 1a b0 bc 89 c8 be bc c6 d5 0f bd f1 93 b5 bc
       -0.021497114 -0.023288982 -0.03511598 -0.02216527
000030 11 79 2a 3d 5f 9a 08 3d df 64 65 bd 51 fc 13 3d
       0.041619364 0.033350345 -0.0560044 0.0361293
000040 7e 2c 5c 3d 75 c5 ce 3c d7 da 1f 3d 3a e5 ca bb
       0.05375337 0.02524064 0.03902706 -0.0061918767
000050 c1 c9 fc bc 07 a2 9e 3c 98 04 1e bd 7e 47 5d bd
       -0.030857923 0.01936437 -0.0385786 -0.05402326
000060 bc 70 76 bd dc 1a 00 3d 9a f5 0e 3c d2 87 af bb
       -0.060166106 0.031275615 0.008725548 -0.005356767
000070 eb e9 09 3b 83 f1 4f bc 4f 74 19 bd 40 d9 e4 3a
       0.0021043967 -0.012691858 -0.037464436 0.0017459765
000080 09 94 13 bd 0c 2e 73 3c cd fa cc 3c 7a 09 ee bc
       -0.03602985 0.014842521 0.025021935 -0.029057253
000090 9d 89 4d bd 7e e8 b6 bc 91 07 81 bd cc 07 31 3d
       -0.050180066 -0.022327658 -0.06300271 0.043220326
0000a0 4d 7b 40 bd fc 48 4b 3d 8c 51 1f 3b a5 48 de 3c
       -0.04699259 0.04963015 0.002431008 0.027134249
0000b0 08 77 fd 3c 44 bb 09 bd 2e d9 86 bd a0 5d 2c bd
       0.030940548 -0.033625856 -0.065843925 -0.042081475
0000c0 a0 15 cb bc 8a 1f 4b 3d d0 64 ea ba b4 80 20 3d
       -0.024790585 0.049590625 -0.0017882828 0.03918524
0000d0 20 80 6c bc fc b5 01 3d 50 29 82 bd 17 df 8e 3c
       -0.014434844 0.031667694 -0.06355536 0.017440362
0000e0 d0 01 d4 3b 2d bb c5 bc 29 79 24 bc 45 d7 2a bc
       0.0064699426 -0.024137104 -0.010038652 -0.010427301
0000f0 5f 13 32 3c dc 11 1b bd 82 11 14 bd a8 be ff bb
       0.010868876 -0.03785883 -0.03614951 -0.0078047104
000100 89 09 d5 bc 58 5c 71 bd a5 72 4b 3d 75 dc 15 bd
       -0.026005523 -0.058925956 0.04966988 -0.036587197
000110 3e b7 96 3c 56 d1 71 bd dc 44 cc 3c 80 f9 30 3d
       0.018397924 -0.05903753 0.024935178 0.04320669
000120 7e 93 b1 bb 18 56 77 bd 2e 87 d2 3c 3a 9b 5f 3d
       -0.0054191938 -0.06038484 0.025699224 0.054591395
000130 a9 2b 37 3d 2a 13 d3 3c ee 4b c5 bc 28 0e 60 3c
       0.044719372 0.025765974 -0.024084058 0.01367525
000140 67 f1 a6 bd 51 e3 5b bd 33 1c 3e bb d4 63 dd bc
       -0.081515126 -0.053683583 -0.0029008507 -0.02702514
000150 0c ed 79 b9 44 35 e9 3c d9 56 39 3d d2 c9 8e 3d
       -0.00023834797 0.028467782 0.04524884 0.06972088
000160 71 a1 2c 3d 3f 12 59 bc c2 c9 52 bd 24 e3 14 bc
       0.04214615 -0.013248979 -0.051461942 -0.009087358
000170 f4 c2 1c 3d dd 88 09 bc 77 80 5c 3d 07 d6 aa 3b
       0.03827186 -0.008394447 0.05383345 0.0052135023
000180 d3 e9 4f bc 79 ba 85 bd 8d 09 af bc bf c5 5b 3d
       -0.012690025 -0.065297075 -0.021366859 0.053655382
000190 8b b0 45 bd 65 b5 6e bd 82 1f a2 3c f5 2d 37 bd
       -0.048264068 -0.05827846 0.019790415 -0.044721562
0001a0 27 39 12 bd b3 9f 06 bd a8 23 48 bd c4 f0 3c 3c
       -0.035699036 -0.032867145 -0.04886213 0.011532012
0001b0 19 f5 3c bd 04 33 5b 3b 73 72 21 bd 29 b3 bf bc
       -0.04613218 0.0033447156 -0.039415788 -0.02340086
0001c0 e8 ba a4 3a e9 5b 1c bd d6 e9 ca 3b 70 87 82 3d
       0.001256791 -0.03817359 0.006192426 0.06373489
0001d0 3b b3 78 bd ac 49 22 bd 33 99 3f 3b 2a 26 f2 3c
       -0.060717802 -0.03962104 0.00292356 0.029559214
0001e0 d1 23 32 bd 6b 45 5d 3d 4a 69 0b bd 33 cd 71 bd
       -0.04349119 0.05402128 -0.03403596 -0.059033584
0001f0 04 d8 a3 bc 18 10 2b 3d a6 94 d7 3b b5 0c 19 3a
       -0.020000465 0.041763395 0.0065789996 0.00058383803
000200 79 1d 6a bd 7d 2e b3 3c 00 56 81 3c cc ea 50 bd
       -0.057157014 0.021872753 0.015788078 -0.05100517
000210 d2 3a 5d 3c 16 c6 18 3d 95 9a fd 3c ed 19 3c 3d
       0.013502793 0.037298284 0.0309575 0.045923162
000220 64 f5 d2 bb 54 54 f1 3c 3e 6f be 3c 68 dd cb 3b
       -0.0064379442 0.029459156 0.023246404 0.006221462
000230 89 5d 87 3c 63 95 fb bc 2c d0 7f 3c 80 15 c9 3c
       0.016524093 -0.030710882 0.015613597 0.024546385
000240 a1 d1 b5 3c 29 88 64 38 24 9c 5d 3d 37 3d 46 3c
       0.022194685 5.4486245e-05 0.054103985 0.012099556
000250 8b d4 88 3c cc 60 0c bb 26 77 31 bd 37 94 4c 3d
       0.01670291 -0.002142 -0.04332652 0.049946036
000260 c5 18 45 bd 70 96 77 3c 42 0f f2 bc ab fa 09 bb
       -0.048119325 0.015111551 -0.029548291 -0.002105395
000270 55 46 ee bc 94 bd f3 bc 5c 44 45 bd 3f 8c 4c bc
       -0.029086271 -0.029753484 -0.048160896 -0.012484609
000280 a2 50 8d bb b6 7b c3 bc ad 7b 02 3d b3 85 63 bd
       -0.0043125907 -0.0238627 0.031856228 -0.055547427
000290 51 b1 a3 3c 69 d8 a9 bc 68 e5 63 3c d1 29 9a 3c
       0.019982012 -0.020733075 0.013909675 0.018818768
0002a0 5a ca ad 3c 41 a9 43 bd 8c db df bc b3 05 3d bd
       0.021214653 -0.047768835 -0.027326368 -0.046148013
0002b0 02 c4 6a bd 55 3b 55 bd 79 e0 c2 bc 79 ea 24 3d
       -0.057315834 -0.052058537 -0.023788678 0.040262673
0002c0 31 18 a4 3c cd ca 8f bd 29 04 2b bc 92 0f 30 3d
       0.020031067 -0.07021103 -0.010438004 0.0429836
0002d0 ee 2f 08 3d 35 81 6a bd de 27 5e 3c 5a 28 b0 bc
       0.033248834 -0.057252128 0.01355931 -0.021503616
0002e0 f3 52 7a bd 7e b0 0c bd 74 14 1e bd 45 ea 3a bc
       -0.061114263 -0.034348004 -0.038593724 -0.011408393
0002f0 49 9f 22 bd 02 9e ef bc 00 5d 6e 3c 0e 4a 34 3d
       -0.039702687 -0.029250149 0.01454854 0.044015937
000300 9c a2 f5 bc 52 8e db bc 0f 28 7c bd f9 36 83 bc
       -0.029984765 -0.026801262 -0.06156164 -0.016017424
000310 5a 74 1d bd bc 93 23 bd eb e2 3b bd 45 31 43 3c
       -0.03844104 -0.039935812 -0.045870703 0.011913602
000320 e1 9c 77 bc 75 13 28 3c f0 82 e3 3b 90 0d 23 bd
       -0.015113086 0.010258545 0.006943099 -0.039807856
000330 1a 44 4f 3d 61 e0 90 bc 66 9c 24 bd 1e 40 08 bd
       0.050602056 -0.017685117 -0.040188216 -0.033264272
000340 75 41 c8 3c e2 9b 70 bd 05 b1 1a 3d dc e0 1e bd
       0.024445275 -0.05874241 0.037766475 -0.03878866
000350 f9 be b7 bb 04 d7 03 bd 45 59 97 bc 88 eb 35 bd
       -0.0056074825 -0.032187477 -0.018475184 -0.044414073
000360 2e 2c 8e bd 89 3b 2b bc 87 dc 85 bd 82 74 25 bd
       -0.0694202 -0.010451206 -0.06536203 -0.040394314
000370 de e3 3f bd 33 b9 6a ba b4 04 6e bd b0 58 59 3c
       -0.04684817 -0.00089539884 -0.058109954 0.013265774
000380 e8 72 e1 bc ec 8a de bc 4c ab 05 bd da 22 fe 3a
       -0.027520612 -0.027165852 -0.032634065 0.0019389049
000390 2d 11 c6 3c 96 28 04 3d f3 7d 1b 3d a3 79 8a 3c
       0.024178112 0.03226527 0.03796191 0.016903704
0003a0 65 84 70 bd b9 69 47 bb 96 9b 0c bd c3 b2 3f 3c
       -0.05872001 -0.0030428006 -0.034328066 0.011700335
0003b0 a1 72 6b 3d 0b fe 90 3c 05 e6 14 bc 20 70 3d 3d
       0.057482366 0.017699262 -0.009088044 0.04624951
0003c0 49 a0 93 3c b1 ef dd 3b 1a 8f 17 3d 59 7d 31 bc
       0.018020766 0.006772958 0.037001707 -0.010833108
0003d0 06 3e 23 bd 3c ad c1 bc 75 6c ce 3c f0 81 fc 3c
       -0.039854072 -0.023642175 0.0251982 0.030823678
0003e0 01 91 26 3d 1a 69 5c bd 96 0d 8b bd 57 0e aa 3c
       0.04066563 -0.05381117 -0.06789701 0.02075879
0003f0 d6 c7 5c bd 7f ef 11 3d 22 f9 7c bd cf b7 3f 3d
       -0.053901516 0.035628792 -0.06176103 0.046806153

bias f4 [512]
000000 f0 51 10 3d b3 97 fb bc ad bf e1 bc ce 15 b9 3c
       0.03523439 -0.030711984 -0.027557218 0.022593405
000010 79 cf 59 3d b3 a6 47 3b 1d 7f 9c 3c c9 9e a4 3b
       0.053176377 0.003046435 0.019103581 0.0050238115
000020 27 1c 42 bd cd a3 8a 3d 0d 9b 70 bd 5b 9e 46 bd
       -0.04739013 0.06769524 -0.058741618 -0.048490863
000030 05 f4 1c bd b2 88 d6 bb 45 0a 74 3d 42 1d 5b 3d
       -0.038318653 -0.006547057 0.059580106 0.0534947
000040 2e 29 6c bd 8f 35 1a bd 9f 71 30 3d 63 8a 4a bd
       -0.05765646 -0.037648734 0.043077108 -0.049448382
000050 96 19 46 3d 0c fb 7a 3a 67 25 a1 3c 37 07 18 3d
       0.048364244 0.0009574152 0.019671155 0.037116256
000060 9a ff ec 3b e2 33 4b bc df 60 c2 3c e1 91 74 3d
       0.0072326185 -0.012402507 0.023727832 0.059709433
000070 86 64 7b 3d c1 19 4e bc c9 96 03 bc 4e 32 e2 3c
       0.061375163 -0.012579382 -0.008031555 0.027611878
000080 03 22 ee bb 7f d5 0b 3d 6d 2d 24 bd b7 c8 c4 bc
       -0.007267238 0.034139153 -0.040082384 -0.02402149
000090 67 23 3c 3c cc ad b6 39 35 84 db 3c 7f b1 b2 bc
       0.01148305 0.00034843234 0.02679644 -0.021813152
0000a0 32 ac d6 bc 7b b0 58 bd 26 fd f6 3c 6a d9 ae 3c
       -0.026205156 -0.05290268 0.030150007 0.021343905
0000b0 87 b3 fb bc 75 6e 72 bc 38 7a 35 3d 73 6f 3c 3d
       -0.030725254 -0.014796843 0.04430601 0.046004724
0000c0 9d 6c 54 bd 14 17 46 3b 1f 43 be 3c 74 6b 12 3b
       -0.051861394 0.0030226158 0.023225365 0.002234188
0000d0 f4 aa 19 bd 14 8d 70 3d 15 a1 31 3d e4 b1 58 bd
       -0.03751655 0.058728293 0.04336651 -0.052904025
0000e0 c8 96 97 3d 7d a7 7d bd 50 33 53 bd 00 9e 84 bd
       0.07401806 -0.061927307 -0.051562607 -0.064754486
0000f0 21 e6 30 3d 79 e0 30 3d 2d c3 57 3d 49 f1 65 bd
       0.043188218 0.043182824 0.05267637 -0.05613831
000100 36 b4 c5 bb f4 b7 fb bc 89 19 2c 3d 40 7f ed 3b
       -0.0060334457 -0.030727364 0.04201654 0.0072478354
000110 fc bf 60 bd 47 ad 45 bd 02 ff 8b bd 4e 70 8c 3c
       -0.05487059 -0.048260953 -0.06835748 0.017143395
000120 e6 0b 45 bc cb 35 e9 bc 62 94 da bc 9a 6c 5b bd
       -0.012026763 -0.028468033 -0.026682083 -0.053570367
000130 e8 ca 19 bd 16 8c 02 bd 93 3a fe bc fc be b9 3c
       -0.037547022 -0.031871878 -0.03103379 0.022674076
000140 83 af 17 bc 85 f1 6a bb 37 a4 21 3d 6a f4 24 bd
       -0.009258154 -0.0035849523 0.039463248 -0.040272154
000150 55 b1 81 bc c5 2f 7e 3a 3b 04 79 3c 8e ad 41 3d
       -0.015831629 0.0009696449 0.0151987625 0.047284655
000160 bd 81 44 bc 5d 80 56 3d 26 cc 5d 3d 23 3d bf bc
       -0.011993823 0.05236851 0.05414977 -0.023344582
000170 8a 0d cd 3d 45 47 01 bd 29 18 50 3d 6a 08 13 3d
       0.10012348 -0.03156211 0.05080429 0.035896696
000180 cb b4 f8 3c 8c 37 06 bd 64 98 11 bd 8a c2 88 bd
       0.030359646 -0.032767817 -0.03554572 -0.066777304
000190 53 21 60 3d f7 99 0a 3c 39 00 92 bd 95 b1 18 3d
       0.05471928 0.00845956 -0.07128949 0.03727873
0001a0 94 e8 53 bb c4 8b 68 3d 43 33 f5 bc 08 fa 96 bc
       -0.0032334672 0.056773916 -0.02993167 -0.018429771
0001b0 8f 56 86 3d b4 85 e8 3c 7e 52 c8 3c 08 07 b2 3c
       0.065594785 0.028384067 0.024453398 0.021731868
0001c0 9c a3 8a bc 14 11 39 3d 67 c7 4e bd 33 54 30 3b
       -0.016923718 0.045182303 -0.050483134 0.0026905655
0001d0 27 dd 19 3d 29 77 1c bd 07 03 71 3c 73 e2 80 3a
       0.037564423 -0.038199577 0.014710194 0.0009833112
0001e0 78 d6 7a bd 31 d4 1d bb 4c 23 25 3c d8 a1 75 3a
       -0.06123969 -0.0024082775 0.010079216 0.0009370125
0001f0 ac e3 07 3d 08 f7 83 3c b3 8e b1 bc b5 07 f7 3b
       0.03317611 0.016109005 -0.02167449 0.0075387605
000200 e8 cb 95 bd 84 4f 84 bd c6 48 8b 3c 12 a0 6f bb
       -0.07314283 -0.06460479 0.017002475 -0.0036563915
000210 83 e5 bc bc db 90 88 bd 6b 43 79 3d 18 22 ed 3c
       -0.023058658 -0.06668254 0.06085531 0.028946921
000220 53 76 3e 3d bb 52 5b bd fa a4 84 3c ff a2 a6 bb
       0.04649956 -0.053545695 0.016191948 -0.0050853486
000230 6f 84 82 3d 22 2e 48 3b fb 92 b8 bc 8b 91 0b bd
       0.06372916 0.0030545075 -0.022531023 -0.034074347
000240 f8 9a 8a 3d 49 cb 2e bd 1d fd 21 bd 3a 23 5f bd
       0.06767839 -0.042674337 -0.03954803 -0.054476954
000250 7b ec 20 bd a1 55 5c 3c 8c af 78 3c b8 5c d9 bb
       -0.039288025 0.01344815 0.015178572 -0.0066333674
000260 57 eb 5b 3d ce 7d 99 3c da 71 15 bc b2 9a 0b 3d
       0.053691234 0.018736746 -0.009121383 0.034083076
000270 45 48 40 3d 24 34 5a bb 6f 96 a4 3c f6 37 52 bd
       0.04694392 -0.0033295238 0.020091264 -0.0513229
000280 19 02 2a 3d 0a 08 9b 3c 1e 23 39 bb 91 35 4f 3d
       0.041505907 0.018924732 -0.0028249691 0.050588194
000290 8a 32 dd 3c 53 56 2c bd f1 ef d2 bc 7c 36 b8 3c
       0.027001638 -0.042074513 -0.025749179 0.022486918
0002a0 22 3a 52 bc 6d d5 b1 3c 0b 23 12 bd c0 c7 9a 3c
       -0.012831243 0.021708215 -0.03567795 0.018894076
0002b0 4f 8b af 3c 8f 8a 0a 3c f1 1b 14 3d b4 2f 01 bb
       0.021428732 0.0084558865 0.03615946 -0.0019712271
0002c0 b8 62 2d bc b9 18 56 bb 9f e8 6d bd 5d 19 ca bc
       -0.010582618 -0.0032668544 -0.058083173 -0.024670297
0002d0 47 47 86 3d 77 0c 12 bd c4 af 51 bd 30 d6 23 bc
       0.06556564 -0.03565642 -0.051193014 -0.009999797
0002e0 5b ae df bc b1 f8 48 bc bf 40 4e bc 63 6e 8f 3d
       -0.027304819 -0.012266324 -0.012588679 0.070034765
0002f0 52 c8 4e ba 53 64 d2 bc 36 2a ce 3c 49 73 35 3d
       -0.00078881264 -0.025682604 0.025166612 0.044299398
000300 4f 54 83 3d 7c 07 a3 3d dd 8c 69 3d de 9a 82 bd
       0.06412565 0.07960412 0.057019103 -0.06377195
000310 1f 5d 41 bd 3c 1d b7 3c da 3b 28 bc 4a 18 4a bd
       -0.047207948 0.022352807 -0.010268176 -0.04933957
000320 1b 8b 75 3c 79 60 86 bd fb 48 8b bd 33 b6 88 3c
       0.014986779 -0.065613694 -0.06801029 0.016688442
000330 1f 9f 6e 3d 02 a5 38 bd c9 72 f6 bc 70 52 1d bc
       0.05825722 -0.04507924 -0.03008403 -0.009602174
000340 56 89 21 3d 72 9f 59 bd 63 f9 76 3d 37 5f 6f 3d
       0.039437614 -0.053130575 0.060296427 0.058440413
000350 b0 a3 9c 3d 67 2f 76 bd aa e6 31 bd 65 53 7c 3d
       0.076484084 -0.0601038 -0.04343287 0.06160297
000360 89 53 ed 3b 10 02 14 bd b4 92 7f bc 47 e1 4f 3d
       0.007242624 -0.03613478 -0.015598942 0.05075195
000370 4f a2 06 bd 11 52 70 bd 95 39 01 3d 3c 5d 62 bd
       -0.032869633 -0.058672015 0.031549055 -0.055264696
000380 ea e6 04 bb 18 0f 6a 3d d5 9a 5f 39 2d 9a 83 3c
       -0.0020279237 0.0571433 0.00021324617 0.016064728
000390 d7 88 6a bd 39 80 5d bc 24 ad 67 3c ae 73 79 3c
       -0.057259407 -0.01351934 0.014140401 0.015225334
0003a0 0c 94 8f bd 7c 3e 64 bd 3b 96 8f bc db f6 5e 3d
       -0.070106596 -0.055723652 -0.01752769 0.05443464
0003b0 e4 04 50 bd 90 3e 07 bb 97 2e 62 bd 36 37 f4 3c
       -0.050785914 -0.0020636655 -0.055220213 0.029811483
0003c0 c9 2f 23 bd 62 c0 82 3c d7 e6 9f bc 81 f5 9a 3c
       -0.039840493 0.015960876 -0.019519253 0.018915894
0003d0 f7 a1 e4 bc 0c b3 7a bd b8 bf 65 3d b4 3f 0d bc
       -0.027909262 -0.06120591 0.05609104 -0.008621145
0003e0 24 6b 10 bd ac d4 e6 bb 52 2f a5 bc 2b 56 fe 3c
       -0.035258427 -0.0070443954 -0.020164166 0.031046947
0003f0 90 25 7e bb ac 58 47 ba c5 9c 17 3d a7 23 ee 3c
       -0.0038779713 -0.00076044607 0.03701474 0.029069735

weight f4 [21, 512]
000000 65 e6 02 3d 7c c2 d4 3c 3a a9 38 3d ad 6b 0f 3d
       0.031958003 0.025971644 0.045083262 0.035014797
000010 cf ac 8e bb 93 6d 14 bd 99 73 08 bd 28 1a cd 3c
       -0.0043540965 -0.03623731 -0.033313368 0.025036886
000020 5d 8d 4d bc 53 25 4e 3c ba 3e 8e bc b0 42 2e 3d
       -0.012545911 0.012582141 -0.017363895 0.042544067
000030 65 f8 23 3d 30 00 a7 bc 66 2d 40 3d c4 da 05 bd
       0.04003181 -0.020385832 0.046918295 -0.032679334
000040 ca fd 07 bd f1 85 64 3b 27 b9 3a 3c 0e 56 c5 3c
       -0.033201016 0.0034869874 0.011396683 0.024088886
000050 b3 14 89 bc bf 5b da bc bd 07 a4 3c 4e ea d6 bb
       -0.016733503 -0.026655076 0.020023221 -0.006558693
000060 03 c5 ef bc 5b 36 f8 bc 8d b9 09 bd 2d 01 79 bc
       -0.029268747 -0.030299356 -0.03362422 -0.015198034
000070 98 e4 0f 3d bc 2d 9c 3b 9a bc 0e bc 63 b4 75 3c
       0.035130113 0.004766194 -0.008711958 0.014996621
000080 82 85 0d 3d ba 3a 4f bc 9a 0d 08 3c 57 36 fd bc
       0.03455115 -0.012648279 0.008304024 -0.0309097
000090 a4 5b 15 bd 84 47 65 bb 91 70 28 3d 0f 69 9c 3c
       -0.03646435 -0.0034985254 0.041122977 0.019093065
0000a0 2b d0 5b bb 51 cf 3b ba da 30 eb 3c 03 fa 34 bd
       -0.0033540826 -0.00071643764 0.028709818 -0.044183742
0000b0 0e 2d ab 3b cc b0 ab 3c ac 96 e2 bc cc 8e 90 bc
       0.005223877 0.020958327 -0.027659737 -0.017646216
0000c0 75 07 08 bb 70 82 5d 3c 71 60 00 bd d7 c5 ab bc
       -0.0020756398 0.013519868 -0.031341974 -0.02096836
0000d0 95 ea bd 3c 6f 76 f2 3b 20 7a 11 3d 64 8c 41 3c
       0.023183146 0.0073993723 0.035516858 0.011813257
0000e0 68 55 93 bc 52 a6 1c bc 01 7b b2 3c c5 23 e4 3c
       -0.01798506 -0.009561138 0.021787168 0.027849087
0000f0 59 67 db ba 7b 2c db 3c 7f b6 17 bd 85 68 db bb
       -0.0016739174 0.026754608 -0.037039276 -0.0066958093
000100 fd f5 ad bc dd fb f4 bb fc bd f0 bc dc dc 31 bd
       -0.02123546 -0.0074763135 -0.029387467 -0.04342352
000110 99 96 2d 3d 94 99 d2 3c b2 b3 bc 3c b6 50 c8 bc
       0.04237995 0.025707997 0.023034904 -0.024452548
000120 95 ea 7a bc b7 fa 8b 39 3a 01 e4 bb 0c 70 2e bc
       -0.015314718 0.00026698943 -0.006958154 -0.010646831
000130 20 2f 21 ba 69 1e c8 3c ba cd a1 bc 0c 1d 0e 3c
       -0.0006148685 0.024428563 -0.019751418 0.0086739175
000140 a5 42 2f bc 35 8b c4 bc 97 47 26 bc 0d bb 38 bd
       -0.010697042 -0.02399216 -0.010148904 -0.04510026
000150 db f7 1d bd 18 cc 22 3c a0 66 9d bb 66 ed 1e bc
       -0.03856645 0.009936355 -0.0048034936 -0.009700155
000160 9e 3a a7 bc f7 ed 16 bc 34 3b 4a 3d 5c 5f c9 3c
       -0.020413693 -0.009212009 0.049372867 0.024581604
000170 60 3d 06 bc a2 0c 19 3d 42 dc 43 3c 8c 5d b0 3c
       -0.008193344 0.037365563 0.011954369 0.021528982
000180 aa 1b 2b 3d 4e 23 0c 3d 1c 4d 1a 3b c9 15 b8 3c
       0.04177443 0.034213357 0.0023544496 0.022471325
000190 8b af b8 3c 77 2c f2 bb af 1d d8 bc 3d e1 75 bb
       0.022544643 -0.0073905545 -0.026381342 -0.0037518286
0001a0 cb 19 47 bd 89 9c 57 ba 8b e7 31 bd 94 fd fd 3c
       -0.048608582 -0.00082249247 -0.043433707 0.031004705
0001b0 34 41 52 3c 65 7c f6 3b 21 fe d3 bc 32 b5 ca 3c
       0.012832928 0.007522153 -0.025878014 0.024744604
0001c0 28 d7 f1 bc 50 1e cd bc 09 8b 92 3c e6 80 fe bb
       -0.02952154 -0.025038868 0.017888563 -0.0077668307
0001d0 d8 85 ca 3c 6c 6a 7a 3c ff 3e 85 bc f3 3e d9 3c
       0.024722025 0.015284162 -0.01626539 0.026519274
0001e0 2f 10 a9 ba 73 e0 87 bc 96 db 3b 3d 4e 22 1c 3d
       -0.00128985 -0.016586518 0.04586371 0.038118653
0001f0 fc e4 14 bd 68 86 b0 bc 3b 65 83 bc 32 e1 57 bc
       -0.03635119 -0.021548465 -0.016039481 -0.013176249
000200 b1 05 58 3c 0e 8b ee bc e0 5a 08 bd bb 92 5b bc
       0.013184951 -0.02911904 -0.03328979 -0.0134016825
000210 d9 78 c3 b9 23 c1 f9 bc cb ac 83 bc bd c6 3f bb
       -0.00037283337 -0.030487603 -0.016073605 -0.0029262744
000220 e4 dc 6a 3c cb a8 0c bd 42 90 21 3d 00 e2 cf bc
       0.014334891 -0.03434066 0.039444216 -0.02537632
000230 d3 06 b4 bc a8 a7 6d bc 60 65 9f bc 24 66 3b bd
       -0.02197591 -0.014505304 -0.019457519 -0.045751706
000240 b1 26 8a bc b4 42 24 bc 09 5e 17 3c 99 70 2a 3c
       -0.016864153 -0.010025669 0.009238728 0.010402822
000250 c0 b0 11 3d 14 28 99 3c 7a 61 d8 3b e0 25 16 3c
       0.035568953 0.018695869 0.006603417 0.009164304
000260 bf 6a 04 bd e5 8f 5a 3c 5c ee 6c 3c b6 a9 b6 3c
       -0.032328364 0.013339971 0.014461126 0.022297721
000270 7a 52 e1 bc 60 49 50 3c ec e8 a7 3b 15 61 96 3b
       -0.027505148 0.012712806 0.005124202 0.00458921
000280 6f 6f 6d bb b4 47 ca 3c 1d 68 2c 3d c5 6b b1 bc
       -0.003622975 0.024692394 0.042091478 -0.021657834
000290 c8 94 bb 3c 97 a8 e6 38 f1 a4 92 3c ce 60 9d 3c
       0.022898093 0.00010998657 0.017900916 0.0192112
0002a0 8c 90 0a bd 9c 24 c4 3c 33 ea 4c bd 79 07 04 bc
       -0.033829257 0.023943238 -0.050028037 -0.008058422
0002b0 1a 29 35 bc 7a f7 a4 bc 37 aa 0d 3d 39 64 24 bd
       -0.011057163 -0.020137537 0.034586158 -0.040134642
0002c0 bf 73 05 bd be 47 b4 3c 8c cf b0 3c d3 9b 0d 3c
       -0.032581087 0.022006866 0.021583341 0.008643108
0002d0 4b 9f be bc 44 b8 f2 3c b8 47 36 bc f0 16 02 3d
       -0.023269316 0.02962888 -0.0111254975 0.031760156
0002e0 22 31 a9 3c 08 57 ce bb 59 a9 ee bc 09 41 94 bc
       0.020653311 -0.006296996 -0.029133486 -0.018097417
0002f0 00 0f 3a bc 4e 54 9b bb 7a c4 a2 bc 29 02 de 3c
       -0.011356115 -0.0047402745 -0.019869078 0.02710064
000300 97 02 59 bc 33 c9 cf 3c 50 0c 4f bb 8c 0d eb 3b
       -0.013245246 0.025364494 -0.0031593032 0.007173246
000310 f6 2b 0f 3d 93 f3 34 bb 6d 3d eb 3c 0e d0 99 bb
       0.034954034 -0.0027611002 0.028715814 -0.0046939915
000320 f9 dd d5 bc 43 d0 ca 3c 5a eb d8 bc c2 b8 84 3c
       -0.026106821 0.02475751 -0.026479412 0.01620138
000330 82 65 20 ba 13 2c b3 bc 23 aa f1 3c db b3 d4 bc
       -0.00061186415 -0.021871602 0.029500073 -0.025964668
000340 f3 d9 0d bd 8c aa f1 3c de 0b 50 bc 57 0c 02 3d
       -0.03463168 0.029500268 -0.012698142 0.03175005
000350 1e 51 01 bc 9b 68 f5 bc 95 7c b6 3c fe e0 c5 bc
       -0.007892875 -0.029957106 0.022276202 -0.024155136
000360 58 24 e1 3c 25 11 98 bc 18 a2 86 bc 2b e0 8a ba
       0.02748315 -0.018562863 -0.016434714 -0.0010595372
000370 56 89 af bc 1f b3 8c 3c 40 72 0b 3b e9 00 14 bc
       -0.021427792 0.017175255 0.0021277815 -0.00903342
000380 90 0e 73 bc 6f 6e b3 bc d8 fb a1 3c c6 10 f2 3b
       -0.014835015 -0.021903245 0.019773409 0.0073872535
000390 4c fb 09 ba 30 fa b4 bc 56 d9 08 bc 6f f1 56 3c
       -0.00052635814 -0.022091955 -0.008352598 0.013119086
0003a0 f3 34 2b 3d c9 6b 37 bc 65 72 9e ba dd 13 57 3c
       0.041798543 -0.011195132 -0.0012088536 0.013127294
0003b0 81 61 97 bb d1 4d 06 bd 23 5a 34 bc aa 19 ca bc
       -0.0046197777 -0.032789055 -0.011007818 -0.02467044
0003c0 b8 d6 41 3d 10 e4 b4 b8 38 bb 1f 3d 98 60 2f bd
       0.047323912 -8.625549e-05 0.038996905 -0.04281673
0003d0 f8 48 c4 bc 1d b1 3d bb cc 57 66 3c 74 7f 73 bc
       -0.023960575 -0.002894468 0.014059018 -0.01486193
0003e0 30 5f eb bc ab a2 03 3d 40 90 07 3d 71 c7 0a 3d
       -0.028731912 0.032137554 0.033096552 0.03388161
0003f0 c3 cb 43 bd c2 b8 72 3b d6 0d a3 bc 10 93 a1 3c
       -0.047801744 0.0037036394 -0.019904058 0.019723445

bias f4 [21]
000000 9b bf 20 bd 90 e6 1a bd 23 4f 06 bb ea b2 f4 3c
       -0.03924523 -0.037817538 -0.0020493947 0.02987047
000010 a9 a6 05 bd de 7c fb bb a4 cb 0d bb 7a 19 d4 3a
       -0.032629643 -0.0076747974 -0.0021636272 0.0016181909
000020 52 12 3b bc 14 90 27 3c 39 15 3b 3c 78 8c e8 bc
       -0.011417942 0.010227222 0.011418634 -0.028387293
000030 0b 32 94 3b f5 10 08 3d 1b ae b0 bc c7 9c fd ba
       0.004522567 0.033219296 -0.021567395 -0.0019349091
000040 12 80 88 bc 75 67 82 3c 59 ca a6 bb fc 7f 05 ba
       -0.016662631 0.015918473 -0.0050900397 -0.00050926185
000050 51 bb 85 3d
       0.065298684
