WGAN_pt/D001289Big_20dim_datap.pt (torch, 673751 bytes, 6 tensors)

weight f4 [256, 100]
0	0x3af29158	0.001850645
1	0xbd71c12f	-0.059022125
2	0xbd8712b0	-0.06595361
3	0xbd953d3d	-0.07287071
4	0xbd2ccf9e	-0.042190187
5	0xbc8eeaf4	-0.017446019
6	0xbd54ce81	-0.05195475
7	0xbb8ca614	-0.004292259
8	0xbd9fb665	-0.07798461
9	0x3c27981f	0.01022914
10	0xbdaee025	-0.08538846
11	0x3d958aa2	0.07301833
12	0xbd19e789	-0.037574325
13	0xbd2395fc	-0.039937958
14	0xbcfc56b8	-0.03080307
15	0xbd8518a7	-0.06498843
16	0xbcd826f7	-0.026385767
17	0xbce2ff6e	-0.027709689
18	0xbde4249f	-0.111397974
19	0x3d16ffe1	0.03686512
20	0x3d2e725f	0.04258954
21	0xbd598710	-0.05310732
22	0xbcdfdb16	-0.027326148
23	0xbcb0a0c1	-0.021561028
24	0x3dae0475	0.08496944
25	0xbd703cae	-0.05865162
26	0xbd9b7f0f	-0.07592594
27	0x3d763a4c	0.06011419
28	0x3da20810	0.07911694
29	0xbd341cbd	-0.04397272
30	0xbcc03cbb	-0.023466459
31	0x3ce4347a	0.027857054
32	0xbc376c70	-0.011195287
33	0x3da484c5	0.08033136
34	0x3d83fc89	0.06444652
35	0x3d856145	0.06512693
36	0xbc1fbb4d	-0.009749246
37	0xbd64ed9f	-0.055890676
38	0x3cb28364	0.021791168
39	0xbd64174b	-0.055686276
40	0xbcf221be	-0.029557105
41	0xbd8c3949	-0.06846864
42	0xbc4f6442	-0.012658181
43	0x3d965f1b	0.07342359
44	0xbba3320b	-0.004980331
45	0xbd6e1aba	-0.058130957
46	0x3d4839b8	0.04888317
47	0xbdb9031c	-0.09033796
48	0xbd66d928	-0.05635944
49	0xbdf633ce	-0.120216
50	0xbc9fd8e0	-0.019512594
51	0x3d1c2a84	0.038126484
52	0x3c8ae733	0.016955948
53	0xbd92bca0	-0.071648836
54	0xbcecd201	-0.028908731
55	0xbcb46395	-0.02202014
56	0xbd363425	-0.044483323
57	0x3ccd35a8	0.02505
58	0x3d3c1b93	0.045924734
59	0x3d90a07c	0.0706186
60	0xbb2403d6	-0.00250267
61	0x3d0d4166	0.034486197
62	0xbd2b88d0	-0.04187852
63	0xbd81c838	-0.06337017
64	0xbd82ad5b	-0.06380721
65	0x3d521271	0.05128712
66	0xbd504160	-0.050843596
67	0xbcc4ed9f	-0.024039088
68	0x3b857db8	0.0040738247
69	0x3d06cabf	0.032908197
70	0x3be5a42d	0.0070080967
71	0xbdae2601	-0.085033424
72	0x3d294082	0.041321285
73	0x3de4283b	0.11140486
74	0x3b29e5cb	0.002592432
75	0xbda4e402	-0.080513015
76	0x3cbd9604	0.023142822
77	0xbca46e81	-0.020072224
78	0xbb514a08	-0.0031934995
79	0xbd4465a1	-0.047948483
80	0x3d72cbb6	0.059276305
81	0xbc43fff8	-0.011962883
82	0xbd9d0257	-0.07666462
83	0x3dcc2c62	0.09969403
84	0x3c03d0eb	0.008045415
85	0x3d0e62eb	0.034762304
86	0x3c05b1b1	0.008160041
87	0xbd4d049c	-0.050053224
88	0xbb8d1a0d	-0.004306084
89	0x3d84424b	0.06457957
90	0xbcbd735a	-0.023126293
91	0xbc538fe8	-0.012912728
92	0xbd00fdf1	-0.031492177
93	0x3ab13244	0.0013519009
94	0xbd8f118d	-0.069857694
95	0x3d28d5cb	0.041219514
96	0xbd7e3675	-0.062063653
97	0xbd950df5	-0.07278053
98	0x3d9329a2	0.07185675
99	0x3d50a0aa	0.05093447
100	0xbd4a42a7	-0.04937997
101	0x3d451161	0.048112277
102	0xbcd1e785	-0.025623092
103	0xba4644a1	-0.0007563327
104	0xbce4f618	-0.027949378
105	0x3c0107f1	0.007875429
106	0x3cf2027b	0.029542198
107	0xbd051647	-0.03249195
108	0x3d1110f6	0.035416566
109	0xbd0afe46	-0.0339339
110	0x3d011c4b	0.031521123
111	0x3d18de05	0.03732111
112	0xb97bdbcb	-0.00024019105
113	0xbcf13b0d	-0.029447103
114	0x3cc76843	0.024341708
115	0x3cbb64e6	0.02287526
116	0xbdb1b01c	-0.08676168
117	0x3d2ed303	0.042681705
118	0x3cc297e8	0.023754075
119	0xbd35499f	-0.044259664
120	0xbd300d86	-0.042981647
121	0x3d768be1	0.060191993
122	0x3c61d38d	0.013783348
123	0xbd8a0495	-0.06739155
124	0x3d3b4c56	0.045727096
125	0xbcb438b6	-0.021999698
126	0x3d1f2a95	0.03885897
127	0xbcd9965d	-0.026560957
128	0x3d842070	0.064514995
129	0x3ce48434	0.02789507
130	0x3db6ff95	0.08935467
131	0x3cf16ea4	0.029471703
132	0x3d789bad	0.06069534
133	0xbd33980d	-0.04384618
134	0x3d4f0ada	0.05054746
135	0x3d8310ae	0.06399666
136	0x3ce337fd	0.027736658
137	0xbcd42883	-0.025898224
138	0xbcb10177	-0.021607144
139	0xbd94944d	-0.07254849
140	0x3d078d5d	0.0330938
141	0xbcafa7ed	-0.021442378
142	0x3d2392f5	0.03993507
143	0xbd2c345c	-0.04204212
144	0xbd89a6a3	-0.067212366
145	0x3de4da6b	0.111744724
146	0x3cd42d10	0.025900394
147	0x3cf03c57	0.029325647
148	0xbd578e1b	-0.052625757
149	0xbc2faaaf	-0.0107218465
150	0xbd357b93	-0.044307303
151	0x3d18639b	0.037204366
152	0x3d4daa28	0.0502111
153	0x3d0bc3b1	0.034122173
154	0xbd8d5b80	-0.06902218
155	0xba34fa5d	-0.0006903762
156	0xbd8b83f1	-0.06812275
157	0xbd8e1d53	-0.06939187
158	0xbd5099b5	-0.050927836
159	0x3cbf6b47	0.023366584
160	0xbc50d1c4	-0.0127453245
161	0x3cd3803d	0.025817985
162	0xbcb3f9b9	-0.021969663
163	0xbd7dbb56	-0.061946236
164	0xbcd285ef	-0.02569863
165	0x3daeaa77	0.08528607
166	0xbdab7d33	-0.08373489
167	0xbcbd7693	-0.02312783
168	0xbc4d5083	-0.0125314025
169	0x3d678d3e	0.056531183
170	0xbdbb638c	-0.091498464
171	0xbba3cd75	-0.0049988576
172	0xbd9a4838	-0.07533306
173	0xbcd8e3e4	-0.026475854
174	0x3db28938	0.08717579
175	0xbd4a9bc2	-0.04946495
176	0x3c391a03	0.011297706
177	0xbb8a223d	-0.0042155073
178	0xbd6ad7f7	-0.057334866
179	0x3cc1a4d4	0.023638166
180	0x3d135d30	0.035977542
181	0xbd4e7b70	-0.050410688
182	0x3cc245b8	0.023714885
183	0xbd46fb39	-0.04857943
184	0x3d52dc56	0.05147966
185	0xbcfd02cd	-0.030885125
186	0x3d8f9295	0.0701038
187	0xbb0a732e	-0.0021125781
188	0xbd8c4d8b	-0.06850728
189	0x3cb6640d	0.022264505
190	0x3cff3580	0.03115344
191	0x3d56e8ff	0.052468296
192	0x3cebaff0	0.028770417
193	0x3d5444e3	0.051823508
194	0xbd00a342	-0.031405695
195	0xbc43dc80	-0.011954427
196	0xbc226ff6	-0.009914389
197	0xbd154dc9	-0.036451135
198	0xbc6eb2ea	-0.014569024
199	0x3c618300	0.013764143
200	0xbd387842	-0.04503656
201	0x3d451571	0.04811615
202	0x3da1f89e	0.07908748
203	0x3d43e02e	0.047821216
204	0xbce3a646	-0.027789246
205	0x3d10a344	0.035311952
206	0x3d5779b2	0.052606292
207	0x3b0cb283	0.0021468706
208	0xbcdbad4c	-0.026816033
209	0xbd519213	-0.051164698
210	0xbdd860b4	-0.1056532
211	0xbd1a6896	-0.037697397
212	0xbd5a5805	-0.0533066
213	0xbd5278fd	-0.051384915
214	0xbcfbff31	-0.030761333
215	0x3d9104b9	0.07080979
216	0x3d4ee7c9	0.050514016
217	0x3d3c647a	0.04599426
218	0xbd57e472	-0.052708097
219	0xbcf61a28	-0.03004177
220	0x3d452682	0.048132427
221	0x3db714c1	0.08939505
222	0x3d916c29	0.07100708
223	0x3d9b8157	0.07593029
224	0x3d874c42	0.06606342
225	0xbca0148c	-0.019541048
226	0xbd929793	-0.07157817
227	0xbd9a6cb9	-0.075402685
228	0x3d9b1f5d	0.075743414
229	0xbbee24fd	-0.007267593
230	0x3cfde02f	0.030990688
231	0x3d876705	0.06611446
232	0xbdbf1648	-0.09330422
233	0x3d8fd142	0.07022335
234	0x3c3ca7a6	0.01151458
235	0xbd2077d2	-0.03917677
236	0x3dcab3e2	0.09897591
237	0x3d19bc81	0.037533287
238	0x3da02f12	0.07821478
239	0xbb24f168	-0.0025168303
240	0x3d7f066a	0.062261976
241	0x3d77fe09	0.060545
242	0xbc126454	-0.008935053
243	0xbdb3b935	-0.0877556
244	0x3d162c10	0.036663115
245	0x3d20edd2	0.039289303
246	0x3d524f42	0.051345117
247	0x3d0a3932	0.033745952
248	0x3d26ab2f	0.040690597
249	0xbc92a1f9	-0.0178995
250	0x3d0c4841	0.034248594
251	0xbbec3c6b	-0.007209351
252	0x3b2fd156	0.0026827655
253	0xbd78cda3	-0.060742985
254	0x3d732524	0.059361592
255	0xbda69865	-0.08134536

bias f4 [256]
0	0xbddedd82	-0.10882093
1	0xbd265821	-0.04061139
2	0xbd2953b6	-0.0413396
3	0xbe125ab7	-0.14292417
4	0xbc91ca8c	-0.017796777
5	0xbe17420c	-0.14771289
6	0xbcad4736	-0.02115212
7	0xbd79c4e8	-0.0609788
8	0xbd33db38	-0.043910235
9	0xbdc2c367	-0.09509926
10	0xbdd287c1	-0.10279799
11	0xbbbbbe8d	-0.0057295025
12	0xbdb01788	-0.08598238
13	0xbd6b812a	-0.057496227
14	0xbdf16415	-0.11786667
15	0xbdc0bf9d	-0.09411547
16	0x3db4e016	0.088318035
17	0xbd1bff4b	-0.038085263
18	0xbd32cb31	-0.04365081
19	0xbdf01e51	-0.117245324
20	0xbd2f5039	-0.042801116
21	0xbdfa7aaf	-0.12230431
22	0xbdca4062	-0.09875561
23	0xbcb7bb57	-0.022428198
24	0x3c800417	0.01562695
25	0xbe29d177	-0.16583811
26	0xbdc0b443	-0.09409382
27	0xbe029503	-0.12752156
28	0xbc6b8b1d	-0.014376429
29	0x3d483abe	0.048884146
30	0x3ce3bac2	0.027799014
31	0xbe094b68	-0.13407671
32	0x3c521a56	0.012823662
33	0x3d2a580a	0.041587867
34	0x3d0e8fa9	0.034804974
35	0x3d8bb7f3	0.06822195
36	0xbe00b2a0	-0.1256814
37	0xbdc14eb5	-0.0943884
38	0xbbbe709b	-0.0058117635
39	0xbd93cbc2	-0.07216598
40	0xbe1b2f89	-0.15154852
41	0x3d4fcd96	0.05073317
42	0xbbda9d6f	-0.0066715996
43	0xbe0c9e05	-0.13732155
44	0xbe023af6	-0.12717804
45	0xbd4d3475	-0.050098855
46	0xbc2bb8ee	-0.010481102
47	0xbd263cae	-0.040585212
48	0xbd3d01c5	-0.046144266
49	0xbdd158a2	-0.102219835
50	0xbd5af2a4	-0.053454056
51	0x3cf90076	0.030395728
52	0xbdb1c06c	-0.0867928
53	0x3cc0cdb1	0.023535581
54	0xbc9cde02	-0.01914883
55	0xbda779a9	-0.08177502
56	0xbdafd21c	-0.08584997
57	0x3d3aecd0	0.045636
58	0x3dd70305	0.10498623
59	0xbd9bff86	-0.076170966
60	0xbdcba47e	-0.09943484
61	0xbde3f141	-0.1113
62	0xbdb6a826	-0.089187905
63	0xbdf3c0a8	-0.11901981
64	0xbd9d63d9	-0.0768506
65	0x3d9f7582	0.07786085
66	0xbb48f633	-0.0030664324
67	0xbd2a1e22	-0.041532643
68	0xbcf12519	-0.029436635
69	0x3d7f8d86	0.062390827
70	0xbdb2c88e	-0.08729659
71	0xbda94886	-0.08265786
72	0xbd85bf23	-0.06530597
73	0x3dd007f7	0.10157769
74	0xbe1f1134	-0.15533906
75	0x3d71b762	0.059012778
76	0xbd0e5ec6	-0.03475835
77	0x3d5bb50e	0.053639464
78	0xbd32f589	-0.04369119
79	0xbd306f50	-0.043074906
80	0xbd02517f	-0.031816002
81	0xbd5bfb0c	-0.053706214
82	0x3d1db611	0.03850371
83	0xbdd6156a	-0.10453303
84	0xbde13420	-0.1099627
85	0x3d0952be	0.033526175
86	0xbd68d78d	-0.05684619
87	0xbdc67318	-0.09689921
88	0x3c8c4b68	0.0171258
89	0xbdb23495	-0.087014355
90	0xbde12c81	-0.109948166
91	0xbc9af5ee	-0.018916097
92	0xbdb9888a	-0.09059246
93	0xbdabe869	-0.08393938
94	0x3ce2153b	0.027598014
95	0x3c23d61a	0.009999776
96	0x3d618fee	0.055068903
97	0xbc0fb789	-0.008771786
98	0x3cb9eb50	0.022695214
99	0xbcf9167f	-0.030406235
100	0xbd04c20a	-0.032411613
101	0x3cfd942f	0.030954449
102	0xbd07daa4	-0.033167496
103	0xbddf93b0	-0.10916841
104	0xbd13a887	-0.036049392
105	0xbcc50102	-0.024048332
106	0xbc9daa1a	-0.01924615
107	0xbd769d11	-0.060208384
108	0xbd86283a	-0.06550641
109	0xbb5c5426	-0.0033619492
110	0x3d34aea0	0.044111848
111	0xbd835183	-0.064120315
112	0x3d9cdd91	0.07659448
113	0xbdaa8bd4	-0.08327451
114	0xbda15b66	-0.07878761
115	0xbdbea32e	-0.09308468
116	0x3d02ce56	0.03193506
117	0xbcd0e0e1	-0.025497856
118	0xbc2cff88	-0.01055897
119	0x3d115ba8	0.0354878
120	0xbd00a464	-0.031406775
121	0xbdece856	-0.11567752
122	0x3dcdce10	0.10049069
123	0xbd6430e1	-0.055710677
124	0xbdf32bdf	-0.11873602
125	0xbdd5fdc6	-0.10448794
126	0xbc4a6aa1	-0.012354524
127	0xbda13b66	-0.078726575
128	0xbe0dd1ca	-0.1384956
129	0xbd3fe951	-0.046853367
130	0x3cf86625	0.030322144
131	0xbbd541d0	-0.0065080896
132	0xbcdf6c21	-0.02727324
133	0xbd4f10e0	-0.050553203
134	0xbded2088	-0.115784705
135	0xbc97191e	-0.018444594
136	0x3d302e37	0.043012824
137	0xbd8a7a57	-0.06761616
138	0x3c0545e9	0.008134344
139	0xbdb5eeba	-0.08883424
140	0xbd2b818c	-0.041871592
141	0x3d38a657	0.04508051
142	0xbe29ece5	-0.16594274
143	0xbdb66a79	-0.08907027
144	0xbdc7b101	-0.09750558
145	0x3b7f0d08	0.003891768
146	0xbdf01093	-0.11721911
147	0xbd145c57	-0.036220875
148	0x3ccb3cfc	0.024809353
149	0xbe154926	-0.14578685
150	0xbdafff8a	-0.08593662
151	0xbbaa2a07	-0.0051929983
152	0xbd329e89	-0.043608222
153	0xbda3ea76	-0.08003704
154	0x3d24c416	0.040226065
155	0x3d155631	0.03645915
156	0x3cb654ea	0.022257287
157	0x3c227fa1	0.009918124
158	0xbd3c8aaa	-0.046030678
159	0x39ac0de7	0.00032816755
160	0x3d868976	0.06569187
161	0xbd6e968f	-0.058249053
162	0xbda81f84	-0.08209136
163	0xbdc9125c	-0.09817955
164	0xbd57bf9e	-0.052672975
165	0xbd88c8f3	-0.06678953
166	0xbdf8cf57	-0.12148922
167	0x3c2237d9	0.00990101
168	0xbdb7f767	-0.08982735
169	0xbe15171b	-0.14559595
170	0x3cf74788	0.030185476
171	0xbd74bf5f	-0.05975282
172	0x3abbf348	0.0014339471
173	0xbd730190	-0.059327662
174	0xbc746058	-0.014915548
175	0xbdc495a4	-0.09598854
176	0xbd302690	-0.043005526
177	0xbc7b33b4	-0.015332151
178	0xbd5ea99f	-0.054360982
179	0xbe0a15a7	-0.13484822
180	0xbdd80255	-0.1054732
181	0xbb808c19	-0.003922951
182	0xbd5afae0	-0.05346191
183	0xbe034542	-0.12819389
184	0xbd8269f2	-0.06367864
185	0x3cea4515	0.028597394
186	0x3db88b83	0.09010985
187	0xbbbefef2	-0.0058287317
188	0xbd928ad4	-0.071553856
189	0xbb6b5a91	-0.0035912136
190	0xbd37b777	-0.0448527
191	0xbca9d3b9	-0.02073084
192	0xbc65285e	-0.013986675
193	0xbe19ffbc	-0.15038961
194	0x3cf256b2	0.029582355
195	0x3d12bb79	0.03582332
196	0xbd1add12	-0.037808485
197	0x3c4f727a	0.012661571
198	0x3d9c258f	0.07624351
199	0xbe0c08a9	-0.13675179
200	0xbd930d6b	-0.07180294
201	0xbc88525f	-0.01664084
202	0xbd2946e7	-0.041327383
203	0x3d32f94f	0.04369479
204	0xbd254a78	-0.040354222
205	0x3af116ad	0.0018393599
206	0xbdc3205e	-0.09527658
207	0x3cad2e89	0.021140354
208	0xbdebdc11	-0.11516584
209	0xbdbb39b3	-0.09141865
210	0x3d280b57	0.04102644
211	0x3d92526a	0.071446255
212	0x3df16e28	0.11788589
213	0x3d218a13	0.03943832
214	0xbc9620fa	-0.018326271
215	0xbd7b569e	-0.0613619
216	0xbdb7d01a	-0.08975239
217	0xbdf1f970	-0.118151546
218	0x3d844621	0.064586885
219	0x3d8bcccc	0.06826171
220	0xba983a47	-0.0011614048
221	0xbe0e3e7a	-0.1389102
222	0xbd0fd35d	-0.03511368
223	0xbd8d4409	-0.06897742
224	0xbdd95982	-0.106127754
225	0xbc071ca5	-0.0082465755
226	0x3d9e8c6b	0.07741626
227	0xbd5a5153	-0.053300213
228	0x3bdff12e	0.006834171
229	0x3b60eeed	0.0034322098
230	0xbd780255	-0.0605491
231	0x3c09abee	0.008402808
232	0x3d671ea5	0.05642571
233	0x3d62ad1d	0.055340875
234	0xbd836d06	-0.06417279
235	0xbd466fc6	-0.04844644
236	0x3d72272d	0.059119392
237	0xbd59c32d	-0.05316465
238	0xbde02c0e	-0.10945903
239	0xbdc6592e	-0.096849784
240	0x3d887620	0.066631556
241	0xbe0fcd86	-0.14043245
242	0x3d3a82c8	0.04553488
243	0xbbf84a3d	-0.0075772093
244	0xbe06a6cd	-0.13149567
245	0xbda2c7f1	-0.07948292
246	0xbe05ea3b	-0.13077633
247	0xbe0234ae	-0.12715408
248	0xbe0fa31e	-0.14027068
249	0x3d2e8525	0.042607445
250	0xbd88be57	-0.066769294
251	0xbdc436bc	-0.09580752
252	0x3cc09799	0.023509787
253	0xbd9ab87f	-0.07554721
254	0xbe05e3ef	-0.13075231
255	0xbac844f9	-0.0015279345

weight f4 [512, 256]
0	0x3bd2511f	0.006418362
1	0xb92d512a	-0.00016528802
2	0x3cfb31a4	0.030663319
3	0x3c369e4b	0.011146138
4	0x3d62bed2	0.05535776
5	0x3d7e0d3d	0.062024344
6	0xbcd774f2	-0.026300881
7	0xbcb2ebb2	-0.021840904
8	0xbd297ce3	-0.041378867
9	0xbb9266d5	-0.004467825
10	0xbd39a235	-0.04532071
11	0xbd053cd1	-0.032528702
12	0x3d3f4286	0.0466943
13	0xbd7e2f64	-0.062056914
14	0x3cbe4ca5	0.023229906
15	0x3d07b1e1	0.033128623
16	0x3d1bcc10	0.038036406
17	0x3a1f821d	0.0006084757
18	0x3c900ebb	0.017585149
19	0xbce3b644	-0.027796872
20	0x3c06c863	0.008226487
21	0xbd4dc48c	-0.05023627
22	0xbcb20092	-0.021728788
23	0xbbc1aee0	-0.0059107393
24	0xbd8ae1d5	-0.06781355
25	0x3d5fe78a	0.054664172
26	0xbca8f22e	-0.020623293
27	0xbd3232f8	-0.04350564
28	0x3d97f69e	0.07420085
29	0xbd6b7e7d	-0.057493676
30	0xbd510bf2	-0.051036783
31	0xbd8395c1	-0.06425048
32	0x3d1b7860	0.037956595
33	0x3be9f862	0.0071402052
34	0xbbf2bb11	-0.007407554
35	0xbb303294	-0.0026885616
36	0x3baca286	0.0052683977
37	0x3caf34b2	0.021387432
38	0xbd3c7827	-0.046013024
39	0x3d20480d	0.039131213
40	0xbcb5c2d6	-0.022187632
41	0x3d85d262	0.06534268
42	0x3d059de9	0.032621298
43	0xbcda44ac	-0.026644073
44	0x3ce4168b	0.02784278
45	0xbd1bf28b	-0.038073104
46	0x3d11d34d	0.035601903
47	0xbd0a212d	-0.033723045
48	0x3d64bda1	0.055844907
49	0x3d824116	0.063600704
50	0x3d2e8606	0.042608283
51	0xbd187bc4	-0.037227407
52	0x3ccb0a6f	0.024785249
53	0xbd820c99	-0.06350059
54	0xbc97a036	-0.018509012
55	0xbc29107d	-0.0103188725
56	0x3d1c0b3d	0.038096655
57	0x3d19d3cc	0.0375555
58	0x3d718f9e	0.058974855
59	0xbd8cd075	-0.068756975
60	0xbcb8f0b9	-0.022575723
61	0x3d4de202	0.050264366
62	0x3ca18665	0.019717405
63	0xbcd258a5	-0.025677035
64	0x3d19c108	0.037537605
65	0x3d6af2be	0.057360403
66	0x3d91e120	0.07123017
67	0x3aca4f8a	0.0015435081
68	0x3b909d2f	0.004413269
69	0x3b00892f	0.0019613018
70	0xbd410887	-0.047127273
71	0x3c0e5489	0.008687147
72	0x3d11af9f	0.035567876
73	0xbcfa101a	-0.030525256
74	0xbb4e4b86	-0.003147812
75	0x3cb5e518	0.022203967
76	0x3ce6e0b4	0.028183319
77	0xbd1bd33e	-0.038043253
78	0x3d8932de	0.06699155
79	0x3cdbd1fa	0.026833523
80	0xbc860554	-0.016359963
81	0x3b8d332b	0.004309078
82	0x3d0aa269	0.033846293
83	0x3ba19b36	0.0049318327
84	0xbce735cf	-0.0282239
85	0x3ca4721b	0.020073941
86	0x3d26dd1c	0.04073821
87	0x3d862868	0.06550676
88	0xbca7f68e	-0.020503309
89	0x3bd5e7ec	0.0065278914
90	0xbd334ccd	-0.043774415
91	0xbc999d36	-0.018751722
92	0x3ccf6d9a	0.025320817
93	0x3cd46a5d	0.025929624
94	0x3b857ec7	0.004073951
95	0xbcbd42bd	-0.023103112
96	0xbd300bcf	-0.04298001
97	0xbcc9f609	-0.024653452
98	0xbc8b6319	-0.017015027
99	0x3cd158d7	0.025555057
100	0x3d04a28b	0.032381576
101	0xbd682f88	-0.056685954
102	0xbd76b502	-0.060231216
103	0xbd49d52b	-0.04927556
104	0x3d58deaa	0.052946724
105	0x3d3d9055	0.046280224
106	0xbd34271f	-0.04398262
107	0x3bf991ae	0.0076162433
108	0xbc6f9e84	-0.014625195
109	0x3d256d2d	0.04038732
110	0xbc4e3df2	-0.012588011
111	0x3ccd818c	0.025086187
112	0xbd4c7a36	-0.049921237
113	0xbd43c5e0	-0.04779613
114	0x3d640b93	0.0556751
115	0xbc672887	-0.014108784
116	0xbafb2ca3	-0.0019163083
117	0x3d1c4cc2	0.03815914
118	0x3c8b103c	0.016975515
119	0x3d31948b	0.043354552
120	0xbd0a282e	-0.033729725
121	0xbd41b223	-0.047289025
122	0x3b8de650	0.004330434
123	0x3b7c9394	0.0038540112
124	0x3c982b6f	0.018575398
125	0x3a004fd0	0.00048947055
126	0xbd7eb94c	-0.06218843
127	0x3d2f8844	0.042854562
128	0xbcc612be	-0.024178859
129	0xbc992d1c	-0.018698268
130	0xbae79a02	-0.0017669799
131	0xbca57358	-0.020196602
132	0x3c228cd1	0.009921269
133	0x3c85212e	0.016251173
134	0x3ce01eb3	0.027358389
135	0xbd4aec6f	-0.049541887
136	0xbd1fd6ac	-0.039023086
137	0x3cc93d48	0.024565354
138	0x3d663f88	0.056212932
139	0x3d3b130e	0.04567247
140	0xbd04bf8a	-0.03240923
141	0xbcfc52fa	-0.030801285
142	0x3ceb3946	0.028713834
143	0x3d282a72	0.041056104
144	0x3d1c342b	0.03813569
145	0x3cf63a87	0.030057205
146	0x3d5ba8b4	0.053627685
147	0xbcaa2af9	-0.020772444
148	0x3d2f1fb5	0.042754848
149	0x3cd00237	0.025391681
150	0xbd5e0470	-0.05420345
151	0x3c8f2467	0.017473413
152	0x3d29a7be	0.041419737
153	0x3c7162fa	0.0147330705
154	0x3d383327	0.044970658
155	0xbc49733f	-0.012295543
156	0x3cb6f13a	0.022331823
157	0xbd3b8987	-0.045785453
158	0x3cfc12e4	0.030770727
159	0x3bd62f4f	0.0065364013
160	0xbc905357	-0.017617865
161	0x3d2ed091	0.042679373
162	0x3b5d43c5	0.0033762318
163	0xbca0c137	-0.019623382
164	0xbd43e200	-0.047822952
165	0xbca13053	-0.019676363
166	0xbd02d467	-0.031940844
167	0x3c318143	0.010834041
168	0x3ad5314d	0.0016265303
169	0x3d4948da	0.049141742
170	0x3aecf18b	0.0018077357
171	0x3d886a79	0.06660933
172	0x3cc7272c	0.02431067
173	0x3d605637	0.05476972
174	0x3d85c6a7	0.065320306
175	0x3d463fcb	0.04840068
176	0xbc908fd9	-0.017646717
177	0xbc13f66b	-0.009030919
178	0xbdb598fc	-0.0886707
179	0xbd47230e	-0.048617415
180	0xbd87176c	-0.06596264
181	0x3c9db189	0.019249694
182	0x3d8abbaa	0.06774075
183	0x3c284f28	0.010272779
184	0xbbd552dc	-0.0065101217
185	0xbcccf699	-0.02501993
186	0x3bda3098	0.006658625
187	0xbb4023af	-0.0029318144
188	0xba7089f6	-0.0009175831
189	0xbce09b65	-0.027417848
190	0xbd3c4f47	-0.045974042
191	0xbd57f575	-0.05272432
192	0x3caffbc9	0.021482365
193	0xbd45654c	-0.048192307
194	0x3c899d82	0.016798738
195	0x3c292dcb	0.010325859
196	0x3bb5db77	0.005549844
197	0xbd51c934	-0.051217273
198	0xbd6ac3cc	-0.057315633
199	0x3c050ece	0.0081212055
200	0x3cfec261	0.031098546
201	0x3d2832c5	0.041064043
202	0xbd4d8d4f	-0.05018359
203	0x3c938016	0.018005412
204	0xbcbc0283	-0.022950416
205	0xbc5d9495	-0.013524194
206	0xbd069d77	-0.032865014
207	0xbd7a5989	-0.061120544
208	0x3ccb9e56	0.024855774
209	0xbcda24de	-0.026628908
210	0xbd4c9adb	-0.04995237
211	0xbd6e5f34	-0.05819626
212	0xbc780125	-0.015136992
213	0x3c0f7393	0.008755582
214	0x3ccfda81	0.025372745
215	0x3c374651	0.011186198
216	0xbcfb6dd2	-0.030692015
217	0xbc311c99	-0.010810041
218	0x3cf753ef	0.03019139
219	0xb9c7c362	-0.0003810181
220	0x3d671fad	0.056426693
221	0x3d782284	0.06057979
222	0x3cd3755c	0.025812797
223	0x3cb8506c	0.022499286
224	0xbd0230d0	-0.031784832
225	0x3d591f1f	0.053008195
226	0x3d74da10	0.059778273
227	0xbd0d8b55	-0.034556706
228	0xbd3a6123	-0.045502793
229	0x3d9c3f47	0.07629257
230	0xbc8b9699	-0.017039584
231	0x3be97f80	0.007125795
232	0xbd323d42	-0.04351545
233	0x3c3b2a20	0.011423618
234	0x3d5b6efa	0.053572632
235	0xbce69331	-0.028146358
236	0x3cb3b3a9	0.021936255
237	0xbc6f940f	-0.014622702
238	0xbd17dc17	-0.03707513
239	0x3c89d682	0.016825918
240	0xbd013a77	-0.031549897
241	0xbcf69ae4	-0.030103154
242	0xbcfd35f4	-0.030909516
243	0xbcfb2940	-0.030659318
244	0xbd811ea2	-0.06304671
245	0x3cdc9cfa	0.026930321
246	0xbd678210	-0.05652052
247	0x3bfdac8b	0.007741516
248	0x3d116c42	0.035503633
249	0x3bf73b2c	0.0075448956
250	0xbd92c07d	-0.071656205
251	0x3c83fadb	0.016110828
252	0xbd9de397	-0.07709425
253	0x3d8a469b	0.06751748
254	0x3d2c751b	0.042103868
255	0xbc8feafd	-0.017568106

bias f4 [512]
0	0x3c3390f2	0.010959851
1	0x3d1bc26c	0.038027212
2	0xbd0b5687	-0.034018066
3	0x3d71bbd0	0.059017003
4	0x3ceba866	0.028766822
5	0x3b8f342a	0.004370232
6	0xbcc506e4	-0.024051137
7	0x3d3c1f1b	0.045928102
8	0xbd9defff	-0.07711791
9	0x3cb8703e	0.022514459
10	0x3d76e1af	0.060273822
11	0xbcfeb857	-0.03109376
12	0x3bdb3940	0.0066901743
13	0x3c82d724	0.015971728
14	0xbd491e16	-0.049100958
15	0xbd5d7bf8	-0.054073304
16	0x3ca29efb	0.019851198
17	0xbc3359f1	-0.010946737
18	0x3a9d9804	0.0012023454
19	0xbd5f6e52	-0.05454857
20	0xbcbc19e9	-0.022961574
21	0xbc9d9016	-0.019233745
22	0xbd192873	-0.03739209
23	0xbda08d75	-0.07839481
24	0x3d79ca2f	0.060983833
25	0x3c801807	0.015636457
26	0x3d37ebcb	0.044902604
27	0xbd94841c	-0.0725176
28	0xbd9ec927	-0.077532105
29	0x3cb8bba0	0.022550404
30	0xbcc2da0b	-0.023785612
31	0xbd3e8fd8	-0.0465239
32	0x3cc68aaf	0.024236051
33	0x3d4d249a	0.050083734
34	0xbb9287e3	-0.0044717654
35	0xba81d212	-0.0009904525
36	0xbd07dc9c	-0.033169374
37	0xbc6bfb42	-0.014403166
38	0xbbcf4b0c	-0.006326085
39	0x3c9f75fa	0.019465435
40	0xbb873ade	-0.0041268906
41	0x3d1013f4	0.03517528
42	0x3d22dfd0	0.039764225
43	0xbcdf031f	-0.027223168
44	0x3ae8fc1c	0.001777533
45	0x3d7a5d91	0.061124388
46	0xbc12822f	-0.008942171
47	0x3c60c086	0.013717776
48	0x3b5af89b	0.003341234
49	0xbd1ba968	-0.038003355
50	0xbc33b427	-0.010968245
51	0x3d310658	0.04321894
52	0x3d1a5d0e	0.0376864
53	0x3d742581	0.05960608
54	0xbc1a0c4b	-0.009402345
55	0x3d1d00e0	0.038330913
56	0xbcf6c8fa	-0.03012513
57	0x3cb10627	0.021609379
58	0xbd901fa9	-0.07037289
59	0xbd0719b0	-0.032983482
60	0xbc907cf7	-0.017637713
61	0x3cd8da8e	0.026471402
62	0x3d178dfe	0.03700065
63	0x3c868928	0.016422823
64	0x3c09a637	0.008401445
65	0xbd4293cf	-0.047504243
66	0xbcdef198	-0.02721481
67	0xbc0b7b67	-0.008513308
68	0xbcba2767	-0.022723867
69	0xbce4d339	-0.02793275
70	0xbd06c6a0	-0.032904267
71	0xbd127246	-0.03575351
72	0x3d55ca04	0.05219461
73	0xbb78187d	-0.0037856393
74	0xbd729005	-0.05921938
75	0xbcdfd1c8	-0.027321711
76	0xbd268162	-0.040650733
77	0x3c881872	0.016613219
78	0xbd502dc0	-0.05082488
79	0xbcfa2169	-0.03053351
80	0x3c886866	0.016651344
81	0xbbb3ebff	-0.0054907794
82	0x3cc2ff24	0.023803301
83	0xbd91798e	-0.07103263
84	0x3bfc597c	0.007701097
85	0xbca66028	-0.020309523
86	0x3b1815de	0.0023206393
87	0x3d2a0f62	0.041518576
88	0x3cc26a16	0.023732226
89	0xba147095	-0.0005662528
90	0x3bd4fceb	0.0064998767
91	0x3d726106	0.05917456
92	0x3b68ec2c	0.003554116
93	0x3d496831	0.04917163
94	0x3d2514a1	0.040302876
95	0xbcb80863	-0.022464937
96	0xbd66801d	-0.056274522
97	0xbccaad1d	-0.02474075
98	0xbcf93599	-0.030421065
99	0xbd694ce6	-0.0569581
100	0xbd8e51da	-0.06949206
101	0x3d1a8eb9	0.037733767
102	0x3d1f485f	0.038887378
103	0xbd3fe77b	-0.046851616
104	0xb8fc807c	-0.000120402285
105	0xbc1d8be3	-0.009615871
106	0xbc287f35	-0.010284235
107	0x3bf55162	0.007486508
108	0xbd25421d	-0.040346254
109	0xbc6905bf	-0.014222561
110	0x3b5afcbb	0.00334148
111	0x3cbc4fe1	0.022987308
112	0x3c9d91ee	0.019234624
113	0x3a779e20	0.00094458647
114	0x3c57e149	0.013176271
115	0x3caaf8d2	0.0208706
116	0xbd8d5ed6	-0.06902854
117	0xbd8738d8	-0.06602639
118	0xbd767b8b	-0.060176414
119	0xbd4f6dac	-0.0506417
120	0xbd639a0a	-0.055566825
121	0xbd2831a3	-0.041062962
122	0xbc4e04a8	-0.012574352
123	0xbd202d7d	-0.03910588
124	0xbb2a6456	-0.0025999746
125	0xbb57bcbd	-0.0032918893
126	0x3d3156db	0.043295722
127	0x3d700339	0.058596823
128	0x3d250202	0.040285118
129	0x3d25e3ce	0.040500455
130	0xbce84423	-0.028352803
131	0xbd2e1b47	-0.042506482
132	0xbd4e0318	-0.05029592
133	0xbd5c0df8	-0.05372426
134	0x3c96e212	0.018418346
135	0x3c80d5a3	0.01572687
136	0x3d334c06	0.043773673
137	0xbd92e799	-0.0717308
138	0x3d1f5321	0.038897637
139	0x3c29f74a	0.0103739
140	0x3b9c378c	0.004767364
141	0xbd1896a8	-0.037253052
142	0x3cfa680d	0.030567193
143	0x3c421b12	0.011847274
144	0x3cb3c44a	0.021944184
145	0xbd1aff96	-0.037841402
146	0xbd5b1a17	-0.053491678
147	0x3ca67fde	0.020324644
148	0x3c660fff	0.0140419
149	0xbcdfde27	-0.02732761
150	0xbc648807	-0.013948447
151	0xbd2e885f	-0.042610522
152	0xbd43ab29	-0.047770653
153	0x3d4f8bf6	0.050670587
154	0xbd4e5adf	-0.05037963
155	0xbd36b311	-0.044604365
156	0x3d0c4199	0.034242246
157	0x3c9ee78a	0.019397516
158	0xbd333eb4	-0.04376097
159	0xbd4e4bd1	-0.050365273
160	0xbbf88313	-0.0075839846
161	0xbd5fea1a	-0.054666616
162	0xbd1897c4	-0.03725411
163	0xbc88d09d	-0.016701037
164	0xbcb63516	-0.02224211
165	0x3b573a79	0.003284125
166	0x3cc542ac	0.024079643
167	0xbbdcfd13	-0.006744036
168	0xbccc75b1	-0.024958463
169	0x3cb536c1	0.022120835
170	0xbd5bd93a	-0.05367396
171	0xbd06659b	-0.032811742
172	0xbd104475	-0.035221536
173	0x3cbb838b	0.022889873
174	0x3cd698ca	0.026195902
175	0xbd043c34	-0.032283977
176	0x3d4c9a4d	0.04995184
177	0xbd81df3a	-0.06341405
178	0xbba26192	-0.004955479
179	0x3d2b3457	0.041797962
180	0xbcb3a856	-0.021930855
181	0xbd9b33e9	-0.075782605
182	0x3cd12c81	0.025533916
183	0x3bed330a	0.0072387503
184	0xbd1ddbee	-0.03853982
185	0xbc80dabc	-0.0157293
186	0xbd21c4af	-0.039494213
187	0x3b44bff7	0.0030021647
188	0x3bd2e195	0.006435583
189	0x3c727620	0.014798671
190	0x3d10b13e	0.03532528
191	0x3c1c6df5	0.0095477
192	0x3cbde774	0.023181655
193	0xbd75c34a	-0.060000695
194	0xbd216676	-0.039404355
195	0x3d5f6df6	0.054548226
196	0xbb671c73	-0.003526476
197	0xbd035d44	-0.032071367
198	0xbd6bc6c1	-0.057562593
199	0x3d58ca4b	0.052927297
200	0x3d64e002	0.055877693
201	0x3c7a5a01	0.015280248
202	0x3c54ac35	0.0129805105
203	0x3d3f825a	0.046755172
204	0xbd37efcd	-0.044906426
205	0x3c88bfa4	0.016692944
206	0xbb448c7b	-0.002999096
207	0x3c2eb525	0.010663305
208	0x3ba72328	0.0051006265
209	0xbd324437	-0.043522086
210	0x3d4c19ae	0.049829178
211	0xbd14d302	-0.036334045
212	0xbd78da12	-0.060754843
213	0x3d5eff8f	0.05444294
214	0x3cb44819	0.022007035
215	0x3d4348f2	0.047676988
216	0x3d389619	0.04506502
217	0xbd7bb233	-0.06144924
218	0x3c9f1e7f	0.019423721
219	0x3d15701f	0.03648388
220	0xbd8a6248	-0.06757027
221	0x3d6eccda	0.05830083
222	0x3d4b6abc	0.049662337
223	0xbd71f044	-0.059067026
224	0x3b87230d	0.0041240514
225	0xbd6584f0	-0.056034982
226	0x3c0de98f	0.008661642
227	0xbd2a061c	-0.041509733
228	0xbd196fab	-0.03746001
229	0xbc9dccce	-0.019262698
230	0xbce3a230	-0.027787298
231	0x3cf5d838	0.030010328
232	0x3d259edf	0.040434714
233	0xbca42480	-0.020036936
234	0xbcbbb5dc	-0.022913866
235	0x3cf1917f	0.029488323
236	0xbd3c10bf	-0.045914408
237	0x3d10a80b	0.03531651
238	0x3d73a196	0.059480272
239	0xbd8bf813	-0.06834426
240	0x3b1c1115	0.0023813893
241	0x3d6b40d8	0.057434887
242	0xbd845cd6	-0.064630195
243	0xbb599462	-0.0033200015
244	0xbc8b10fa	-0.016975868
245	0x3d1a56c9	0.03768042
246	0xbd0437c0	-0.03227973
247	0xbd044eef	-0.03230184
248	0xbd88db07	-0.06682401
249	0xbd013222	-0.03154195
250	0xbbc1ee5f	-0.0059183086
251	0xbd4cac09	-0.049968753
252	0xbd86ef88	-0.06588656
253	0xbd5c6aee	-0.053812914
254	0xbcf882bc	-0.030335777
255	0xbc7321ce	-0.014839603

weight f4 [20, 512]
0	0xbd27f558	-0.041005462
1	0x3d6cd22c	0.057817623
2	0xbce19765	-0.02753801
3	0x3d0dfc47	0.03466442
4	0x3c3a313c	0.011364277
5	0x3cb95f54	0.022628464
6	0xbd2ee467	-0.04269829
7	0x3d5a7ca4	0.053341523
8	0x3d43d1b4	0.04780741
9	0xbd2a7172	-0.041612096
10	0xbc3503a9	-0.011048236
11	0x3c8dd688	0.01731421
12	0xbd327f3e	-0.04357838
13	0x3d17f5c6	0.037099622
14	0xbb7864f8	-0.003790198
15	0x3d53bc7a	0.051693417
16	0x3c99987b	0.018749466
17	0x3cfdefaf	0.03099808
18	0xbcf78c18	-0.03021817
19	0x3c91581e	0.017742213
20	0xbd1a3cac	-0.037655517
21	0x3cc79e19	0.024367379
22	0xbd6abd3b	-0.05730937
23	0x3c41b9a3	0.011824044
24	0x3c6d8839	0.01449781
25	0x3d2032ea	0.039111055
26	0x3d1fc0f2	0.039002366
27	0xbb8cdd68	-0.0042988546
28	0xbcc703fb	-0.02429389
29	0x3d7e5923	0.062096726
30	0x3cd428ef	0.025898425
31	0xb98f9449	-0.00027385567
32	0x3d900f74	0.070341974
33	0x3ca72bb7	0.020406587
34	0x3d66f2e8	0.056383997
35	0xbd2e945f	-0.042621966
36	0x3c19953e	0.009373961
37	0x3caa5214	0.020791091
38	0x3cdb67a4	0.026782818
39	0x3e0fe20a	0.14051071
40	0x3d25b999	0.040460203
41	0xbc12b139	-0.008953386
42	0x3d6235a4	0.055226937
43	0x3d3490a6	0.04408326
44	0x3d920407	0.071296744
45	0x3c8eac39	0.017416107
46	0x3c3d9cc2	0.0115730185
47	0x3d3a4d24	0.045483723
48	0x3cdcf951	0.026974352
49	0x3c0a0f3f	0.0084264865
50	0xbd26c807	-0.040718105
51	0x3ce5bd2f	0.028044311
52	0xbd95eb74	-0.073203
53	0xbc4f4b8f	-0.012652292
54	0x3cfb0493	0.03064183
55	0xbd698148	-0.057008058
56	0x3ca22724	0.019794054
57	0xbd8e8da7	-0.06960612
58	0x3ba9eca2	0.0051856795
59	0x3c6297d9	0.013830149
60	0xbcd5247d	-0.026018376
61	0xbbb90d58	-0.0056473427
62	0x3cb47918	0.022030398
63	0x3d0baea8	0.034102112
64	0x3b16fa43	0.0023037351
65	0xbc78a4df	-0.015176027
66	0x3cbba047	0.022903575
67	0xbc7f114e	-0.015568091
68	0x3ccecb5b	0.025243452
69	0x3d8e65f1	0.069530375
70	0x3d80135c	0.062536925
71	0xbd1060fb	-0.035248738
72	0x3d9e42b4	0.07727566
73	0x3be5fbd3	0.007018545
74	0xbc525df4	-0.012839783
75	0xbd348030	-0.04406756
76	0xbd4a1338	-0.049334735
77	0xbbc3930d	-0.0059684576
78	0x3d2dd108	0.042435676
79	0x3d112d6c	0.03544371
80	0x384eb9ed	4.9287384e-05
81	0x3b44e64d	0.0030044497
82	0x3c6b3e19	0.014358067
83	0x3d0056cb	0.031332772
84	0x3d249d9c	0.04018937
85	0x3d39322b	0.04521386
86	0xb9a9340f	-0.0003227298
87	0xba86b1e2	-0.0010276402
88	0x3c1a1262	0.009403797
89	0xbbfd63ae	-0.00773283
90	0xbc73b5c9	-0.014874884
91	0x3cb5abb3	0.0221766
92	0x3c0eec1a	0.008723283
93	0xbbdc8d2b	-0.0067306957
94	0x3a998a43	0.0011714179
95	0x3d332cf8	0.043744057
96	0x3cb51b27	0.022107674
97	0x3d08fdab	0.03344504
98	0x3da1e5ec	0.07905182
99	0x3cc03fab	0.02346786
100	0x3bb5d1be	0.005548685
101	0x3c0e68e6	0.008692002
102	0x3cec5b89	0.028852241
103	0x3d2ed3a1	0.042682294
104	0x3d7a6c32	0.06113834
105	0x3ca544c2	0.020174388
106	0x3cdee30b	0.027207872
107	0x3cfd6e5d	0.030936414
108	0xbb4db6bd	-0.0031389438
109	0xbb3eaadc	-0.002909354
110	0x3d1ced8b	0.038312476
111	0xbd1e3813	-0.038627695
112	0x3d35c232	0.044374652
113	0xbbaaccc6	-0.005212399
114	0xbc939206	-0.018013965
115	0xbd2347d1	-0.03986341
116	0xbb782359	-0.0037862866
117	0xbcbf1cda	-0.023329187
118	0xbbf1c75e	-0.0073785027
119	0x3d120976	0.035653554
120	0x3cb77b18	0.022397563
121	0xbae7cc67	-0.0017684818
122	0x3d84c20f	0.06482326
123	0xbd3eb85d	-0.04656254
124	0x3b74da20	0.0037361458
125	0xbd06fc0c	-0.032955214
126	0xbd2002ea	-0.03906528
127	0x3ce89d3d	0.02839529
128	0xbcc538a0	-0.024074852
129	0x3bd3b73b	0.0064610518
130	0x3d8d4f7a	0.068999246
131	0x3d4d5329	0.050128136
132	0xbc9937a6	-0.018703293
133	0x3cf8c59c	0.030367665
134	0x3cb1934a	0.021676678
135	0xbbd0dd9b	-0.0063740737
136	0x3cea0583	0.028567081
137	0xbb00be02	-0.0019644503
138	0x3d50bd67	0.05096188
139	0xbd61d1b1	-0.055131618
140	0xbc7a9fd2	-0.015296893
141	0x3d1a2ac2	0.037638433
142	0xb9c19396	-0.0003692179
143	0xbcc449fe	-0.023961063
144	0x3c4e3696	0.0125862565
145	0xbc491810	-0.012273803
146	0xbcd82cea	-0.026388604
147	0x3d802762	0.06257512
148	0x3d5b6219	0.05356035
149	0x3d2e4845	0.04254939
150	0x3c901ac1	0.017590882
151	0x3cf7dbc9	0.030256169
152	0xbcd4be9e	-0.0259698
153	0x3b525a2c	0.0032097204
154	0x3d4366ca	0.04770545
155	0xbb113dcc	-0.0022162078
156	0xbd3bc29e	-0.0458399
157	0x3d4b8640	0.049688578
158	0xbcb6d394	-0.022317685
159	0xbd091f85	-0.033477325
160	0x3bfd0456	0.007721464
161	0xbd10dc07	-0.035366084
162	0xbce20eb3	-0.0275949
163	0xbb5bdc45	-0.003354804
164	0xbc24cc4f	-0.010058477
165	0xbd1607cf	-0.03662854
166	0x3d55a355	0.05215772
167	0x3d41cc0b	0.04731373
168	0x3c9be0a1	0.01902801
169	0x3cdc5822	0.026897494
170	0xbc822ab4	-0.015889503
171	0xbb8acfd8	-0.0042362027
172	0x3c820eaf	0.015876142
173	0x3c8bfc5e	0.017088111
174	0x3d519745	0.051169652
175	0xbad070b3	-0.0015902728
176	0x3c46b06b	0.012127022
177	0xbcdc0e53	-0.0268623
178	0x3a84fb85	0.001014576
179	0xbc23f11d	-0.010006216
180	0xbcb99b91	-0.022657188
181	0x3d724289	0.059145484
182	0x3b85b345	0.0040802085
183	0x3c2ff5d9	0.010739767
184	0xbd797cf0	-0.060910165
185	0xbd4f2dd9	-0.050580833
186	0xbcee1b83	-0.029065853
187	0x3d03f202	0.03221322
188	0x3cdfbf22	0.027312819
189	0x3c786047	0.015159673
190	0xbd86075a	-0.06544371
191	0x3bfc5357	0.0077003646
192	0x3d50d2df	0.050982352
193	0x3d9114b6	0.070840284
194	0x3bcfa0b0	0.006336294
195	0xbd5e968a	-0.054342784
196	0x3b636d02	0.0034702425
197	0x3d069222	0.032854207
198	0xbcc4c2d1	-0.024018677
199	0x3a1e8567	0.00060471
200	0x38fff48c	0.00012204898
201	0x3c537329	0.012905874
202	0x3d06ff9a	0.032958604
203	0x3ca02542	0.019549016
204	0x3d71f2d2	0.059069462
205	0x3d17ff02	0.03710843
206	0xbc4901b1	-0.01226847
207	0x3d003d43	0.031308424
208	0x3c9d1ef8	0.019179806
209	0x3d5e8dab	0.054334324
210	0x3d009850	0.031395257
211	0xbd072a74	-0.03299947
212	0xbbc2ed21	-0.005948678
213	0x3c5d8b20	0.0135219395
214	0x3d842abe	0.06453465
215	0xbd509af7	-0.050929036
216	0x3c070633	0.008241224
217	0x3d1b3e54	0.037901238
218	0xbc646898	-0.013940953
219	0x3c117326	0.008877551
220	0xba1cb237	-0.0005977484
221	0xbd9a6b3b	-0.07539984
222	0x3afe7c29	0.0019415665
223	0xbcbdb378	-0.023156866
224	0x3d28d956	0.041222893
225	0xbcdb9226	-0.026803087
226	0x3d44faf6	0.048090898
227	0x3cd9e816	0.026599925
228	0xbb08b3a5	-0.002085903
229	0x3d1b1f38	0.03787157
230	0x3d90b3a9	0.070655175
231	0xbd9541c3	-0.07287934
232	0x3d8627a0	0.065505266
233	0x3b1fe907	0.002440037
234	0x3bbd3073	0.005773598
235	0xbc0fc10d	-0.008774054
236	0xbd406f0c	-0.046980903
237	0xbd05cb6e	-0.03266471
238	0x3c594c7f	0.013262867
239	0x3d9528e1	0.07283188
240	0xbc311c43	-0.010809961
241	0x3d2bf004	0.041976944
242	0x3cb03dc3	0.021513825
243	0x3d08554c	0.03328447
244	0x3bf3cedf	0.0074404324
245	0x3c4bac88	0.012431271
246	0x3d033e18	0.03204164
247	0xbd3650f0	-0.04451078
248	0x3ce89f66	0.02839632
249	0x3d6f82d8	0.05847439
250	0x3c91e194	0.01780776
251	0xbcb16f17	-0.021659417
252	0xbcef17e0	-0.02918619
253	0x3a714a92	0.0009204532
254	0x3a8134a8	0.0009857612
255	0x3c934d93	0.017981326

bias f4 [20]
0	0xbd0b3df7	-0.03399464
1	0xbc6ffb55	-0.014647325
2	0x3bc77c50	0.0060878173
3	0xbb949559	-0.004534405
4	0xbbbe9787	-0.0058164033
5	0x3b043729	0.002017448
6	0xbcebbfd0	-0.028777987
7	0x3a5fbdc1	0.00085350504
8	0xbcbe6e0d	-0.023245836
9	0x3d0bc8ab	0.03412692
10	0x3d037123	0.032090317
11	0xbc88b3ea	-0.016687352
12	0xbbc7343f	-0.0060792263
13	0xbd0ccdac	-0.03437583
14	0xbcff9119	-0.031197118
15	0xbc72ea8c	-0.014826428
16	0xbd1d8308	-0.03845504
17	0xbcbfc3d7	-0.023408813
18	0x3d4f6baf	0.050639804
19	0x3c6f2133	0.014595318
