WGAN_pt/D002446Big_20dim.pt (torch, 673751 bytes, 6 tensors)

weight f4 [256, 100]
000000 58 9f 3e bc 07 04 05 3c 27 ef 8b 3c 8e 11 eb 3c
       -0.01163467 0.008118636 0.01708181 0.028694894
000010 a0 ac 84 3d 62 12 a3 3c 92 02 b8 3d a3 44 a1 3d
       0.06478238 0.019906227 0.08984865 0.078744195
000020 0b fc 52 bd 85 e8 16 bd 5e eb cd 3d 68 23 1e bd
       -0.0515099 -0.03684284 0.10054658 -0.038607985
000030 77 7e d7 bc 4a d3 28 bd 00 6f bc 3c a8 e3 92 3d
       -0.02630542 -0.041217126 0.023002148 0.07172328
000040 4d 9a 59 3d be a6 cc 3d d0 c8 3a bd be 46 f2 ba
       0.05312567 0.09992741 -0.045601666 -0.0018484218
000050 53 13 82 3d 36 34 fa bc b9 98 90 bd 44 77 7d 3d
       0.06351342 -0.030542474 -0.070603795 0.06188132
000060 6d d1 88 3d 1c d2 56 bc 74 d9 a1 bb 0c d0 9e bd
       0.0668057 -0.013111617 -0.0049392525 -0.077545255
000070 90 bb 5a 3d bd a9 c1 bc ae a6 e7 3c 33 fc 06 bc
       0.05340153 -0.023640508 0.028277721 -0.00823884
000080 40 46 94 3d ae 24 43 bd 29 3f e5 bb 1b 97 8b bd
       0.072399616 -0.047642402 -0.0069960547 -0.068159305
000090 c2 f6 75 3d 1b 69 b8 3d 3b 2e 31 bd 41 76 85 3d
       0.06004978 0.09004422 -0.04325698 0.06516696
0000a0 4a 94 72 3b 3b d9 57 3d 95 43 fa 3c c9 8d d1 bd
       0.0037014657 0.0526974 0.030549804 -0.102321215
0000b0 e2 b8 57 bd 30 d6 3f 3c 1e a6 ad bc a1 3b d6 bd
       -0.052666552 0.011708781 -0.021197375 -0.10460592
0000c0 fc ed 66 3d ad 98 3c bd e8 c4 3a bd d1 02 0a 3b
       0.056379303 -0.04604404 -0.04559794 0.0021058808
0000d0 81 1f 2a 3d f3 bf 83 3d 3c 95 1d 3d af 92 1b bd
       0.04153395 0.06433096 0.0384724 -0.037981685
0000e0 47 44 97 bd c2 64 f6 3d 06 09 f5 bc 4d 99 4d 3d
       -0.0738607 0.12030937 -0.02991153 0.050195027
0000f0 9f df 73 3d d1 ca 31 3d 84 96 8c 3d 93 cf 38 bd
       0.059539434 0.04340631 0.06864646 -0.045119833
000100 51 a1 ce 3c 92 fa f9 bc 1a db ab 3d 04 d6 90 bb
       0.025223406 -0.030514989 0.083914 -0.004420044
000110 12 a4 79 bd 35 e4 d1 bd d6 51 87 3d b3 cc b5 3c
       -0.060947485 -0.10248605 0.06607406 0.022192335
000120 55 75 98 bd f7 68 f0 3b 25 23 0d 3d 69 51 4e 3d
       -0.07444254 0.0073367315 0.034457345 0.050370608
000130 8d 05 a8 3b 67 9c cc bd 00 b6 16 bd 9f 04 ab bc
       0.005127615 -0.09990769 -0.036794662 -0.020876227
000140 73 30 7c 3d 5e 46 06 3d a1 78 98 3d a3 0d 64 bd
       0.061569642 0.03278195 0.07444883 -0.055677067
000150 de 31 5a 3d 79 34 34 bc ec 89 13 3d 47 64 1d bd
       0.053270213 -0.010998839 0.036020204 -0.03842571
000160 52 f7 9f 3c 8b 88 af 3c 86 cf 36 bd 32 8d 48 bc
       0.019527111 0.021427413 -0.044631504 -0.012240695
000170 74 09 71 bd 96 84 a9 bb 75 eb 3e bd 2a 2b 88 bd
       -0.058846906 -0.005173276 -0.046611268 -0.06648858
000180 ad d7 81 3d 45 39 71 3d 47 c1 c2 3c ed 05 1e bd
       0.06339965 0.058892507 0.023773802 -0.03857987
000190 12 b2 a2 3d 64 5f 4f 3c 90 80 12 bb 2e 3a 97 3d
       0.079441205 0.01265702 -0.0022354461 0.07384144
0001a0 e7 7e 44 3c 49 ba 7b bd b9 53 8c 3d 23 ba 5a 3c
       0.0119931465 -0.061456952 0.06851906 0.0133500425
0001b0 e3 3f 46 3d b3 26 a4 bd 03 96 99 3d 6e 29 83 bd
       0.04840077 -0.08015194 0.074993156 -0.064043865
0001c0 d9 02 95 bc f6 11 3a 3d 97 6d c5 3d 2f 64 06 3d
       -0.018189834 0.045427285 0.09640043 0.032810386
0001d0 2f 00 8e 3d 7b 5b 63 bd 2d 7b 1d bd 64 c7 83 bc
       0.06933629 -0.055507164 -0.038447548 -0.016086288
0001e0 ae 25 59 3c 81 bc ae 3d 11 87 cd bd f0 94 26 3d
       0.013253612 0.08532048 -0.100355275 0.04066938
0001f0 26 f5 73 bc 6e 1f 1e 3d be 7d 0c 3c 24 2a 18 3d
       -0.014889991 0.038604192 0.008574901 0.037149563
000200 2b a7 aa bc 96 4d ab bd 40 be aa bd 36 f4 98 3d
       -0.020831665 -0.08364408 -0.083370686 0.074684545
000210 bf a2 88 bd 16 18 96 bd 54 d0 48 bd 89 9b 96 3d
       -0.06671666 -0.07328813 -0.049026802 0.07353885
000220 c7 9e af 3d eb 65 01 bd cb 85 e2 bc 4b 33 64 bd
       0.08575206 -0.031591337 -0.027651688 -0.05571298
000230 bb 9b a5 3c 15 d7 df 3d 2d 25 ce bc ed d5 ce 3d
       0.02021586 0.109296955 -0.025164211 0.10099397
000240 d7 fe 93 bd 39 d2 4e 3c 27 7e 09 bd c7 c6 d1 3d
       -0.07226341 0.012623363 -0.033567574 0.10242992
000250 bd 31 ba bd fc c3 9a bd 80 9c d0 3b 03 7c 9e bd
       -0.09091518 -0.07556912 0.0063663125 -0.07738497
000260 19 ac 0f 3c 3c 8c 53 bd fc 04 59 3d 5a b3 e0 3d
       0.008769059 -0.05164741 0.05298327 0.109717086
000270 c4 96 c4 bd 74 bc 8c bc de a3 91 3c 2e 32 f7 3c
       -0.09599069 -0.017179705 0.017778333 0.030175295
000280 24 ab a8 bd 20 59 18 bd 8d 73 a2 bd 4d 47 0f 3d
       -0.082357675 -0.03719437 -0.07932196 0.034980107
000290 30 87 50 3c 25 64 9b 3d df da 3e 3c 5d 34 9f bb
       0.012727544 0.075874604 0.011648863 -0.004858537
0002a0 bc 8f b8 3d d8 c6 f2 bd 65 88 28 3c d8 41 f0 bc
       0.0901179 -0.11854333 0.010286425 -0.029328272
0002b0 ab a7 9f bd 54 29 a9 3c ea d5 45 bd 2e 84 8c 3d
       -0.07795652 0.02064959 -0.048299707 0.06861149
0002c0 22 ce a2 3c 8a 70 91 3d 08 63 6a 3d 03 ba a3 3a
       0.019873682 0.07101543 0.05722335 0.0012491349
0002d0 ac ff e5 3c 9a e5 93 3d 7e 76 0f 3d 7d 93 06 3e
       0.028076015 0.072215274 0.035025112 0.131422
0002e0 d2 cf 4f bd af c6 33 3d 62 7c dd 3d 87 fc f2 bd
       -0.050735302 0.04389065 0.1081474 -0.11864572
0002f0 95 96 e5 3d a1 f5 e4 bd b9 43 18 bd 18 85 32 3d
       0.11210362 -0.111796625 -0.03717396 0.04358396
000300 da 5a 2d bb 8a 78 95 bd c3 8a 4c 3d bf 5d 4e bd
       -0.0026451857 -0.072983816 0.04993702 -0.050382372
000310 76 cf 8f 3d bf dd 9d 3d d9 68 f1 3c 99 82 5c 3d
       0.07021992 0.0770831 0.02946894 0.053835485
000320 b2 56 61 bd 53 71 a1 3c 04 af 89 3d 71 62 9e bc
       -0.05501432 0.019707358 0.06722835 -0.01933405
000330 5f 8d 70 3d c7 5a a9 3b e6 95 b6 3d bf 5f 90 bc
       0.058728572 0.005168292 0.089153096 -0.01762378
000340 3b 47 9d bc fd 67 3b bd a8 b6 40 3d 51 69 ad 3c
       -0.019199004 -0.045753468 0.047049195 0.021168383
000350 f9 40 28 3d 5b 1c 5b bc 80 b2 3a bd 76 83 52 bd
       0.041077588 -0.01337346 -0.045580387 -0.051394902
000360 bb da 45 3d 35 10 66 bd 72 6e 08 3d e1 d0 c1 bc
       0.0483043 -0.0561678 0.033308454 -0.023659172
000370 6b 6d 29 3d 26 13 f6 3c 9c ad b2 bc d3 5e 18 3d
       0.041364115 0.030038428 -0.021811299 0.037199806
000380 42 65 92 bc fa bf 81 bd 78 2b cc 3c 72 48 91 3c
       -0.01787055 -0.06335445 0.024923071 0.01773474
000390 d4 01 a8 3c 6f bd 53 3d ae 36 86 bd ee ed f5 3c
       0.020508684 0.05169433 -0.06553398 0.03002068
0003a0 20 ab 2d bd 28 ee 95 3d a3 54 b9 3c c2 c2 ba bd
       -0.042399526 0.07320815 0.022623366 -0.09119178
0003b0 1a 19 70 3d 1a ce d5 3c 16 ae 6e 3d 54 f5 7c 3c
       0.05861769 0.026099253 0.05827149 0.01543935
0003c0 f3 31 2c 3d aa 82 00 3c 7a 91 0f 3d db d6 96 bd
       0.042039823 0.007843653 0.035050847 -0.07365199
0003d0 cc a7 73 3d 87 9e 0b bd ed 1c 97 3c a0 9a 67 ba
       0.059486195 -0.03408673 0.01844641 -0.00088349916
0003e0 c8 22 c0 bb 74 e6 5e bd 35 44 ef bb 87 a3 d4 bc
       -0.0058635212 -0.054418996 -0.007301832 -0.025956882
0003f0 80 54 84 3c 22 b0 98 3d 1f 51 ef bc e9 a8 95 bd
       0.016153574 0.0745547 -0.029213486 -0.07307608

bias f4 [256]
000000 61 90 2b 3d be ed 02 bd ae 14 d0 bc a3 07 06 3d
       0.041885737 -0.03196501 -0.025400486 0.032722127
000010 63 bd 5c bd 62 43 56 bc f4 4e 17 be 5d eb c8 3d
       -0.05389155 -0.013077589 -0.14776212 0.09810517
000020 71 44 0a bd e8 43 57 3c 82 ef a3 3c 58 01 a8 bd
       -0.033756677 0.013138749 0.020011667 -0.08203381
000030 8f 6f be bc 13 53 29 bd 8f 90 98 bc c2 12 b2 3c
       -0.023246555 -0.04133899 -0.018623618 0.02173746
000040 86 3f 40 be 6e 95 da bd 70 11 28 3b ee 28 ab 3d
       -0.18774232 -0.10673033 0.002564516 0.08357416
000050 d2 80 cf bd 05 d9 d7 bd 71 1d 78 bb f5 32 56 bd
       -0.101319924 -0.1053944 -0.0037859345 -0.05229469
000060 80 09 5a bb b4 cc 43 3c ad f5 21 be c4 c1 4a bc
       -0.0033269823 0.0119506605 -0.15816374 -0.012375299
000070 12 fc 0b bb 2d 9f 0f 3d ba 19 15 3e 59 99 fe bd
       -0.0021359962 0.03506391 0.14560595 -0.124315925
000080 8e 9a 90 3b f7 65 61 3c cf 9f 95 bc e2 41 f1 bd
       0.0044129556 0.0137572205 -0.01826468 -0.11780144
000090 a6 d2 90 3c 51 7f ab bc 73 b0 2d 3c 68 02 57 bd
       0.01767857 -0.020934733 0.010601151 -0.05249253
0000a0 f3 19 1d ba 98 65 ee 3c c2 24 c6 3c c0 ec 67 bc
       -0.00059929414 0.029101178 0.02418745 -0.014155567
0000b0 8a 6b 3c be b4 0f 1d 3d 26 22 f7 bd 18 2f 4c 3b
       -0.18400398 0.038345054 -0.1206706 0.0031156
0000c0 57 84 b3 bd 93 a7 a1 bc cf cb b6 bd d4 06 98 3d
       -0.08765476 -0.019733226 -0.08925592 0.07423177
0000d0 32 06 46 bd 25 4c d2 3c a9 a5 cc bd b1 cf f2 bd
       -0.048345752 0.025671074 -0.09992535 -0.1185602
0000e0 c6 5b 55 bc a0 e8 bb bd d0 67 7a 3c e7 b1 48 3d
       -0.013022369 -0.09175229 0.01528354 0.048997786
0000f0 b7 27 4a bd c8 40 ec 3a 2e 39 83 3d 54 fa 96 3d
       -0.04935428 0.0018024677 0.064073905 0.07371965
000100 c8 bc 92 bc 2f 5f f6 3b bd 04 0f be d2 d5 06 3d
       -0.017912284 0.007518671 -0.13966651 0.03291876
000110 0a b7 ae bb cd 12 08 be 2c 43 dc 3c fb 29 d7 3c
       -0.0053318786 -0.13288422 0.026887499 0.026265135
000120 ea 22 bf 3d bb 1c a5 bd 7a 74 9e bd d1 ab 02 3e
       0.09332831 -0.080621205 -0.0773706 0.12760855
000130 7c f1 e4 bd 6d 05 0c bb 94 e6 db bb 19 1f 03 3d
       -0.11178872 -0.0021365539 -0.0067108367 0.03201208
000140 13 04 f1 bd bb d8 7b bb a7 3e de 3c 33 3a a4 bb
       -0.11768355 -0.0038428742 0.027129484 -0.0050118207
000150 a6 15 ef bc 16 5c ae bd 7e 00 08 be 68 d2 b0 bd
       -0.029185127 -0.08513658 -0.13281438 -0.08633882
000160 09 f9 9c bd 74 af e4 3c 89 f9 77 bb 05 0e 42 bd
       -0.07664687 0.027915694 -0.0037837944 -0.04737665
000170 20 70 a5 3b 0b c6 3d bd fe 72 4b 3c 86 95 5b 3c
       0.0050487667 -0.046331447 0.012417553 0.013402348
000180 9f 94 27 be 93 f9 61 3b dc 5a ba bc f5 ec 0c bd
       -0.16365288 0.0034481033 -0.022748403 -0.034405667
000190 71 22 14 be 8c 31 13 3d 32 34 24 3d 43 3a da bc
       -0.14466263 0.035935923 0.04008884 -0.02663911
0001a0 d7 2c 21 3d 27 f7 ba bc 59 33 0f 3d 29 63 fd 3c
       0.039349403 -0.02282293 0.03496108 0.030931072
0001b0 f0 b3 68 bc 3a 03 13 3d 9e 82 a5 bd 15 f7 d5 3c
       -0.014203057 0.03589175 -0.08081554 0.026118794
0001c0 5d 85 59 3d c5 80 9d bd ef e9 5e 3c 9a 68 66 bc
       0.0531057 -0.076905765 0.013605579 -0.014063025
0001d0 06 80 e9 bd dc c6 e6 3c 06 26 fc 3d 12 cb f2 3b
       -0.11401372 0.028170995 0.1231194 0.007409462
0001e0 f4 d7 18 3c c4 1a 05 bd 4a 08 d1 bd da e7 50 3d
       0.009328831 -0.03249623 -0.10206659 0.05100236
0001f0 5f 49 59 bd 26 f5 8f bc 2f c9 b7 3c 5b 6c dd bd
       -0.053048488 -0.01757295 0.022434799 -0.10811683
000200 96 bf 54 bd 9f c6 a1 3c f4 49 43 bd 84 af 18 3d
       -0.051940523 0.01974803 -0.04767795 0.03727676
000210 1b a4 05 3c d1 29 e3 bd f1 ec 8e bd 23 c5 7c bd
       0.008156802 -0.1109196 -0.06978787 -0.06171144
000220 83 66 56 bb 86 2d 9a bd 88 c1 48 bd 1e 6e ea bc
       -0.003271491 -0.07528214 -0.04901269 -0.028616961
000230 65 89 2f 3d 96 75 54 bd d5 3d 9f bd 8f 73 da 3d
       0.04285564 -0.05186995 -0.077754654 0.10666572
000240 57 a9 56 3d 8b da 11 bc f4 eb 5c 3d 28 7b 6f 3c
       0.05240759 -0.008902202 0.05393596 0.014616765
000250 d2 47 ba 3c ee a6 a5 3d 46 5e ed bc fe f8 90 bc
       0.022739325 0.0808848 -0.028975617 -0.017696854
000260 c5 a2 81 bc b8 7f 28 be 2a 85 47 bd 85 55 98 bc
       -0.015824685 -0.16454971 -0.04871098 -0.018595466
000270 04 a0 48 bb d3 41 92 3c d3 e9 96 3d f7 6b 01 be
       -0.0030612955 0.017853653 0.07368817 -0.12638842
000280 79 45 da 3a 49 d1 46 3d 00 3f 1b be 34 c5 f0 3c
       0.0016652785 0.048539434 -0.15160751 0.029390909
000290 d4 20 62 3d 47 0e c4 bc 12 b6 80 bb 24 b4 f3 bd
       0.05520709 -0.02393259 -0.0039279545 -0.118995935
0002a0 57 4a d3 bd 4d df f5 bd f1 15 3e bd b9 2e 45 bd
       -0.103169136 -0.12005482 -0.046407644 -0.04814026
0002b0 5e 00 f2 bd b3 be f7 3c 6f ea 8a bd 1a da c8 3b
       -0.11816476 0.0302423 -0.06782996 0.0061295154
0002c0 79 bf f6 bc 4d 13 a3 3d 7b 65 ce 3c e6 72 bc bd
       -0.030120598 0.07962666 0.025194874 -0.09201603
0002d0 0a 29 7f bd 7e d3 f0 bc 3b 85 f9 3a 28 e2 02 3d
       -0.062294997 -0.029397722 0.0019036898 0.03195396
0002e0 99 3b 5d bd 0e 47 f3 bd d1 b6 71 3a 19 f7 01 be
       -0.054011915 -0.11878787 0.0009220662 -0.12691917
0002f0 f9 09 c0 bb a2 3b 27 bd 7e 00 ac bc 77 12 00 3d
       -0.005860564 -0.040828355 -0.020996328 0.03126761
000300 72 2c 86 3d a4 ac d2 bc 83 bc 12 3e a4 bc 0b be
       0.06551446 -0.025717087 0.14329724 -0.1364618
000310 82 3b ca 3d 81 4c c3 bc 0c e1 54 bd d8 10 96 bc
       0.098746315 -0.02384019 -0.051972434 -0.018318579
000320 33 68 6a bd b5 1c df 3d b3 d6 75 bd 06 34 9a bd
       -0.05722828 0.10894147 -0.060019206 -0.07529454
000330 62 5f 7d bd 4f 28 05 bd af 8e 9d bd 6b 37 40 bc
       -0.061858542 -0.032509144 -0.0769323 -0.011731963
000340 cb 9a 44 3b 7e 70 01 3c 36 15 75 3c e2 90 d6 3c
       0.002999949 0.007900355 0.01495867 0.026192132
000350 93 2b 93 3c d8 86 fd 3b 25 8a fb bd 29 b4 c5 3b
       0.017965114 0.007737022 -0.12282208 0.0060334397
000360 24 ab af 3d 4d 0c f7 bd 20 de 40 be b7 01 00 be
       0.08577564 -0.12062893 -0.18834734 -0.12500654
000370 27 78 e7 3c a5 eb 04 be c5 ba ee bd 93 2b 04 3d
       0.028255535 -0.12980516 -0.11656717 0.032268118
000380 8b a7 6d bd f0 69 0d 3e e5 71 06 3b fd 9b 19 be
       -0.05802111 0.13809943 0.0020514664 -0.15000911
000390 bc 10 f9 bd f9 fd ac bd 36 aa e0 3c 61 8d c7 3d
       -0.12161395 -0.08446879 0.027424913 0.09743763
0003a0 f7 1f f9 bd a6 b4 5d 3d f6 55 53 3d dc 00 c8 bd
       -0.121643 0.054127358 0.05159565 -0.09765789
0003b0 7e be af ba 9d d3 c7 bd e0 83 8e 3c be b9 89 bd
       -0.0013408212 -0.09757159 0.017396867 -0.06724881
0003c0 6d 1b 96 3b 7d bc d9 3c 61 32 39 bc 58 3e 14 3c
       0.004580906 0.026579136 -0.011303515 0.009048067
0003d0 e7 e8 2c be 29 94 13 be 3b a1 34 bd b4 57 40 bd
       -0.1688572 -0.14411987 -0.044099074 -0.04695864
0003e0 ac 57 99 bd 69 fd 98 bd 62 5b 51 bd 04 59 63 3c
       -0.07487425 -0.07470209 -0.05111254 0.013876203
0003f0 79 1a 9c bd 47 e9 92 bd 88 75 a6 bd 2b 2a 62 3d
       -0.07622237 -0.071734 -0.08127886 0.055215996

weight f4 [512, 256]
000000 05 6c dd bb c8 d4 51 bb 0b a4 73 3c 47 51 18 3d
       -0.0067572617 -0.0032017697 0.014870654 0.037186887
000010 2f fc 9b bb 22 e8 a6 bc b8 ff 4a bc 71 b6 4e 3c
       -0.0047602872 -0.020374361 -0.01239007 0.01261674
000020 59 e5 03 bd 0f 5a 51 3d 38 8d bd 3c 57 fe 3a bd
       -0.032201145 0.051111277 0.023138627 -0.045652714
000030 cc fc 7c bd a4 3e ed 3c c3 7c 1c 3d 61 43 23 3b
       -0.061764523 0.028960533 0.03820492 0.0024911987
000040 35 51 c3 3c 04 50 a0 bd 9b bb 97 3c ee c7 09 3b
       0.023842433 -0.07827762 0.018522074 0.0021023708
000050 df 91 1a 3d d7 19 e8 3c 6c 5a 3d bd d0 3a fe 3c
       0.03773677 0.028332634 -0.04622881 0.031033903
000060 17 b7 5c 3d 37 fd 8a 3c ea 72 80 3c 21 17 6a bd
       0.053885546 0.016966445 0.015679795 -0.057150964
000070 c9 dc 87 bb 37 a3 e8 bc 32 c9 41 bd 28 ea 91 bd
       -0.0041461927 -0.02839814 -0.047311015 -0.0712474
000080 52 d5 d6 bc 56 a1 09 bd 61 03 79 3c 27 2f 47 ba
       -0.026224766 -0.033601128 0.0151985595 -0.0007598274
000090 59 de 14 3b dd 41 cc 3c 7a 66 b0 bd 2a a3 97 3d
       0.0022715537 0.02493375 -0.08613296 0.07404168
0000a0 9a 2d 52 bd 0e 09 46 3c 52 fc 9e bc 89 c0 5b bd
       -0.05131302 0.01208712 -0.019407425 -0.053650413
0000b0 86 e5 d5 3c 72 14 24 bd 14 47 06 bc 0f 02 96 bb
       0.026110422 -0.04005856 -0.008195657 -0.004577882
0000c0 21 d1 b9 bc 4c 65 64 bd a9 91 19 3c 08 8a a5 3c
       -0.022682728 -0.055760667 0.009373107 0.02020742
0000d0 78 b8 05 3c d8 0d 74 bb 27 d1 ec bb 51 50 b1 bc
       0.008161657 -0.0037239697 -0.0072270813 -0.021644743
0000e0 4d 6a 46 bd 31 f7 58 3d 4c ac 4e bd 0c 00 d0 3c
       -0.04844122 0.052970115 -0.050457284 0.025390647
0000f0 44 2d cb 3c 97 b1 7c 3c b2 fe 2d bc f4 55 24 bd
       0.024801858 0.0154232 -0.010619806 -0.040121034
000100 6e 76 26 bd 81 cf c2 bc 45 f2 c9 bc 8b 45 53 3c
       -0.040640287 -0.023780586 -0.024651656 0.012894998
000110 7a c7 02 3d b5 e4 98 3c 42 37 78 3c b5 0c 9f bb
       0.031928517 0.018663744 0.015149893 -0.0048538097
000120 ac 68 62 bd fd 50 a6 bd fe 6e 7e bd 22 b4 86 bd
       -0.055275604 -0.08120916 -0.06211757 -0.06577326
000130 89 00 5a 3c c4 b1 8e 3d 95 81 9f bc 98 b0 c6 bc
       0.013305792 0.069675 -0.01947097 -0.024254128
000140 6c 45 9a bd 83 44 96 3a 87 cf a2 bb 5e 54 74 bd
       -0.075327724 0.001146451 -0.004968587 -0.05965077
000150 9b ef e7 3c 79 a8 ff 3b 6f 4a 6c bd d5 63 be 3b
       0.028312495 0.007802066 -0.057688173 0.0058102407
000160 de a8 3e 3d 47 44 04 bb 7d 93 18 3c 6f ef 5c 3c
       0.046547763 -0.0020182298 0.009312508 0.01348482
000170 97 e6 d2 3c 31 05 2c 3d 65 75 94 3c e0 23 96 bc
       0.02574472 0.04199714 0.018122384 -0.018327653
000180 9b 0c 0c bc 93 cb 76 bd 23 82 f2 3c d6 88 8a bd
       -0.008547927 -0.060252737 0.02960307 -0.06764381
000190 3e 86 a3 3c fb 6d 34 bc 76 11 10 3d d8 d1 0e bc
       0.019961473 -0.0110125495 0.035172902 -0.008717023
0001a0 71 cc 87 bd 8e 13 6b bd 3f 17 fb bc 47 d6 a7 bc
       -0.06630791 -0.057391696 -0.030650733 -0.020487918
0001b0 f3 c0 f9 bc 1e 6c 39 3d 87 39 ac 3b f6 82 96 3c
       -0.030487513 0.045269124 0.005255881 0.018372994
0001c0 12 d2 ce 3c 8b 53 3f 3c d1 ef 9d 39 df c6 03 bd
       0.025246654 0.011677633 0.0003012405 -0.03217208
0001d0 8b d7 32 3d c6 4e 1b bd 98 95 8e 3c dc 66 d0 3c
       0.04366259 -0.03791692 0.017405316 0.025439672
0001e0 d4 78 1b bc cf 5f fc 3c a8 f5 90 3d 34 b7 95 bc
       -0.009489257 0.030807404 0.07078105 -0.018275835
0001f0 49 28 32 3d d1 58 00 3d 2e 85 23 bd fa 2a b0 3c
       0.04349545 0.031334702 -0.039921932 0.021504868
000200 c7 6c 3b 3b cd b6 ad 3c 80 a6 a9 3c 30 6f 4f bd
       0.0028598772 0.02120533 0.020709276 -0.050643146
000210 39 40 88 bd cb f9 c6 bb d3 4f 33 3c 57 8b 03 3d
       -0.066528745 -0.006072258 0.010944325 0.032115307
000220 7b 87 96 bd b7 2c 29 3c a4 16 61 3d ac d1 0d 3d
       -0.073500596 0.010325602 0.054953232 0.034623787
000230 b2 86 36 bc ac a4 96 3c 5a c5 4b bc 91 87 1e bd
       -0.011140512 0.018389069 -0.012437189 -0.038703505
000240 99 2e 52 bd 7b 50 a5 3c bd 31 46 3d 62 1f 05 3d
       -0.05131397 0.020179978 0.048387278 0.032500632
000250 df 64 fe bb a8 8a 96 3c c4 e7 9c 3c 98 bd 0d 3b
       -0.0077634896 0.018376663 0.019153483 0.00216279
000260 8b 04 c2 3c 57 9e 43 3c bf de ff bc f7 74 45 bb
       0.023683807 0.011939607 -0.031234143 -0.003012953
000270 c0 4b e0 3c 57 23 5d bd 40 da 0d bd aa 58 5b 3d
       0.02737987 -0.05398878 -0.034631968 0.053551354
000280 e1 66 ff bc da ed 60 bd c2 d5 af bc b9 94 28 bd
       -0.031176986 -0.054914333 -0.021464232 -0.041157458
000290 de 8d 05 3c b8 0f c7 bc fc 6c e5 bc 56 37 e2 3c
       0.0081515 -0.024299487 -0.02800607 0.027614277
0002a0 16 59 51 bd ee 9c 08 3d 1d 6e 0a bd ae d8 ad bc
       -0.05111035 0.033352785 -0.03379642 -0.021221485
0002b0 1c 18 01 bd 34 36 c4 bc 73 38 0c bd f9 d0 ea 3b
       -0.031517133 -0.023951627 -0.03423352 0.0071660248
0002c0 3b ce c9 bc 22 ed d8 bb 06 45 a8 bc ea 4b 08 3d
       -0.024634471 -0.0066200653 -0.020540725 0.033275522
0002d0 5f 5e 55 3d 91 c4 3a 3d 55 eb d4 3c 9b e9 7c 3d
       0.052091952 0.045597617 0.025991121 0.06174622
0002e0 1b 6e fe bb da 33 7b 3d 6f 3f a0 bd 7d fd 36 3c
       -0.0077645904 0.061328746 -0.07824599 0.011168835
0002f0 52 27 25 bc 13 cc 64 3d 50 a5 a6 bc aa 1a 09 3d
       -0.0100801755 0.055858683 -0.020342499 0.033472694
000300 d6 09 17 3d 2d 6a c9 bc 39 4c 5f bb 17 a9 4d bd
       0.036874615 -0.024586761 -0.0034072532 -0.050210085
000310 a2 f2 1e 3c 85 b5 3b bc 61 c1 86 3d e4 4d 47 bd
       0.009701403 -0.011456852 0.06579853 -0.048658267
000320 62 01 0f 3d 86 22 5a 3d 12 4a 22 3d ea 1d c2 bc
       0.034913428 0.05325558 0.03962142 -0.023695905
000330 86 b1 ab bc 4b bd 0a bc 73 61 ba bd 1e 51 13 3d
       -0.020958673 -0.0084679825 -0.09100618 0.03596603
000340 0f ba 6b 3b 5d ff 02 bc a0 e3 82 3d 0e a8 4b 3d
       0.0035969054 -0.007995454 0.06391072 0.049720816
000350 f3 db 22 3d 21 c0 32 3d f9 fa 7f 3c 87 ac 95 bc
       0.03976054 0.04364026 0.015623801 -0.018270744
000360 b2 31 01 3c b9 a4 4b bd f3 65 25 3d 01 37 28 3d
       0.007885383 -0.04971764 0.04038043 0.04106808
000370 fb fc cc 3c e4 9e 5d bd 33 ca 26 bc ca 1b 11 3d
       0.025022974 -0.054106608 -0.010180044 0.035426892
000380 9c 23 5c bd 0f 32 4b 3d f0 e5 30 3d 3a 33 13 bd
       -0.053744897 0.049608286 0.043188035 -0.035937525
000390 98 3d 25 bc fa 8b 93 bd 0b f4 ce 3c bf 61 6b bd
       -0.010085486 -0.07204433 0.025262853 -0.057466265
0003a0 8e 73 dd bc 7f 1e 98 3d 8f f6 c7 3c dd 65 7e bc
       -0.02703264 0.07427692 0.02440956 -0.015527216
0003b0 ee 3c f8 bc 19 c2 cc bc 4c dd 88 bd 80 10 b7 3c
       -0.030302491 -0.024994897 -0.06682834 0.022346735
0003c0 69 1e 16 bd b5 e1 77 bd 5e 60 3c 3d 1a de 6b 3c
       -0.036650095 -0.060517985 0.04599034 0.014396215
0003d0 25 eb 42 bd d1 77 c8 bc 04 c5 93 3c e2 d7 19 3d
       -0.047587533 -0.024471195 0.01803828 0.037559398
0003e0 0e ec 8f bd 38 5a 80 3d 75 ea 38 bd 9a bf 0e bd
       -0.07027446 0.06267208 -0.04514547 -0.034850694
0003f0 9f 78 b5 3b e8 b9 86 bd d9 8c 0c bd d2 ea 62 bd
       0.005538061 -0.065784276 -0.03431401 -0.055399723

bias f4 [512]
000000 84 4e 83 ba 8d 84 ac bc ed 2d ca 3b 7d 62 aa bc
       -0.0010017906 -0.021059299 0.0061700256 -0.020798916
000010 b7 23 2d bc be fe ac 3c 4a fa 69 bd 9e 23 a7 ba
       -0.010567597 0.021117564 -0.05712346 -0.0012751704
000020 45 0b a8 bc b9 bb 7f 3c a1 c8 55 3c 4d 79 8d bd
       -0.020513186 0.015608721 0.013048322 -0.06907902
000030 80 70 56 bd 32 63 f5 bc 9b 35 20 bd f4 e1 9c bd
       -0.052353382 -0.029954527 -0.039113622 -0.07660285
000040 fc 27 8b bb 0e ac 8c 3c 5a ce 2b 3c c5 5d fc 3c
       -0.00424671 0.017171886 0.01048621 0.030806432
000050 3d 34 33 bd 99 2d 53 ba de 1d 16 bd 08 2e a2 3c
       -0.04375099 -0.0008055806 -0.036649577 0.01979734
000060 a9 5e 3d bd 4e fc 4c bb fe a8 87 bc c3 be f2 3b
       -0.046232853 -0.0031278315 -0.016560074 0.0074079945
000070 2f 87 38 3d d5 d1 0d bd 36 0c 42 bd 89 df 25 bd
       0.045050796 -0.03462394 -0.047374927 -0.040496383
000080 b4 c6 76 bd 7d 90 a9 bc 2b f0 8d bb 7c 2f 5b 3d
       -0.06024809 -0.02069878 -0.004331609 0.05351208
000090 ba 6c 56 3c c6 cf 7a bb e1 e1 14 bd 06 be 86 3d
       0.013087446 -0.0038270815 -0.036348227 0.06579213
0000a0 dd 1b 06 bd 06 87 3b b9 df bd 93 3c d7 8b 39 bd
       -0.032741416 -0.0001788401 0.018034874 -0.045299377
0000b0 b4 63 51 bd 0d bc 48 bd 86 a0 1c 3b e2 0b 04 bd
       -0.051120475 -0.049007464 0.002389939 -0.032237895
0000c0 2d 3b e7 bc 2c e8 69 bd 19 01 14 3c 0d 92 b5 3c
       -0.02822646 -0.057106182 0.009033465 0.022164369
0000d0 86 f2 2c bd 28 27 0a bd b8 f5 86 bd 60 63 0f bb
       -0.042223476 -0.03372875 -0.06589836 -0.00218793
0000e0 e9 95 ff 3c 0c 52 36 3d c7 fc 56 3b 09 9d e4 3c
       0.031199412 0.04451184 0.0032804476 0.027906911
0000f0 19 66 50 bb 59 6d 00 3b c5 b1 c7 bc bd 11 f6 bc
       -0.0031799136 0.0019596426 -0.02437676 -0.030037755
000100 f9 96 83 bd ec af ea bc 6e 2d 27 3c e8 55 12 3d
       -0.0642528 -0.02864834 0.010203702 0.035726458
000110 be 6c 8f bc d4 9c 33 3d f2 a3 4b bd 2a 38 29 3c
       -0.017507907 0.043850735 -0.049716897 0.010328332
000120 be 98 fb 3c d7 37 19 3c c8 fe a5 3c ad d9 9d bc
       0.030712482 0.009351692 0.02026309 -0.019268835
000130 a0 27 47 bd 94 e1 f3 bc 24 2a 04 3d ff 70 9a 3b
       -0.048621774 -0.02977065 0.03226675 0.004713177
000140 87 b3 ac 3c d3 7d 88 bc 6e 36 15 3b 2b c6 7d bc
       0.021081699 -0.01666156 0.0022768038 -0.015489141
000150 7d b0 8a bd 7e 0d e8 3c 31 60 1f 3d 60 18 dc 3c
       -0.06771944 0.028326746 0.038910095 0.026867092
000160 e3 86 ec 3b 23 04 96 bd 94 b5 f6 bc ff 82 54 3b
       0.007218228 -0.07325008 -0.03011588 0.0032426713
000170 ac 87 81 bd 0f e0 7a bd 91 80 46 3b 0e 47 28 3d
       -0.063247055 -0.061248835 0.0030289034 0.041083388
000180 69 67 e6 ba ea 1d 85 3b c8 ce 50 bd 81 f8 2c bc
       -0.0017578426 0.004062404 -0.050978452 -0.010557295
000190 d9 18 82 bb f6 1a 77 bd 63 f6 3d bc 55 c7 38 bb
       -0.003970247 -0.060328446 -0.011594388 -0.0028194983
0001a0 00 39 83 bd 6b 5f fd bb a3 89 ff bc b4 6a c6 3c
       -0.06407356 -0.007732322 -0.03119356 0.024220802
0001b0 b9 81 ca bb eb e6 2c 3d f7 a5 a5 3c e8 be c8 bc
       -0.006180015 0.042212408 0.02022074 -0.024505094
0001c0 cd d5 d6 bb ec 86 1e bd 78 81 29 bc 83 2b 85 bc
       -0.0065562488 -0.03870289 -0.010345809 -0.0162561
0001d0 03 81 4f 3d f1 44 ae 3c 90 d3 06 3d 1a 3b 13 3c
       0.050660145 0.021273108 0.032916605 0.008986259
0001e0 d5 68 6c bc 41 8e 2b bd 72 fc dc 3c 5a ab 04 3d
       -0.014429291 -0.04188371 0.026975844 0.032389976
0001f0 23 98 97 3c 0c 6e f1 3b fb b3 fa 3c 44 36 fb 3c
       0.018505162 0.007367855 0.0306034 0.030665524
000200 f2 2f 38 3c d1 20 bc bc 67 b4 1e bd e3 88 43 3d
       0.0112419 -0.022964867 -0.038746264 0.047737967
000210 50 16 7e bb 56 63 09 bd 9b 72 5b bd 6e b9 8b bc
       -0.0038770624 -0.033542 -0.053576093 -0.017056193
000220 80 6f cd 3a 2a 71 42 bd ff 9e 64 3d 76 53 c6 bc
       0.0015673488 -0.047471203 0.055815693 -0.02420972
000230 4b bc 06 3d 87 91 36 3d 32 92 9c 3c 72 9a 48 3b
       0.032894414 0.04457238 0.01911268 0.0030609635
000240 1b dd 09 3c ef 25 6c 3d 12 47 39 bc 82 7d 64 bd
       0.008414532 0.057653364 -0.011308448 -0.055783756
000250 19 0b 79 3c f8 19 35 bd c9 d5 ab bc 3a f7 53 3d
       0.0152004 -0.04421422 -0.020975964 0.051749445
000260 b7 06 46 bd 39 06 f4 bc 01 bc 22 bd ea 15 58 3d
       -0.048346248 -0.029788123 -0.039730076 0.052755274
000270 f0 51 59 bd d3 31 b0 bb 69 04 82 bd dc f7 a5 bc
       -0.053056657 -0.0053770333 -0.063484974 -0.02025979
000280 b8 2d 39 3d 6e 32 ee 3c f4 65 2f 3d ad 98 6e bd
       0.045209616 0.029076781 0.04282184 -0.05825107
000290 e4 1c 8b bc fe 76 db bc 92 cc 8a 3d 54 0c 70 3d
       -0.01698155 -0.026790138 0.067773 0.058605507
0002a0 a3 fb 72 3c f1 18 51 bd dd 12 1b 3d d0 71 8f bd
       0.014830503 -0.051049177 0.037859786 -0.0700413
0002b0 ed ca 62 3c bf d3 f4 bc 83 0e 57 3d f9 29 35 bb
       0.013842327 -0.029886125 0.052504074 -0.0027643426
0002c0 ba 7c 4a 3d 6d e3 d3 37 17 cc 15 3d 45 ef 90 bd
       0.049435355 2.5259063e-05 0.03657159 -0.07076887
0002d0 ec f7 4e bd 85 d6 e9 bc b4 be 20 bd c5 d1 69 3d
       -0.050529405 -0.028544674 -0.03924437 0.057084817
0002e0 4c ac cd 3c 44 6e 1a bd 8e 9e 9f 3c a1 e6 1f bd
       0.025106572 -0.037702814 0.019484784 -0.039038304
0002f0 ba ac 09 3d a1 c4 aa bc 23 9a 46 3c f0 83 04 3b
       0.03361199 -0.020845713 0.01212171 0.0020220242
000300 6e 7b b7 bc b7 75 00 3c e1 cc 0f 3d 14 07 5b 3c
       -0.022397723 0.007840565 0.035107497 0.013368387
000310 4c 0f 3c bd 21 b0 3e 3d e0 50 e6 3c ee d6 6e 3c
       -0.045913026 0.04655469 0.028114736 0.01457761
000320 5e 88 be 3c a1 97 a6 3b 98 0f 02 3c 36 ea 5e bd
       0.023258384 0.0050839935 0.007938288 -0.05442258
000330 a6 e1 00 bd 12 57 c6 3c 34 f6 5f bd 21 29 46 bd
       -0.031465195 0.02421144 -0.054678157 -0.048379067
000340 52 ae 54 bd f7 b9 a7 bc 4c a8 4e 3d 41 ba d3 bc
       -0.051924057 -0.020474417 0.05045347 -0.025845649
000350 f2 06 12 3d 6e 62 3d 3d ae 69 7d 3c 60 ce 87 bd
       0.035651155 0.046236448 0.0154670905 -0.0663116
000360 89 fe 05 bc 59 de 2b 3d 03 25 6c bc d6 24 b6 3c
       -0.008178362 0.041960094 -0.014413121 0.022234362
000370 29 9d 55 3d 2d d0 8b 3b 56 60 30 bd 9f df 07 3a
       0.052151833 0.00426676 -0.043060623 0.00051831634
000380 ba 74 7e bd 99 d3 21 3d b5 95 b7 3c c7 02 03 3c
       -0.062123038 0.039508436 0.022410253 0.007996268
000390 3a be 87 bd eb 0e 2a 3d 80 b5 97 3a d5 f4 91 bd
       -0.0662808 0.041518133 0.0011574477 -0.07126776
0003a0 3a 58 cb bc 53 7c 0a bd 37 d2 c4 bc 44 19 29 bd
       -0.024822343 -0.03380997 -0.02402602 -0.04128386
0003b0 be cd 64 3d 87 1f bc bc 62 d7 13 bd ae 8b 1c 3d
       0.055860274 -0.022964252 -0.036094077 0.038219146
0003c0 d9 2c 40 bb 91 ed 64 3c 8f bd 7b bd 65 5f 91 bc
       -0.0029323606 0.013972656 -0.061460074 -0.017745683
0003d0 ea ad 05 3d 0f c7 1e 3b 17 7c 1e bd a0 f8 cd 3c
       0.03263656 0.0024227535 -0.03869256 0.025142968
0003e0 f5 f0 a9 3c 31 06 7d bc 68 56 74 bd bb 6f 90 3c
       0.02074478 -0.015443371 -0.059652716 0.017631402
0003f0 73 a5 12 3d 6e a0 e3 bc 0c 38 5b bd c0 ea 63 bd
       0.035802316 -0.02778646 -0.053520247 -0.055643797

weight f4 [20, 512]
000000 bd d3 57 3b 09 34 8a bd d5 f1 15 bd e5 08 0d 3d
       0.0032932602 -0.06748206 -0.036607582 0.03443231
000010 21 46 d4 3c d4 c5 62 bd 63 2d c5 3c 1b 61 84 3d
       0.025912346 -0.055364445 0.024069494 0.06463834
000020 a8 b3 50 bd b6 f0 f6 3c 81 2c 3b bd bc ac 01 3b
       -0.050952584 0.030144077 -0.04569674 0.0019786796
000030 ce e3 39 3c 57 af d3 bb 59 89 e4 3c c7 49 60 3d
       0.011345817 -0.006460111 0.027897524 0.05475786
000040 f0 c9 ad bd 66 79 42 3c 31 36 51 3c 63 db 39 bd
       -0.08485782 0.011869764 0.012769268 -0.04537524
000050 c3 6d c3 3c c1 4a 8d 3c 57 98 f1 bb b4 48 cd 3c
       0.02385605 0.01724756 -0.0073728967 0.025059082
000060 83 52 3c 3d 85 a3 1f 3c 0f a9 08 3c b2 bf f9 3c
       0.045977127 0.009743576 0.008341088 0.030486915
000070 7b 09 36 bd f4 d0 35 3d 46 c5 d1 bc c5 6d 6c bd
       -0.044442635 0.044388726 -0.025606763 -0.057721872
000080 bd 91 9e bc 97 51 2a 3b 23 47 3f bd e9 ff 9e bc
       -0.019356603 0.0025988573 -0.0466987 -0.019409137
000090 08 35 43 bc 0c f1 ea bc c1 11 32 bd cd 90 17 bd
       -0.011914499 -0.028679393 -0.043473963 -0.037003327
0000a0 9c c4 08 bd 86 4d 22 3d ec e0 95 3c 80 8b 27 bd
       -0.033390626 0.039624713 0.018295728 -0.040904522
0000b0 8b 52 6b 3b e4 39 10 3d a5 8c 25 3d 3e 6b 0c bc
       0.0035907354 0.03521146 0.040417332 -0.00857049
0000c0 9e ed da 3b ec 98 a8 3c d5 70 0b 3c fa 9a 3b 3d
       0.006681158 0.020580731 0.008510788 0.045802094
0000d0 58 64 3f 3d bd 42 8c bb 06 e0 15 bd 91 e0 4b 3c
       0.046726555 -0.0042804168 -0.0365906 0.0124436775
0000e0 9d e0 6b bd 3e 20 cd bc d8 60 14 3d 63 84 29 3c
       -0.057587255 -0.025039788 0.03622517 0.010346505
0000f0 86 e3 2c 3b 1c f1 29 bc ce df 66 bd 68 65 c7 bb
       0.0026380732 -0.010372426 -0.05636578 -0.0060850866
000100 80 ab 67 3d 09 63 b3 3d cc 2e a5 bc 22 da ea bb
       0.05656004 0.08759124 -0.020163916 -0.0071671167
000110 86 68 72 3d c1 db ae bd 5d 38 f3 bc 77 fb 45 3d
       0.059181713 -0.085380085 -0.029689962 0.04833552
000120 53 6d 91 bc fd 08 3b 3d 73 df a1 3c 35 68 54 3b
       -0.017752325 0.04566287 0.01975987 0.0032410745
000130 5f e3 2e bd cc 68 92 3c c7 21 02 3d ff 6a 1c 3d
       -0.042697307 0.017872237 0.031770494 0.038187977
000140 e4 0c 06 bd 99 1b 08 3d ca 96 4b bc 6c 88 6c bd
       -0.032727137 0.033229444 -0.012426088 -0.05774729
000150 58 6f 3c 3d ef 7a 68 bb fa 88 04 bd ef 39 7f 3c
       0.046004623 -0.0035473665 -0.032357194 0.015577777
000160 15 a9 8d 3c 52 1d 22 bc 8f f8 e5 3c 4f 66 23 3d
       0.017292539 -0.009894686 0.028072624 0.03989249
000170 c6 1e 6c 3c 53 c7 82 3a 12 64 46 bd fd f7 80 3d
       0.014411634 0.0009977616 -0.04843528 0.062973
000180 b7 d9 0e bd 25 8a 45 3d b0 09 65 3d 19 30 de 3c
       -0.034875598 0.048227448 0.05591744 0.027122544
000190 f2 d8 54 bd fc 29 e9 bc c3 7d 21 3d 06 4e 3e 3d
       -0.051964708 -0.028462403 0.039426576 0.046461128
0001a0 b0 25 d8 3c 88 4b d4 bc d1 ba 4d 3c 33 9d 35 bc
       0.026385158 -0.025914922 0.0125567475 -0.0110848425
0001b0 1a 6e 8d 39 e1 cb e7 bb 43 e8 be bc f2 63 36 bd
       0.00026975648 -0.007073865 -0.02330411 -0.04452891
0001c0 fd 13 99 3d 4d 43 b8 bc 09 8f 5f bd ab ad fa 3c
       0.074745156 -0.022493029 -0.05457977 0.03060039
0001d0 e2 64 55 bd 46 f8 66 bd 77 0f c0 3c f5 bd 12 3d
       -0.052098162 -0.056389116 0.023444874 0.03582569
0001e0 be 35 94 3c fe d7 05 3c 18 a7 f8 3b a5 42 a1 bc
       0.018092033 0.008169172 0.0075882785 -0.019685099
0001f0 4b c0 59 3b 46 c6 af 3c 5d 88 55 bc 42 30 9a bc
       0.0033226188 0.021456849 -0.013033 -0.01882184
000200 bd 77 a8 3c 92 a3 e2 bc ed 1d 26 3d b6 e7 9d bb
       0.020564908 -0.027665887 0.040555883 -0.004818882
000210 48 32 aa bd 82 5b ca 3c 07 98 dd bc 0e 6f 6d 3c
       -0.08310372 0.024701837 -0.027050031 0.0144918095
000220 c8 aa 6b 3d f1 a7 81 bd 87 6f e8 bc d2 d8 0a 3b
       0.057535917 -0.063308604 -0.028373493 0.0021186364
000230 60 47 ea 3c 6f 6e 21 bd 2a 9e 13 bd 11 89 fe 3c
       0.028598487 -0.03941196 -0.03603951 0.031071218
000240 d0 fd ec bb d2 f9 29 bd 79 5e 1a bc 9b 99 9c 3c
       -0.0072324052 -0.041498013 -0.009421938 0.019116214
000250 16 32 91 bd b2 83 3e bc 6c e4 52 3b 4c 1d ee 3c
       -0.07089631 -0.011628078 0.0032179607 0.029066704
000260 5d 1e ba 39 41 2a 18 3d 13 c0 e3 3b f2 97 82 3d
       0.00035499307 0.03714967 0.0069503873 0.063766375
000270 28 27 17 3d e3 d1 91 3c 85 d0 01 3c f5 97 5f 3d
       0.036902577 0.017800277 0.00792325 0.054588277
000280 04 e1 3c bc 39 02 6c 3d 70 6d 61 3d bf a2 8d bc
       -0.011528257 0.057619307 0.05503601 -0.017289517
000290 ed 72 0f 3d ee ae ff 3c ed 1e fa 3c f8 8d 0c 3d
       0.03502171 0.031211343 0.030532325 0.03431508
0002a0 a5 20 03 3d 0f 16 eb bc e8 b1 0d 3c 1b 4d fc 3c
       0.032013554 -0.028697042 0.008648373 0.030798486
0002b0 cc 21 07 bd e5 6f b5 bc 16 40 90 3d 14 72 e3 bc
       -0.032991216 -0.022148082 0.070434734 -0.027764358
0002c0 8f f0 f8 3b 85 b0 9a 3d ab 98 b6 bc 90 6a 9d bc
       0.007597036 0.075532 -0.022289595 -0.019215852
0002d0 05 68 80 bc 4a b1 bb bc 2f 49 5c bd 10 1d 8e bc
       -0.0156746 -0.022911686 -0.05378073 -0.017347842
0002e0 24 32 0f 3d ef 76 b4 bc 88 8f 84 b9 45 cb ff bb
       0.034959927 -0.022029368 -0.0002528394 -0.007806214
0002f0 05 11 95 3d 8f f8 0d bd 0c 77 fb 3b 99 cc 9f 3c
       0.07278637 -0.034660872 0.0076741036 0.01950674
000300 e9 9e fc bc a4 d7 31 bc 33 4d 3b bc f5 04 b7 bc
       -0.030837493 -0.010854635 -0.01143198 -0.02234123
000310 ed 64 53 bd 27 d8 13 3d 58 5b 27 3d 4b ae 68 3c
       -0.051609922 0.03609481 0.040858597 0.014201711
000320 5e 3c 13 3c 43 1b 62 3d 9c b6 84 bd 10 fa 0c bd
       0.008986561 0.05520178 -0.064801425 -0.034418166
000330 91 54 0b 3b 33 d5 6f bd af 25 df bc 71 93 58 bc
       0.0021260122 -0.058552932 -0.027239649 -0.0132187465
000340 b5 c7 00 3d cd bc aa bc 8d 00 a3 3c 5f 31 20 bc
       0.031440455 -0.02084198 0.019897724 -0.009777396
000350 98 3c 19 3d 06 72 72 bd 43 89 00 3d ef 77 3d 3c
       0.037411302 -0.059190772 0.031380903 0.011564239
000360 48 79 8f bb 63 35 64 bd 77 ac 10 bc 8d 49 1b 3c
       -0.0043784715 -0.055714976 -0.008830181 0.009477985
000370 a5 5e bf 3c 70 d8 1a 3c ba 48 5e 3c c1 58 1b bd
       0.02336056 0.009451017 0.013567144 -0.03792644
000380 9f dc cc 3b f6 5b c3 3c 26 04 27 bd 41 f6 4a bc
       0.006251886 0.023847561 -0.04077544 -0.012387813
000390 45 9c 6b 3c c0 f2 a0 bc ba fb 93 3d 87 41 38 bc
       0.014380519 -0.019647002 0.072257474 -0.011246092
0003a0 40 5a e2 bc 24 bc 7d bc 24 50 02 bd ef dc 3b 3d
       -0.027630925 -0.015486751 -0.03181471 0.045864996
0003b0 63 51 5b 3c e0 d4 b0 bd 8d 56 52 3d 92 df 5d 3d
       0.013386103 -0.08634353 0.051352073 0.05416829
0003c0 37 f8 31 bc 4f ab 90 bd 15 16 49 3d 8a 10 07 bd
       -0.010862402 -0.070639245 0.049093325 -0.032974757
0003d0 9a 70 2e 3d ba 46 7a bd 30 3e 3a bd 69 4b 8c 3c
       0.042587854 -0.061102606 -0.045469463 0.017125802
0003e0 5b 72 18 3d e8 ae 47 bd de 7f 93 3c 99 c2 3a bd
       0.037218433 -0.048750788 0.018005308 -0.04559574
0003f0 4c 07 5c 3d 0c 0d b6 bb 00 95 8f 3c cf 4d 2e 3d
       0.053717896 -0.0055557545 0.017527103 0.042554673

bias f4 [20]
000000 d1 62 20 bd a5 ad 27 3c 41 00 29 3b d3 eb a5 3c
       -0.03915674 0.010234271 0.0025787505 0.020254051
000010 c8 90 92 bc fe f6 aa 3c 58 e8 50 3c 2e 8b 80 bc
       -0.017891303 0.020869728 0.012750708 -0.015691366
000020 4f d0 85 3c 54 f7 01 3d ad 3f 40 bc 3c 94 32 bc
       0.01633468 0.03173001 -0.0117339315 -0.0108996
000030 8c 7a 4d bd af f7 91 3c 38 e2 f1 3c 30 6a c7 bc
       -0.050165698 0.0178183 0.029526815 -0.024342626
000040 9e 30 e1 bc 44 94 10 3d ce 20 dc bb 9e 5c 5b 3d
       -0.027489003 0.035297647 -0.006717778 0.053555124
