WGAN_pt/G1.pt (torch, 673751 bytes, 6 tensors)

weight f4 [256, 100]
0	0xbc485cf1	-0.01222919
1	0x3d407764	0.04698886
2	0x3db9e9dd	0.09077809
3	0x3d0f385a	0.03496585
4	0xbbae5166	-0.005319762
5	0xbd41cb69	-0.047313128
6	0x3d62a4c0	0.0553329
7	0x3db01f68	0.0859974
8	0x3c5f1377	0.013615481
9	0xbd21eb5d	-0.0395311
10	0xbd765c90	-0.06014687
11	0x3d88d477	0.066811495
12	0x3d2d7d69	0.04235593
13	0x3cdf199e	0.027233895
14	0x3d04dd24	0.03243746
15	0xbd09633d	-0.033541907
16	0x3c9fcae7	0.019505931
17	0x3ce77889	0.028255718
18	0x3d9d850f	0.076913945
19	0x3d5b5858	0.053551048
20	0xbd4063b9	-0.046970103
21	0xbd60c24c	-0.054872796
22	0x3c4bfe30	0.01245074
23	0x3db0120b	0.085971914
24	0xbd13d74b	-0.03609399
25	0xbd64667f	-0.05576181
26	0xbd660402	-0.056156166
27	0xbceb9036	-0.028755289
28	0x3dac396d	0.084093906
29	0x3d7a6d73	0.061139535
30	0xbd4d33e5	-0.05009832
31	0x3d00dd60	0.03146112
32	0x3dafee43	0.08590367
33	0x3cffeb53	0.031240141
34	0xbd5040f4	-0.050843194
35	0x3cc00fa8	0.023444965
36	0xbac5f8c8	-0.001510405
37	0xbbbf4c4f	-0.005837954
38	0x3d08dc20	0.033413053
39	0x3ac5e480	0.0015098006
40	0x3db757c5	0.089522876
41	0xbd211d18	-0.039334387
42	0xbbafdb3f	-0.0053667123
43	0x3cde4c76	0.027136069
44	0xbda5ecf3	-0.08101835
45	0x3d4450a9	0.047928486
46	0xbd98baa7	-0.07457476
47	0x3d8b3dc6	0.06798892
48	0xbcd959bd	-0.026532048
49	0xbda5fcd1	-0.081048615
50	0xbd625f25	-0.05526652
51	0xbd414582	-0.04718543
52	0xbd22dadc	-0.0397595
53	0x3d6bf6c2	0.057608373
54	0x3d941500	0.07230568
55	0x3b4dc330	0.0031396858
56	0xbb232b0b	-0.0024897482
57	0xbca7e051	-0.020492705
58	0xbd87eab2	-0.066365615
59	0xbc376d0b	-0.011195431
60	0xbcbd6a16	-0.023121875
61	0x3d8a9a7a	0.06767745
62	0x3d08e42b	0.033420723
63	0x3d998047	0.0749517
64	0x3d661434	0.05617161
65	0xbd11b5a1	-0.035573605
66	0xbb2d6fa9	-0.002646426
67	0x3dbfdbb3	0.09368076
68	0xbd357b86	-0.044307254
69	0x3d471afe	0.048609726
70	0x3c2f8f49	0.010715314
71	0xbabfa8ab	-0.001462241
72	0xbd30bb0c	-0.04314713
73	0x3cc48018	0.023986861
74	0x3cc50504	0.024050243
75	0xbce4c173	-0.027924275
76	0xbcfd70dc	-0.030937605
77	0xbcb9b49f	-0.022669135
78	0xbd43ecd7	-0.04783329
79	0x3ce7cad2	0.028294954
80	0xbcadce36	-0.021216493
81	0x3d1bf715	0.038077433
82	0x3ce17b57	0.027524633
83	0x3d779643	0.060446035
84	0xbd90ccc9	-0.0707031
85	0xbc14e4f0	-0.009087786
86	0x3d21b8e7	0.039482977
87	0x3d650244	0.055910364
88	0x3ca1c4b4	0.019747116
89	0xbce4322f	-0.02785596
90	0x3d06af69	0.032882128
91	0x3d2543cc	0.04034786
92	0xbc011f94	-0.007881064
93	0x3a8ef836	0.0010907713
94	0xbd56682d	-0.052345444
95	0xbd1fc6d1	-0.039007965
96	0x3b86f5c2	0.004118652
97	0xbd436f31	-0.047713462
98	0x3b840864	0.0040293206
99	0x3d943943	0.07237484
100	0xbd6a878b	-0.05725817
101	0xbd341574	-0.04396577
102	0x3bad2eb2	0.0052851075
103	0xbcc0af0d	-0.02352097
104	0xbd65d71e	-0.056113355
105	0xbd41743e	-0.047229998
106	0xbc45cff3	-0.012073505
107	0xbcd50619	-0.026003884
108	0x3cdb4523	0.026766365
109	0x3d9a0855	0.075211205
110	0xbcfae36b	-0.03062602
111	0x3d727373	0.059192132
112	0x3d632a9f	0.05546057
113	0x3c5b4ca8	0.0133849755
114	0x3d00c6b8	0.031439513
115	0xbd09a1fe	-0.033601753
116	0xbd8ea455	-0.069649376
117	0x37f8392e	2.959053e-05
118	0x3ce1d645	0.027567992
119	0x3d11709a	0.035507776
120	0xbce1d64c	-0.027568005
121	0xbd11fb12	-0.03563983
122	0x3caf5ae1	0.02140564
123	0xbcab7fcd	-0.020934964
124	0x3d9654af	0.07340371
125	0x3d0a511b	0.033768754
126	0xbd78e3a8	-0.060763985
127	0xbb640bfc	-0.0034797182
128	0xbd85696d	-0.06514249
129	0x3bf4db64	0.0074724425
130	0x3b6b61bd	0.003591641
131	0xbda6b4a1	-0.08139921
132	0x3c5386fb	0.0129106
133	0x3c00d301	0.007862807
134	0x3daef648	0.08543068
135	0x3dab75b0	0.083720565
136	0x3cdb9e8b	0.026808998
137	0xbdbfce2b	-0.09365495
138	0x3d967d8d	0.07348166
139	0xbd311f04	-0.04324247
140	0xbcca2781	-0.02467704
141	0x3c4d3aa6	0.01252619
142	0x3c0a25d1	0.008431868
143	0x3d2fb852	0.04290039
144	0x3d3c3755	0.045951206
145	0xbab13f45	-0.0013522884
146	0x3d998d78	0.07497686
147	0x3c2a3960	0.010389656
148	0xbcdbf70f	-0.026851205
149	0x3d83fb51	0.06444419
150	0x3d0359ff	0.03206825
151	0xbd86d5db	-0.065837584
152	0xbda83080	-0.08212376
153	0xbc6ac082	-0.014328124
154	0xbcede58e	-0.029040124
155	0xbd5aa2e7	-0.053378012
156	0xbdab6a71	-0.083699115
157	0x3c909402	0.0176487
158	0x3db4e115	0.088319935
159	0xbd0fc917	-0.035103884
160	0xbcb85e75	-0.022505978
161	0xbd62af39	-0.055342887
162	0xbc1eec30	-0.009699866
163	0x3c5de394	0.013543028
164	0xbdc487be	-0.09596203
165	0xbcb1f30b	-0.021722337
166	0xbcf18e02	-0.02948666
167	0xbd40728f	-0.04698425
168	0xbb7f2ba6	-0.0038935929
169	0xbdc9c815	-0.09852616
170	0x3d2e0215	0.042482454
171	0xbd2acee3	-0.04170121
172	0xbc443be8	-0.011977173
173	0xbda138af	-0.0787214
174	0xbd595360	-0.05305803
175	0x3b86776b	0.004103591
176	0x3ac8998f	0.0015304553
177	0xbd4b8065	-0.049682993
178	0xbd50bed0	-0.050963223
179	0x3c83a874	0.016071536
180	0xbd34eda9	-0.044171963
181	0xbcb67a3e	-0.022275086
182	0x3d47abe6	0.04874792
183	0xbc825525	-0.01590974
184	0xb951bcd6	-0.0002000214
185	0xbaacfc28	-0.0013197707
186	0x3cc258b8	0.023723945
187	0xbd8923e3	-0.06696298
188	0x3d5dd30d	0.05415635
189	0xbd88ed08	-0.06685835
190	0xbc64753d	-0.013943967
191	0xbd9f70cc	-0.07785186
192	0x3d182c2a	0.037151493
193	0xbd2a5e27	-0.041593697
194	0xbc3a956e	-0.011388166
195	0xbd614446	-0.05499675
196	0xbd12c40c	-0.035831496
197	0x3d892bcb	0.06697806
198	0xbccb3e9c	-0.024810128
199	0xbd8ddf29	-0.0692733
200	0xbd415b9b	-0.047206502
201	0xbc7fb77a	-0.015607709
202	0x3d4c3d25	0.049863
203	0xbd703914	-0.058648184
204	0xbd76d3e6	-0.060260676
205	0x3b81838d	0.0039524497
206	0x3a89d05d	0.0010514368
207	0xbd500614	-0.050787047
208	0xbc9aba7f	-0.018887756
209	0xbd0c19b9	-0.03420422
210	0xbd116346	-0.035495065
211	0x3d1a8b0e	0.03773027
212	0x3d909225	0.07059125
213	0xbd7a6bfb	-0.061138134
214	0xbbb9522b	-0.005655547
215	0xbd6a9918	-0.057274908
216	0xbc1714c8	-0.009221263
217	0xbd81fa9a	-0.063466266
218	0xbd270f36	-0.04078599
219	0x3cd91f52	0.026504193
220	0xbca3798e	-0.019955423
221	0x3d129f3b	0.035796385
222	0xbd039ba6	-0.03213086
223	0x3d5e04d1	0.054203812
224	0xbc932a1d	-0.017964417
225	0xbc1975d1	-0.0093664685
226	0xbd7b1802	-0.061302193
227	0xbda447ec	-0.080215305
228	0xbd3cca01	-0.046091083
229	0x3c6a6e0d	0.014308465
230	0xbd67de1c	-0.056608304
231	0xbd643da2	-0.05572284
232	0xbd139de3	-0.036039244
233	0x3c0716c2	0.008245172
234	0xbd56b347	-0.052417066
235	0xbdbeb24d	-0.09311352
236	0xbd557601	-0.05211449
237	0x3d15a211	0.03653151
238	0x3d7daca3	0.061932217
239	0x3d9f8dd0	0.077907205
240	0x3c88ba28	0.016690329
241	0x3d14e232	0.03634853
242	0x3d9f6d6e	0.07784544
243	0x3c4cd5cb	0.012502144
244	0x3d99d3ff	0.07511138
245	0x3d4edd10	0.05050379
246	0xbda39382	-0.07987119
247	0x3d963a55	0.07335345
248	0xbd8d7f1b	-0.06909009
249	0x3d54d7fd	0.051963795
250	0x3ce234eb	0.027613124
251	0xbd4ef170	-0.05052322
252	0x3d178efb	0.03700159
253	0xbd83f14d	-0.06442509
254	0x3c491564	0.012273166
255	0x3c2932d5	0.010327061

bias f4 [256]
0	0x3d386d3c	0.04502605
1	0xbd24edc3	-0.04026581
2	0xbd0c7b6b	-0.034297388
3	0xbd92d6c2	-0.07169868
4	0x3c8e8789	0.017398613
5	0x3db976e9	0.090558834
6	0xbd86b36f	-0.06577193
7	0x3d026feb	0.031845015
8	0x3d97049c	0.07373926
9	0x3c5a922b	0.013340513
10	0xbd2e2a7b	-0.04252098
11	0x3d9d4834	0.07679787
12	0xbd24242d	-0.040073562
13	0xbca96816	-0.020679515
14	0x3d4eb8c9	0.050469194
15	0x3d2d820a	0.042360343
16	0xbd5aa82f	-0.05338305
17	0xbd9becf0	-0.076135516
18	0xbb0ec533	-0.002178502
19	0x3d8672a6	0.06564836
20	0x3d3eb124	0.046555653
21	0x3b7c1928	0.0038467143
22	0xbdf76e1c	-0.120815486
23	0xbd06cfb3	-0.03291292
24	0xbdac31ae	-0.08407913
25	0xbb0c2624	-0.0021385038
26	0xbd92e862	-0.0717323
27	0x3d003563	0.031300914
28	0xbdad7ba3	-0.084708475
29	0xbd7f3819	-0.06230936
30	0x3d9e1bcc	0.077201456
31	0xbbb0a23a	-0.0053904327
32	0x3d5b3012	0.05351264
33	0xbdf00aa6	-0.11720781
34	0x3cdf4fe3	0.027259773
35	0x3d43253c	0.04764293
36	0xbd9b776a	-0.07591136
37	0x3d7f5574	0.062337354
38	0xbdaf5bb6	-0.08562414
39	0xbd01bbdd	-0.0316733
40	0xbc496046	-0.01229102
41	0x3ce17400	0.027521133
42	0x3d8269e0	0.0636785
43	0x3c986369	0.01860209
44	0x3c9f37e0	0.019435823
45	0x3d117b93	0.03551824
46	0x3d59c69e	0.05316793
47	0xbc1c0b47	-0.009524173
48	0x3d1c0e14	0.038099363
49	0x3d3c5c89	0.045986686
50	0xbd85cf72	-0.06533708
51	0x3d92d0df	0.07168745
52	0xbd6b77cb	-0.05748729
53	0xbda0cdd4	-0.078517586
54	0xbd0d199a	-0.034448244
55	0x3d2b986a	0.0418934
56	0xbc4c6070	-0.012474164
57	0xbdabbb0a	-0.08385284
58	0x3dafdb9e	0.085868105
59	0xbcbbc05d	-0.022918874
60	0xbd4baed4	-0.049727276
61	0xbdd76b38	-0.10518497
62	0xbd97de27	-0.07415419
63	0xbaca4a4b	-0.0015433518
64	0xbc95d2b0	-0.01828894
65	0xb7a61e34	-1.9802806e-05
66	0xbc26eeac	-0.01018874
67	0xbd0ae9c3	-0.03391434
68	0xbd961d06	-0.073297545
69	0xbdd549d8	-0.10414475
70	0x3b86769e	0.0041034957
71	0xbd370b62	-0.04468859
72	0xbd1d1514	-0.03835018
73	0x3bf624c1	0.0075117056
74	0x3c421096	0.011844775
75	0x3d590a39	0.052988265
76	0x3c9f83e8	0.019472077
77	0xbd82ced8	-0.063871086
78	0x3d03509b	0.032059293
79	0xbd96a6f5	-0.07356063
80	0xbac855ab	-0.001528432
81	0xbd16ff7c	-0.036864743
82	0x3c298d4a	0.010348627
83	0xbb67c1a8	-0.003536323
84	0x3d9e39e4	0.077258855
85	0xbd5522a7	-0.052035
86	0x3d2686e6	0.040655993
87	0xbd1dc448	-0.038517267
88	0xbda7be63	-0.0819061
89	0xbd7a3d6c	-0.061093733
90	0xbb3d6f79	-0.0028905554
91	0x3c8f17d3	0.017467415
92	0xbb76d02d	-0.0037660704
93	0xbbfae646	-0.0076568453
94	0xbc004bae	-0.007830543
95	0xbd670f35	-0.056410987
96	0xbdefe4b7	-0.11713546
97	0x3dbb86fc	0.091566056
98	0xbd99b657	-0.07505482
99	0xbd8d4d5e	-0.06899522
100	0xbd1e328f	-0.038622435
101	0x3d6244e8	0.055241495
102	0x3dae0050	0.08496153
103	0xbd93a0d0	-0.07208407
104	0xbbd2743c	-0.0064225476
105	0xbdaeec01	-0.08541108
106	0xbd6dd12f	-0.05806082
107	0xbce642a7	-0.028107954
108	0xbce9b34c	-0.028527878
109	0xbdaf6014	-0.08563247
110	0x3d88b1b3	0.066745184
111	0x3bcb84d5	0.006210903
112	0xbddd760e	-0.10813533
113	0xbd0cd7c4	-0.034385458
114	0x3d88cfda	0.066802695
115	0xbd8ce4ff	-0.06879615
116	0xbd986231	-0.074406035
117	0x3c5dd847	0.013540334
118	0xbdb3ba44	-0.08775762
119	0x3b459114	0.0030146288
120	0xbd2a4ba7	-0.041576054
121	0x3d807e6a	0.062741116
122	0x3d98e07c	0.07464692
123	0xbdaf8983	-0.0857115
124	0x3c9e6ea1	0.019339861
125	0xbda27e48	-0.079342425
126	0xbdb19d08	-0.086725295
127	0xbc3b3c35	-0.011427929
128	0x3c811e53	0.01576153
129	0xbb5d03a4	-0.0033724094
130	0x3c193295	0.009350439
131	0xbd9106ea	-0.07081397
132	0xbb4d1d18	-0.0031297859
133	0x3d94cef9	0.072660394
134	0x3d167257	0.036730137
135	0xbda00e83	-0.07815268
136	0xbce35893	-0.027752196
137	0xbd010607	-0.03149989
138	0xbda509a8	-0.080584824
139	0x3d996e7e	0.07491778
140	0x3d7b3cef	0.061337408
141	0x3d3d695e	0.046243064
142	0xbd9f5bfe	-0.07781218
143	0xbb58ca4d	-0.0033079565
144	0xbd8520dd	-0.06500409
145	0xbca07582	-0.019587282
146	0x3d8088e0	0.06276107
147	0x3cddab40	0.027059197
148	0xbdc4d9e9	-0.096118756
149	0x3d86d82a	0.06584199
150	0xbd84ca98	-0.06483954
151	0x3d1dcfd6	0.038528286
152	0xbd875a57	-0.06609028
153	0xbbf0712e	-0.007337711
154	0x3cf582f4	0.02996967
155	0x3bed7897	0.0072470414
156	0xbd9bafa5	-0.07601861
157	0xbcf2d2a9	-0.029641466
158	0x3c837fa9	0.016052084
159	0x3c945fdc	0.018112116
160	0xbdf26e85	-0.11837486
161	0xbd8dbb63	-0.06920507
162	0xbd45e360	-0.048312545
163	0xbdeb4622	-0.11487986
164	0xbd387479	-0.045032952
165	0xbda38375	-0.07984058
166	0xbdce6b59	-0.10079069
167	0xbbc718e7	-0.0060759666
168	0xbdc64b46	-0.09682326
169	0xbd7c0b4b	-0.061534207
170	0xbdae1bf9	-0.08501429
171	0xbbcc0e77	-0.0062273103
172	0xbcbeb849	-0.023281233
173	0xbdc8e054	-0.09808412
174	0x3ccc097c	0.024906866
175	0x3d244544	0.04010512
176	0xbda6047e	-0.081063256
177	0x3a88add4	0.0010427781
178	0x3d585e61	0.05282438
179	0x3df2801e	0.11840843
180	0xbca685fb	-0.020327559
181	0xbd4d707a	-0.050156094
182	0x3d75a34a	0.059970178
183	0x3d377612	0.044790335
184	0xbdc9bb2a	-0.09850152
185	0xbd8170fb	-0.063203774
186	0xbdd7146d	-0.10501943
187	0xbcaea5a3	-0.021319216
188	0xbd6e040c	-0.05810933
189	0xbda0c042	-0.0784917
190	0x3d749d1b	0.05972014
191	0x3cfd32e5	0.030908057
192	0x3d385ba0	0.045009255
193	0x3c84d0c3	0.016212827
194	0xbd7032c6	-0.05864217
195	0x3cf97329	0.03045042
196	0xbc1b1f10	-0.009467855
197	0x3c83ba10	0.016079932
198	0xbc6e54a0	-0.014546543
199	0xbd48b6fa	-0.049002625
200	0x3dbbbf63	0.091673635
201	0xbca0f351	-0.019647272
202	0xbdfa2c62	-0.122154966
203	0xbd86aa65	-0.06575469
204	0xbd4dce03	-0.050245296
205	0xbcd1dfd2	-0.025619421
206	0x3d630259	0.05542216
207	0xbd82eaf0	-0.06392467
208	0x3d78668e	0.06064468
209	0x3c85a0b9	0.01631199
210	0x3d74d3d7	0.05977234
211	0xbd347016	-0.044052206
212	0x3c2c8e6a	0.010532001
213	0xbc0bb352	-0.00852664
214	0xbc426534	-0.011864949
215	0xbda20b7f	-0.07912349
216	0xbd8428c6	-0.064530894
217	0x3d3ba73c	0.045813784
218	0xbd7e1b39	-0.06203768
219	0xbcf7c8ab	-0.030247053
220	0xbe06994a	-0.13144413
221	0xbd33adcf	-0.04386693
222	0xbda4a66d	-0.08039556
223	0x3d43f31f	0.04783928
224	0x3d402e8c	0.04691939
225	0x3d056718	0.03256902
226	0x39e0d54b	0.00042883525
227	0xbd9e1c64	-0.07720259
228	0xbc72fe7f	-0.014831184
229	0xbd7f6a76	-0.06235739
230	0x3c247837	0.010038427
231	0x3d845198	0.06460875
232	0x3d55c0e0	0.052185893
233	0xbc953e57	-0.018218203
234	0x3d91d62e	0.0712093
235	0xbc9e8a2b	-0.019352993
236	0xbc214409	-0.009842881
237	0xbd28c24b	-0.041200917
238	0x3d36f064	0.044662848
239	0x3daec42a	0.08533509
240	0xbd0e711b	-0.034775835
241	0xbdafd633	-0.08585777
242	0x3db9cdab	0.09072431
243	0xbdb246af	-0.08704888
244	0x3d4ffd94	0.05077894
245	0x3cb765a0	0.022387326
246	0xbd9f7c87	-0.077874236
247	0x3d90c224	0.070682794
248	0xbc8d35dd	-0.017237598
249	0x3da3ac27	0.0799182
250	0xbdf8faed	-0.12157235
251	0xbda26121	-0.07928682
252	0xbdc16f75	-0.09445087
253	0x3d1438f6	0.036187135
254	0xb9c0ba47	-0.0003675988
255	0x3d977caa	0.07396825

weight f4 [512, 256]
0	0x3d015195	0.031571943
1	0xbd90436b	-0.07044109
2	0xbd803266	-0.06259613
3	0x3a8523be	0.0010157747
4	0xbc2a0446	-0.010376995
5	0xbbeb2f9a	-0.0071773054
6	0x3d23e211	0.040010516
7	0xbd1087ab	-0.035285633
8	0xbd0a1af2	-0.033717103
9	0x3c85f21c	0.016350798
10	0xbd08b647	-0.03337696
11	0xbd0cabe9	-0.034343634
12	0xbcc29c53	-0.023756182
13	0xbcf8e353	-0.030381834
14	0xbc24c6ac	-0.010057133
15	0xbd0bb9c1	-0.034112696
16	0xbc28b649	-0.010297366
17	0x3cf12416	0.029436152
18	0x3c294a10	0.010332599
19	0x3ca4a386	0.020097505
20	0xb9aa3457	-0.00032463923
21	0x3cb6828b	0.022279045
22	0xbd687173	-0.05674882
23	0xbd54f387	-0.05199006
24	0x3d2b30ca	0.041794576
25	0xbc933dad	-0.017973745
26	0xbd0ef876	-0.03490492
27	0xbcd4057c	-0.025881521
28	0xbc637648	-0.013883181
29	0xbbf26b64	-0.007398056
30	0x3d40c559	0.047063205
31	0xbbba4191	-0.0056840857
32	0x3d1225d8	0.03568062
33	0x3d1f51ba	0.0388963
34	0x3c715ddb	0.01473185
35	0xbd163692	-0.036673136
36	0x3c2e78aa	0.010648886
37	0xbd5a654e	-0.053319268
38	0xbd20a8f1	-0.039223615
39	0xbc13c92e	-0.009020133
40	0x3cdf45d7	0.027254982
41	0xbd0b8b3b	-0.034068327
42	0x3b87a3ad	0.0041393847
43	0x3d2c77f1	0.042106573
44	0xbcfd22a6	-0.03090031
45	0x3b4d0948	0.003128605
46	0x3cb672e1	0.022271575
47	0xbcd7d883	-0.026348358
48	0x3ccb01a1	0.02478105
49	0xbce19bd8	-0.027540132
50	0xbc64bda2	-0.013961228
51	0x3cfcb755	0.030849138
52	0xbd3c089a	-0.04590664
53	0x3ccda8dc	0.025104932
54	0xbd25b5cb	-0.040456574
55	0xbc562e04	-0.013072494
56	0xbca84f1b	-0.020545533
57	0xbd4b3f60	-0.049620986
58	0xbd150244	-0.036379114
59	0x3d44dfb2	0.048064895
60	0xbb2d83b8	-0.0026476216
61	0x3d242197	0.040071096
62	0x39ca32ce	0.00038566295
63	0xbd3549ee	-0.044259958
64	0xbd8621f1	-0.065494426
65	0x3c334bb5	0.010943343
66	0xbd791b1e	-0.060816877
67	0xbc4fe7e7	-0.012689567
68	0x3c8905a6	0.016726326
69	0xbd20ca8e	-0.03925567
70	0xbd2b20a4	-0.041779175
71	0xbc5de14d	-0.013542485
72	0xbd4a725b	-0.049425464
73	0xbd53a4bb	-0.05167077
74	0xbd55463c	-0.052068934
75	0x3c31cfdf	0.010852783
76	0xbc50822a	-0.012726346
77	0x3c9f32c2	0.019433383
78	0x3d015ae2	0.031580813
79	0xbc6a017c	-0.01428258
80	0x3bde541f	0.0067849304
81	0xbd782df3	-0.060590696
82	0xbc8840f9	-0.016632544
83	0xbd5a2619	-0.05325899
84	0xbce484aa	-0.02789529
85	0xbd7faa81	-0.062418465
86	0xbd84d01c	-0.06485006
87	0x3b480685	0.0030521464
88	0x3c85c353	0.01632849
89	0xbd4a7d15	-0.049435694
90	0xbca9d8e2	-0.0207333
91	0x3d13f267	0.036119845
92	0xbca6c978	-0.02035974
93	0x3cb6a274	0.02229426
94	0x3b90f736	0.004424001
95	0x3d13ac5e	0.036053054
96	0xbd418536	-0.04724618
97	0x3c541e21	0.012946636
98	0xbd5552e6	-0.05208101
99	0xbc166783	-0.009179953
100	0xbc8032ee	-0.015649285
101	0xbd23416f	-0.039857324
102	0x3cec7598	0.028864667
103	0xbd594dfb	-0.053052884
104	0xbce2b4bd	-0.027674073
105	0x3cf9ceca	0.030494113
106	0xbc9d4a8f	-0.019200591
107	0xbce5d247	-0.02805437
108	0xbd77a692	-0.06046159
109	0xbbd20332	-0.0064090723
110	0x3cba2319	0.022721814
111	0xbd1e8f2b	-0.038710754
112	0xbd569aa9	-0.05239359
113	0x3cffe0c8	0.031235114
114	0x3c9171d8	0.01775448
115	0x3d5f409e	0.054504983
116	0xbd301617	-0.042989817
117	0x3b917d93	0.0044400184
118	0x3c7071df	0.0146755865
119	0xbbd6b334	-0.0065521244
120	0x3d334fa3	0.04377712
121	0x3c1213c1	0.0089158425
122	0x3c3c29b3	0.011484551
123	0xbd213101	-0.039353374
124	0x3d0f8cc9	0.035046373
125	0xbc0af412	-0.008481042
126	0xbd8c2ad0	-0.06844103
127	0xbd37d7d9	-0.044883583
128	0xbc51b9ee	-0.012800677
129	0x3caf473d	0.021396274
130	0x3cf3dd73	0.029768681
131	0x3c0ef250	0.008724764
132	0xbd0644d5	-0.032780487
133	0x3b07bdd8	0.002071252
134	0xbd2fe769	-0.0429453
135	0xbd2eb830	-0.042656124
136	0xbce131ad	-0.027489508
137	0x3d1b702d	0.037948776
138	0xbd390b7c	-0.045176968
139	0x3c8a6911	0.016895803
140	0x3cc385e2	0.023867551
141	0xbcd04061	-0.025421323
142	0x3bb47ac2	0.005507798
143	0x3d270e5d	0.040785182
144	0xbd4022bd	-0.04690813
145	0x3d032a63	0.032022845
146	0xbd071a93	-0.032984328
147	0xbd4c1831	-0.04982776
148	0xbd278220	-0.04089558
149	0x3d535929	0.0515987
150	0x3b195ab3	0.0023400008
151	0x3d266841	0.040626768
152	0xbd679fcc	-0.05654888
153	0x3ad853a3	0.0016504418
154	0x3c4f6abf	0.012659728
155	0xbd89fd90	-0.06737816
156	0x3ca8ef68	0.02062197
157	0x3cae2677	0.021258576
158	0xbd39f8a6	-0.045403145
159	0xbd265454	-0.040607765
160	0xbd70e57f	-0.058812615
161	0x3d681cf2	0.05666823
162	0xbd03a1bb	-0.03213666
163	0xbd8297e9	-0.06376631
164	0x3bbd4f75	0.0057772943
165	0x3ba5dfdf	0.005062088
166	0xbb00a24c	-0.0019627986
167	0xbcfa6dee	-0.030569997
168	0xbc78f0d3	-0.015194136
169	0xbcef09f5	-0.029179553
170	0x3bd4e18d	0.0064966143
171	0xbd10aea5	-0.035322804
172	0xbca36ad9	-0.01994841
173	0x3be7c751	0.007073321
174	0x3d10045a	0.0351604
175	0x3c0f93f6	0.008763304
176	0xbc44f717	-0.012021801
177	0x3bc46b6a	0.00599425
178	0xbd8852a3	-0.06656387
179	0x3d113124	0.035447255
180	0xbc56d778	-0.013112895
181	0xbcce2909	-0.025166051
182	0xbd41eda1	-0.04734576
183	0xbd449a15	-0.047998507
184	0xbcfcee5b	-0.030875375
185	0xbc8e8971	-0.017399522
186	0x3d3ec911	0.04657847
187	0xbb3ee880	-0.002913028
188	0x3d203f61	0.039122943
189	0x3c1d03e9	0.009583452
190	0xbd0b8d16	-0.034070097
191	0xbd3fc46a	-0.046818174
192	0xbb2fece1	-0.0026844072
193	0x3d01ce1e	0.03169071
194	0x3cc2917d	0.023751015
195	0xbd447f7c	-0.04797314
196	0xbd2105bd	-0.039312113
197	0xbd049281	-0.03236628
198	0x3c7972e1	0.015225143
199	0xbc370370	-0.011170253
200	0x39e63351	0.00043907252
201	0x3d71d906	0.05904486
202	0x3d59df45	0.053191442
203	0xbc912bd2	-0.01772109
204	0xbc4d1f07	-0.0125196045
205	0x3cf7f9ab	0.030270418
206	0x3d43306b	0.047653597
207	0x3c42ac64	0.011881921
208	0xbcd38fe9	-0.025825458
209	0x3c8fb2f8	0.017541394
210	0x3d19d7d4	0.037559345
211	0x3d5d6944	0.054055467
212	0x3d240df6	0.040052377
213	0x3cc5bde2	0.024138395
214	0x3cf77636	0.030207735
215	0xbcb796ee	-0.022410836
216	0xbc201ed7	-0.009772978
217	0x3c287253	0.010281163
218	0xbd09dd71	-0.03365845
219	0xbce8f0bd	-0.028435105
220	0x3d417467	0.04723015
221	0x3cf493de	0.029855665
222	0xbb62b77d	-0.003459423
223	0x3c02921c	0.0079694055
224	0xbd2a936a	-0.04164449
225	0xbc81141b	-0.015756657
226	0xbc84e463	-0.016222185
227	0x3d5adde3	0.053434264
228	0xbcf63f7b	-0.030059567
229	0x3cb7e9ac	0.02245029
230	0x3d17b7ca	0.03704051
231	0xbd06ebde	-0.032939784
232	0xbd27b6f0	-0.040945947
233	0xbd60931f	-0.054827806
234	0x3d70fed3	0.05883677
235	0xba902312	-0.001099678
236	0xbc47176b	-0.012151579
237	0x3bdce561	0.0067412113
238	0xbd73166e	-0.059347562
239	0xbc357f2d	-0.011077684
240	0x3d04a3f7	0.03238293
241	0xbd937142	-0.071993366
242	0xbd0ba626	-0.034094
243	0x3c21f572	0.009885179
244	0xbc58911e	-0.013218192
245	0x3c290901	0.010317088
246	0x3d35e890	0.044411242
247	0xbd1dcd36	-0.038525783
248	0x3bfb95b9	0.0076777604
249	0x3cbfa496	0.02339391
250	0xbb43b526	-0.0029862612
251	0xbd293de5	-0.041318793
252	0x3c844caf	0.016149847
253	0x3c1d6d81	0.009608627
254	0xbd24b91b	-0.040215593
255	0x3d72ae92	0.059248514

bias f4 [512]
0	0xbd278adb	-0.040903907
1	0x3d02e163	0.031953227
2	0xbd4300e4	-0.04760827
3	0xbcc57fd9	-0.024108814
4	0xbd959240	-0.073032856
5	0x3c578378	0.013153903
6	0x3d3b1aab	0.04567973
7	0x3c3daa51	0.011576251
8	0xbd42b787	-0.047538307
9	0xbb80dfb0	-0.0039329156
10	0xbd78c22d	-0.060732055
11	0x3ba61f50	0.0050696507
12	0xbb25f97a	-0.0025325702
13	0xbd81ff27	-0.063474946
14	0x3cdc28db	0.02687495
15	0x3cf0da35	0.029400924
16	0x3d3a2f3f	0.045455214
17	0xbd5d5451	-0.05403549
18	0xbd85078e	-0.064955816
19	0xbb472733	-0.0030388355
20	0xbd02840f	-0.031864222
21	0x3cc84c90	0.02445057
22	0x3cd28904	0.0257001
23	0x3cca2ccd	0.024679566
24	0x3c9f1494	0.019418992
25	0xbcb29fae	-0.021804657
26	0xbd2e791c	-0.042595968
27	0xbd36643b	-0.04452918
28	0xbc3418dc	-0.010992255
29	0xbcf04883	-0.029331451
30	0xbd1dbb98	-0.03850898
31	0xbd88e9e2	-0.066852346
32	0x3bf67794	0.007521579
33	0xbcfa17bf	-0.030528901
34	0x3d2e4278	0.04254386
35	0xbd57986f	-0.052635606
36	0xbd98d99b	-0.0746338
37	0x3c39e11f	0.011345177
38	0xbc7fce5e	-0.015613167
39	0xbcbc11e8	-0.022957757
40	0x3c2f109a	0.01068511
41	0xbd534265	-0.05157699
42	0x3cacb129	0.02108057
43	0xbd112e0f	-0.035444316
44	0xbd74ddc0	-0.05978179
45	0xbd1b975f	-0.037986156
46	0x3b9c2b49	0.004765902
47	0xbd89a86c	-0.06721577
48	0x3d714ece	0.058913045
49	0xbd8574ba	-0.065164044
50	0xbd879f9d	-0.06622241
51	0x3d33fde5	0.043943305
52	0xbd3047cd	-0.043037225
53	0x3ceac9de	0.02866071
54	0xbd8ad7a2	-0.0677941
55	0xbd175080	-0.036942005
56	0x3a427f0c	0.0007419444
57	0xbcbc05bd	-0.022951955
58	0xbd387d57	-0.04504141
59	0xbd9c9f06	-0.07647519
60	0xbd9b3ecf	-0.07580339
61	0xbce8ed17	-0.028433366
62	0xbd34e1b0	-0.044160545
63	0x3c8f766f	0.017512528
64	0xbd912732	-0.07087554
65	0xbb31f167	-0.0027151944
66	0x3d188185	0.037232894
67	0x3cf6d443	0.030130511
68	0x3ccc8c87	0.024969352
69	0xbd758400	-0.059940338
70	0xbd58b66a	-0.05290834
71	0xbc23212e	-0.009956641
72	0x3bfd9195	0.007738302
73	0xbbe7d143	-0.0070745065
74	0xbd42f34a	-0.0475953
75	0x3d2dad5d	0.04240166
76	0xbd4ebae6	-0.05047121
77	0xbd4bef87	-0.049788978
78	0x3cd4c383	0.025972134
79	0x3d33c4b8	0.043888777
80	0x3d31c9f5	0.04340549
81	0xbaadd7ba	-0.0013263144
82	0xbd9a5991	-0.07536615
83	0xbd7a3dd2	-0.061094113
84	0xbc9cc014	-0.019134559
85	0xbd8ef1ca	-0.06979711
86	0xbd1571e9	-0.036485586
87	0xb9ea3e5a	-0.00044678414
88	0xbd5ba3c3	-0.053622972
89	0xbd9d1159	-0.076693244
90	0xbb2dbc51	-0.002650995
91	0xbd1ff135	-0.039048392
92	0xbd001539	-0.03127024
93	0xbc48f0a5	-0.012264405
94	0xbc96d82d	-0.018413628
95	0x3d3e999b	0.04653321
96	0xbd34b2c0	-0.04411578
97	0x3d52fc4c	0.05151014
98	0xbba4659e	-0.0050169965
99	0xbbcf38b9	-0.0063239005
100	0x3c7da9be	0.015482364
101	0x3c16f8d8	0.009214602
102	0xbd19558f	-0.03743511
103	0xbd8c6573	-0.068552874
104	0xbba49168	-0.0050222166
105	0xbbe70012	-0.007049569
106	0xbce41a38	-0.027844533
107	0xbc8206f9	-0.015872465
108	0xbd5b593b	-0.053551894
109	0x3c6dc6b0	0.014512703
110	0xbd1fdbd5	-0.039028008
111	0x3c96229b	0.018327048
112	0xbd50fc3e	-0.051021807
113	0x3ccadc53	0.024763262
114	0xbd4c6154	-0.049897507
115	0xbd81d1de	-0.06338857
116	0xbd78eafe	-0.06077098
117	0xbd8cd29f	-0.0687611
118	0x3cb75655	0.022380034
119	0xbced00ff	-0.028931139
120	0xbc842de6	-0.016135167
121	0xbd26865e	-0.040655486
122	0x3cc23b2b	0.023709854
123	0xbd39f272	-0.04539723
124	0xbd636302	-0.055514343
125	0x3cf96738	0.030444726
126	0xbd69b27f	-0.057054993
127	0x3cca315a	0.024681736
128	0x3d287e7e	0.041136257
129	0x3d02a5b4	0.031896308
130	0xbd7f7e90	-0.06237656
131	0x3d019e72	0.031645246
132	0xbd4b0d93	-0.049573492
133	0xbd0f4fb0	-0.034988105
134	0xbd8e1bed	-0.0693892
135	0x3ceb17df	0.028697906
136	0xbd9c4e01	-0.076320656
137	0x3bcb29d0	0.006200053
138	0x3cd7317c	0.026268713
139	0xbd55646b	-0.05209772
140	0xba32ea3f	-0.00068250665
141	0x3cc15a46	0.023602616
142	0x3c4e6901	0.012598277
143	0xbca7ca42	-0.020482186
144	0xbcb4a327	-0.022050453
145	0x3c8c68fb	0.017139902
146	0xbd9ca0b1	-0.07647837
147	0xbd834efd	-0.0641155
148	0x3c8dd2f3	0.017312502
149	0xbcb20e46	-0.021735322
150	0x3d096fe4	0.033553973
151	0xbb787303	-0.003791035
152	0x3d11f1b9	0.035630915
153	0x3ce3b625	0.027796814
154	0xbd00d306	-0.031451248
155	0x3b5a6bba	0.003332837
156	0xbd05e98c	-0.03269343
157	0x3c30cd55	0.0107911425
158	0xbbddadce	-0.006765104
159	0x3c03a2d9	0.008034431
160	0x3c84e5c6	0.016222846
161	0xbc21703f	-0.009853422
162	0x3cfc3caa	0.030790646
163	0xbd72b607	-0.059255626
164	0x3b044027	0.002017984
165	0x3ce2d2bc	0.027688377
166	0xbcd549c9	-0.02603616
167	0x3b586aed	0.0033022717
168	0xbc20a8ed	-0.0098059
169	0x3b00119e	0.001954175
170	0xbd23e343	-0.040011656
171	0xbca4d228	-0.020119742
172	0xbb964e85	-0.004586997
173	0x3d0a223d	0.03372406
174	0x3ca6fe31	0.02038488
175	0xbd43aeef	-0.04777425
176	0xbbec1bf5	-0.007205481
177	0x3d1fa1c4	0.03897263
178	0x3d4228b1	0.047402088
179	0xbd693fc3	-0.056945574
180	0xba0dc9a6	-0.0005408771
181	0xbc82ab16	-0.01595072
182	0x3cd75cff	0.026289461
183	0xbcc7d873	-0.024395203
184	0x3d01efe4	0.03172292
185	0x3c414ebb	0.011798556
186	0x3d108809	0.035285983
187	0x3d0dbbd7	0.034602966
188	0x3ba7305d	0.005102201
189	0xbd07af69	-0.03312627
190	0x3d3f1413	0.046650004
191	0x3cc08a53	0.023503458
192	0xbd7af664	-0.061270133
193	0x3c175e81	0.00923884
194	0xbd8eb1cf	-0.06967508
195	0xbcd1a8bb	-0.025593152
196	0x3c368a3d	0.011141357
197	0xbcd5e71f	-0.026111184
198	0x3cb7fd63	0.022459691
199	0x3b545fce	0.0032405737
200	0xbd570e23	-0.052503716
201	0xbd99d388	-0.075110495
202	0xbc51c88a	-0.01280416
203	0x3cdf7f9a	0.027282525
204	0x3d307480	0.043079853
205	0x3c0c5e7d	0.00856745
206	0x3cf0eb1e	0.029408988
207	0xbc9f4734	-0.019443132
208	0xbcdd7424	-0.02703292
209	0xbd2c0e76	-0.04200598
210	0x3d2414c0	0.04005885
211	0x3d2518d2	0.040306874
212	0xbd4ccc8b	-0.049999755
213	0xbcf1c427	-0.029512478
214	0x3c9bce1e	0.019019183
215	0xba94a1db	-0.0011339741
216	0x3d180a94	0.037119463
217	0x3cc3654b	0.023852011
218	0xbcb43ba4	-0.022001095
219	0x3cdebe7a	0.027190436
220	0xbd39e9d9	-0.04538903
221	0xbd865d2e	-0.06560741
222	0xbca4f9fb	-0.020138731
223	0xbd2693bd	-0.040668238
224	0xbc402af8	-0.011728995
225	0x3d4526cb	0.0481327
226	0xbd12f068	-0.0358738
227	0xbd4b5054	-0.049637154
228	0x3a733775	0.0009277978
229	0xbd1b598a	-0.037927188
230	0xbd2211f0	-0.039567888
231	0xbbd7768f	-0.0065754126
232	0xbd231f15	-0.039824564
233	0x3d2ab13c	0.04167293
234	0x3d004705	0.03131773
235	0x3c95d58c	0.018290304
236	0x3d2a752b	0.041615646
237	0x3ab5b583	0.0013863299
238	0xb7f534b4	-2.9230818e-05
239	0xbc080b54	-0.008303482
240	0xbd2570f6	-0.04039093
241	0xbd56141d	-0.052265275
242	0xbaed5054	-0.0018105605
243	0xbd3efadf	-0.046625968
244	0xbd54af31	-0.051924888
245	0xbd4bd1e6	-0.04976072
246	0xbcf2760a	-0.029597301
247	0xbd7d1dee	-0.06179612
248	0x3d247574	0.040151075
249	0x3bdb8891	0.0066996296
250	0xbd094c2c	-0.03351991
251	0xbcc57d7a	-0.024107683
252	0x3c3a66db	0.011377062
253	0x3bbc8bd6	0.0057539744
254	0xbc8fdbb1	-0.017560812
255	0x3ab2eef2	0.0013651534

weight f4 [20, 512]
0	0x3b538652	0.0032276106
1	0x3c6cfd0b	0.014464627
2	0xbc68fb1c	-0.014220025
3	0xbc75efd2	-0.015010791
4	0x3ccd8284	0.025086649
5	0x3d11336b	0.035449427
6	0xbc58abc8	-0.01322455
7	0xbd22fc03	-0.03979112
8	0xbd379abe	-0.044825308
9	0xba792873	-0.00095046236
10	0x3cd7c33b	0.02633821
11	0xbccc6be3	-0.024953788
12	0xbd0175b7	-0.031606402
13	0x3ca80dcc	0.020514391
14	0xbc9c1583	-0.019053226
15	0xbcfcafd7	-0.030845566
16	0xbc8c570e	-0.017131355
17	0xbd07cf8a	-0.03315691
18	0x3cf6c536	0.030123334
19	0xbcd1eac2	-0.025624637
20	0x3d313573	0.043263864
21	0xbcb42df5	-0.02199457
22	0xbcf410d2	-0.029793177
23	0x3b6bb688	0.0035966951
24	0x3c79415c	0.015213337
25	0x3b4711da	0.003037563
26	0x3cf5451f	0.029940186
27	0xbce7238c	-0.028215192
28	0x3c569311	0.013096587
29	0xbcb5fbb6	-0.022214752
30	0xbc6ad26c	-0.014332395
31	0x3a99dd2f	0.0011738891
32	0xbce203dc	-0.02758973
33	0x3c7c26d9	0.015390121
34	0x3c656095	0.014000078
35	0x3c9724f5	0.01845024
36	0x3cb70ceb	0.022345027
37	0x3d3c4c00	0.045970917
38	0xbd15ae11	-0.036542956
39	0xbd14c83f	-0.036323782
40	0xbcbadb7a	-0.022809733
41	0x3c8ae8ba	0.016956676
42	0xbcc82a67	-0.024434282
43	0xbd0bfb58	-0.034175247
44	0xbca55e92	-0.020186696
45	0xbc921b1c	-0.017835192
46	0x3c61057d	0.013734219
47	0xbbd4cda9	-0.006494243
48	0xbd827cce	-0.06371461
49	0xbc23fc26	-0.010008847
50	0xbb48c34c	-0.0030633984
51	0xbcb5631d	-0.022141987
52	0x3cc07491	0.023493083
53	0x3c8ffa34	0.01757536
54	0x3be3babe	0.0069497516
55	0xbb96c3d7	-0.0046009826
56	0x3c02e770	0.007989749
57	0x3ce4a5a0	0.027911007
58	0xbc846949	-0.016163485
59	0x3c1ecff4	0.009693135
60	0xbcb89a52	-0.022534523
61	0xbc8f8fd8	-0.017524645
62	0x3a21b752	0.00061689795
63	0xbd42be5b	-0.04754482
64	0x3a1f83d2	0.00060850114
65	0x3aa417cf	0.0012519303
66	0xbc600bd2	-0.013674693
67	0x3b7323ff	0.0037100313
68	0xbd0bdc90	-0.03414589
69	0xbc9c4a29	-0.019078331
70	0xbceacc47	-0.02866186
71	0xbc1e42d5	-0.009659489
72	0xbbbc7f58	-0.0057524852
73	0x3cf817a2	0.030284707
74	0xbc10486f	-0.008806332
75	0xbc343e7a	-0.011001224
76	0x3cedda20	0.029034674
77	0x3d7ac7fc	0.061225876
78	0x3cc6c2c6	0.024262797
79	0xbd006594	-0.031346872
80	0xbbbde3be	-0.0057949712
81	0xbd1292ee	-0.035784654
82	0xbc7ee607	-0.0155577725
83	0x3caf13ea	0.0213718
84	0xbc1e3d13	-0.009658116
85	0x3c824a0c	0.015904449
86	0xbd1be39f	-0.038058873
87	0xbced7e71	-0.028990956
88	0xbcd493ed	-0.025949443
89	0xbcd31cfb	-0.025770655
90	0xbd059dd8	-0.032621235
91	0xbcc4e1d0	-0.024033457
92	0xbc88186a	-0.016613204
93	0xbd11edd4	-0.0356272
94	0xbb75ac1a	-0.0037486614
95	0xbcdb2cc3	-0.026754742
96	0x3d090f50	0.03346187
97	0xbb9fbd9b	-0.0048748977
98	0xbd56468b	-0.05231337
99	0x3d59c3f8	0.053165406
100	0xbc40ece3	-0.011775228
101	0xbd428f76	-0.047500096
102	0xbcb5bcef	-0.022184817
103	0xbcaa1b18	-0.020764872
104	0xbc3748e4	-0.011186812
105	0x3cc7a192	0.024369035
106	0x3c9caea4	0.019126244
107	0xbbbd55c4	-0.0057780463
108	0x3ce798da	0.028271127
109	0xbca0153f	-0.01954138
110	0xbd40d265	-0.047075648
111	0xbca1fa5d	-0.019772703
112	0xbc410507	-0.011780984
113	0xbd0d3033	-0.034469794
114	0x3c02524b	0.0079541905
115	0x392ee603	0.00016679619
116	0xbcd853fd	-0.026407236
117	0x3c66b3ed	0.014080984
118	0xbca1df06	-0.019759666
119	0x3c355ab4	0.011068989
120	0xbcf0a835	-0.029377082
121	0x3bae2ab3	0.0053151487
122	0x3cca4ee6	0.024695825
123	0x3ced7a9e	0.028989132
124	0xbac2b6c8	-0.0014855498
125	0xbce36c6c	-0.02776166
126	0x3ca8997c	0.020581
127	0xbcef5804	-0.029216774
128	0xbcfc1b23	-0.030774659
129	0xbd9141df	-0.07092642
130	0xbbc78e56	-0.006089966
131	0xbce00f75	-0.02735112
132	0xbbb1a183	-0.005420865
133	0x3ca8656a	0.02055617
134	0xbd096b04	-0.033549324
135	0x3c52ea18	0.012873195
136	0x3d09b40f	0.033618983
137	0x3c07b216	0.008282205
138	0x3c8551f2	0.016274426
139	0x3d03bf76	0.032165013
140	0x3d28ee97	0.041243162
141	0x3d1af2e5	0.0378293
142	0xbb444e46	-0.0029953881
143	0x3d03518b	0.032060187
144	0xbcce9fe6	-0.02522273
145	0xbb511fe1	-0.003190987
146	0xbcb42dd3	-0.021994507
147	0x3bb77691	0.005598851
148	0xbba0aaf7	-0.004903193
149	0xbd1b7732	-0.03795547
150	0x3b75133d	0.00373955
151	0xbc06b4c9	-0.0082218135
152	0x3d127ab8	0.035761565
153	0xbca20e93	-0.01978234
154	0xbc64ac56	-0.013957104
155	0xbc579d6c	-0.013160091
156	0x3c947340	0.018121362
157	0x3cbe6a00	0.023243904
158	0x3b9cbc77	0.004783209
159	0xbc2cf89e	-0.010557322
160	0xbd1500c7	-0.036377694
161	0x3bfa40cf	0.0076371203
162	0x3cbdd80c	0.023174308
163	0xbccc17ae	-0.024913635
164	0xbbd4437d	-0.006477772
165	0x3cca8824	0.02472312
166	0x3d34d1c5	0.044145364
167	0x3835b38d	4.3320983e-05
168	0x3bdce23c	0.0067408364
169	0x3b8143ae	0.0039448356
170	0xbbb75b26	-0.0055955825
171	0x3c2af0dd	0.010433403
172	0x3d1acecc	0.037794873
173	0xbd609225	-0.054826874
174	0xb9a67e94	-0.00031756295
175	0x3ca3b225	0.019982407
176	0x3c8c6f3a	0.01714288
177	0xbcfba552	-0.03071848
178	0xbaf8885a	-0.0018961534
179	0xbc9069a3	-0.017628497
180	0x3c995f14	0.018722095
181	0x3c935986	0.017987024
182	0xbc55fc12	-0.0130605865
183	0x3cde7bc7	0.027158631
184	0xbcb9e04e	-0.022689965
185	0xbc58bdbe	-0.013228832
186	0xbd5c477b	-0.053779107
187	0xbc814b67	-0.015783025
188	0x3c28d675	0.010305037
189	0x3d1b7a59	0.037958477
190	0x3c92abf6	0.017904263
191	0x3c7fee08	0.015620716
192	0x3cd2089a	0.025638867
193	0x3d6b3a86	0.05742886
194	0xbba8731b	-0.0051406748
195	0xbb99c51c	-0.0046926867
196	0xbce1d025	-0.027565071
197	0x3d3c3273	0.04594655
198	0xbbe2b25a	-0.006918234
199	0x3d1aa6dd	0.03775679
200	0xbbdc40eb	-0.006721606
201	0xbb9e2e14	-0.0048272703
202	0xbcbfbf43	-0.02340663
203	0x3cc1535d	0.023599321
204	0xbcf4a494	-0.029863633
205	0xbb6bb7a6	-0.0035967617
206	0x3cee3e8b	0.029082557
207	0xbc07c68f	-0.008287086
208	0x3d071ea3	0.0329882
209	0x3cd2455e	0.025667842
210	0xbd3a26ae	-0.045447044
211	0xbc6f1da4	-0.014594469
212	0x3c92f2a3	0.017937964
213	0xbb1a8262	-0.002357625
214	0xbd281929	-0.04103962
215	0xbd032aff	-0.032023426
216	0x3c71ec48	0.0147658065
217	0x3c36cd04	0.011157278
218	0xbc27466b	-0.01020966
219	0x3bb1ed09	0.005429868
220	0xbcbeb525	-0.023279736
221	0x3c8efc8b	0.017454406
222	0xbc99da6e	-0.018780913
223	0x3bb3c8c7	0.005486581
224	0xbcaa5d16	-0.02079634
225	0xbce872ff	-0.028375147
226	0xbd1d694d	-0.0384305
227	0x3d061b05	0.03274061
228	0x3cead72a	0.028667051
229	0xbc0234b8	-0.007947139
230	0x3d0ee5c9	0.03488711
231	0xbcccac39	-0.024984466
232	0xbbf8e99a	-0.007596207
233	0xbbadb476	-0.0053010536
234	0xbbca3d94	-0.0061718915
235	0xbcf91c38	-0.030408964
236	0xbb92ab0c	-0.004475957
237	0xbc84887e	-0.016178366
238	0xbcee6afe	-0.029103752
239	0x3d3f13b0	0.046649635
240	0xbd091fca	-0.033477582
241	0xbb02768b	-0.0019907083
242	0xbcb9f787	-0.022701038
243	0xbc9cf234	-0.01915846
244	0x3ccdb100	0.025108814
245	0x3be72707	0.007054213
246	0x3c768c8f	0.01504816
247	0xbcb48264	-0.022034831
248	0xbce466b4	-0.027881004
249	0xbd189fe7	-0.03726187
250	0x3cb8d7e2	0.022563878
251	0xbce6b106	-0.028160583
252	0x3cc4d410	0.0240269
253	0xbcc1feb2	-0.023681019
254	0xbb1d7a28	-0.002402911
255	0x3cdf4bfd	0.027257914

bias f4 [20]
0	0x3d0b996b	0.034081858
1	0x3c90c8e8	0.017673925
2	0xbc46240f	-0.012093558
3	0x3cb7ad91	0.02242163
4	0xbb4ee66d	-0.003157045
5	0xbc00facc	-0.007872295
6	0xba8d1ac4	-0.0010765423
7	0x3be84426	0.007088202
8	0xbb4d8323	-0.003135868
9	0xb8392359	-4.4140357e-05
10	0x3c1c17ca	0.009527156
11	0xbba03063	-0.0048885806
12	0xbc62e9f0	-0.01384972
13	0xbc271423	-0.010197672
14	0x3c0e61a0	0.008690268
15	0xbb87766e	-0.004133991
16	0xbc11aa82	-0.00889075
17	0xbbcc3c90	-0.0062328056
18	0xbb6d99e5	-0.0036255058
19	0xbbebc016	-0.0071945293
